{"format": "graph-model", "generatedBy": "2.13.0", "convertedBy": "TensorFlow.js Converter v4.22.0", "signature": {"inputs": {"input": {"name": "input:0", "dtype": "DT_FLOAT", "tensorShape": {"dim": [{"size": "-1"}, {"size": "3"}, {"size": "128"}, {"size": "128"}]}}}, "outputs": {"output": {"name": "Identity:0", "dtype": "DT_FLOAT", "tensorShape": {"dim": [{"size": "-1"}, {"size": "7"}]}}}}, "modelTopology": {"node": [{"name": "PartitionedCall/strided_slice/stack", "op": "Const", "attr": {"value": {"tensor": {"dtype": "DT_INT32", "tensorShape": {"dim": [{"size": "1"}]}}}, "dtype": {"type": "DT_INT32"}}}, {"name": "PartitionedCall/strided_slice/stack_1", "op": "Const", "attr": {"value": {"tensor": {"dtype": "DT_INT32", "tensorShape": {"dim": [{"size": "1"}]}}}, "dtype": {"type": "DT_INT32"}}}, {"name": "PartitionedCall/strided_slice/stack_2", "op": "Const", "attr": {"value": {"tensor": {"dtype": "DT_INT32", "tensorShape": {"dim": [{"size": "1"}]}}}, "dtype": {"type": "DT_INT32"}}}, {"name": "PartitionedCall/Const_17", "op": "Const", "attr": {"value": {"tensor": {"dtype": "DT_INT32", "tensorShape": {"dim": [{"size": "1"}]}}}, "dtype": {"type": "DT_INT32"}}}, {"name": "PartitionedCall/transpose_214/perm", "op": "Const", "attr": {"value": {"tensor": {"dtype": "DT_INT32", "tensorShape": {"dim": [{"size": "4"}]}}}, "dtype": {"type": "DT_INT32"}}}, {"name": "PartitionedCall/split_71", "op": "Const", "attr": {"value": {"tensor": {"dtype": "DT_FLOAT", "tensorShape": {"dim": [{"size": "1"}, {"size": "1"}, {"size": "192"}, {"size": "1152"}]}}}, "dtype": {"type": "DT_FLOAT"}}}, {"name": "unknown_142", "op": "Const", "attr": {"value": {"tensor": {"dtype": "DT_FLOAT", "tensorShape": {"dim": [{"size": "1152"}]}}}, "dtype": {"type": "DT_FLOAT"}}}, {"name": "PartitionedCall/transpose_215/perm", "op": "Const", "attr": {"value": {"tensor": {"dtype": "DT_INT32", "tensorShape": {"dim": [{"size": "4"}]}}}, "dtype": {"type": "DT_INT32"}}}, {"name": "PartitionedCall/Const_15", "op": "Const", "attr": {"value": {"tensor": {"dtype": "DT_INT32", "tensorShape": {"dim": [{"size": "4"}, {"size": "2"}]}}}, "dtype": {"type": "DT_INT32"}}}, {"name": "PartitionedCall/transpose_217/perm", "op": "Const", "attr": {"value": {"tensor": {"dtype": "DT_INT32", "tensorShape": {"dim": [{"size": "4"}]}}}, "dtype": {"type": "DT_INT32"}}}, {"name": "PartitionedCall/Reshape_14", "op": "Const", "attr": {"value": {"tensor": {"dtype": "DT_FLOAT", "tensorShape": {"dim": [{"size": "5"}, {"size": "5"}, {"size": "1152"}, {"size": "1"}]}}}, "dtype": {"type": "DT_FLOAT"}}}, {"name": "unknown_144", "op": "Const", "attr": {"value": {"tensor": {"dtype": "DT_FLOAT", "tensorShape": {"dim": [{"size": "1152"}]}}}, "dtype": {"type": "DT_FLOAT"}}}, {"name": "PartitionedCall/transpose_218/perm", "op": "Const", "attr": {"value": {"tensor": {"dtype": "DT_INT32", "tensorShape": {"dim": [{"size": "4"}]}}}, "dtype": {"type": "DT_INT32"}}}, {"name": "ConstantFolding/PartitionedCall/split_72-folded-1", "op": "Const", "attr": {"value": {"tensor": {"dtype": "DT_INT32", "tensorShape": {"dim": [{"size": "2"}]}}}, "dtype": {"type": "DT_INT32"}}}, {"name": "PartitionedCall/transpose_220/perm", "op": "Const", "attr": {"value": {"tensor": {"dtype": "DT_INT32", "tensorShape": {"dim": [{"size": "4"}]}}}, "dtype": {"type": "DT_INT32"}}}, {"name": "PartitionedCall/split_73", "op": "Const", "attr": {"value": {"tensor": {"dtype": "DT_FLOAT", "tensorShape": {"dim": [{"size": "1"}, {"size": "1"}, {"size": "1152"}, {"size": "288"}]}}}, "dtype": {"type": "DT_FLOAT"}}}, {"name": "unknown_146", "op": "Const", "attr": {"value": {"tensor": {"dtype": "DT_FLOAT", "tensorShape": {"dim": [{"size": "288"}]}}}, "dtype": {"type": "DT_FLOAT"}}}, {"name": "PartitionedCall/transpose_221/perm", "op": "Const", "attr": {"value": {"tensor": {"dtype": "DT_INT32", "tensorShape": {"dim": [{"size": "4"}]}}}, "dtype": {"type": "DT_INT32"}}}, {"name": "PartitionedCall/transpose_223/perm", "op": "Const", "attr": {"value": {"tensor": {"dtype": "DT_INT32", "tensorShape": {"dim": [{"size": "4"}]}}}, "dtype": {"type": "DT_INT32"}}}, {"name": "PartitionedCall/split_74", "op": "Const", "attr": {"value": {"tensor": {"dtype": "DT_FLOAT", "tensorShape": {"dim": [{"size": "1"}, {"size": "1"}, {"size": "288"}, {"size": "1152"}]}}}, "dtype": {"type": "DT_FLOAT"}}}, {"name": "unknown_148", "op": "Const", "attr": {"value": {"tensor": {"dtype": "DT_FLOAT", "tensorShape": {"dim": [{"size": "1152"}]}}}, "dtype": {"type": "DT_FLOAT"}}}, {"name": "PartitionedCall/transpose_224/perm", "op": "Const", "attr": {"value": {"tensor": {"dtype": "DT_INT32", "tensorShape": {"dim": [{"size": "4"}]}}}, "dtype": {"type": "DT_INT32"}}}, {"name": "PartitionedCall/transpose_226/perm", "op": "Const", "attr": {"value": {"tensor": {"dtype": "DT_INT32", "tensorShape": {"dim": [{"size": "4"}]}}}, "dtype": {"type": "DT_INT32"}}}, {"name": "PartitionedCall/split_75", "op": "Const", "attr": {"value": {"tensor": {"dtype": "DT_FLOAT", "tensorShape": {"dim": [{"size": "1"}, {"size": "1"}, {"size": "1152"}, {"size": "192"}]}}}, "dtype": {"type": "DT_FLOAT"}}}, {"name": "unknown_150", "op": "Const", "attr": {"value": {"tensor": {"dtype": "DT_FLOAT", "tensorShape": {"dim": [{"size": "192"}]}}}, "dtype": {"type": "DT_FLOAT"}}}, {"name": "PartitionedCall/transpose_227/perm", "op": "Const", "attr": {"value": {"tensor": {"dtype": "DT_INT32", "tensorShape": {"dim": [{"size": "4"}]}}}, "dtype": {"type": "DT_INT32"}}}, {"name": "PartitionedCall/transpose_199/perm", "op": "Const", "attr": {"value": {"tensor": {"dtype": "DT_INT32", "tensorShape": {"dim": [{"size": "4"}]}}}, "dtype": {"type": "DT_INT32"}}}, {"name": "PartitionedCall/split_66", "op": "Const", "attr": {"value": {"tensor": {"dtype": "DT_FLOAT", "tensorShape": {"dim": [{"size": "1"}, {"size": "1"}, {"size": "192"}, {"size": "1152"}]}}}, "dtype": {"type": "DT_FLOAT"}}}, {"name": "unknown_132", "op": "Const", "attr": {"value": {"tensor": {"dtype": "DT_FLOAT", "tensorShape": {"dim": [{"size": "1152"}]}}}, "dtype": {"type": "DT_FLOAT"}}}, {"name": "PartitionedCall/transpose_200/perm", "op": "Const", "attr": {"value": {"tensor": {"dtype": "DT_INT32", "tensorShape": {"dim": [{"size": "4"}]}}}, "dtype": {"type": "DT_INT32"}}}, {"name": "PartitionedCall/Const_14", "op": "Const", "attr": {"value": {"tensor": {"dtype": "DT_INT32", "tensorShape": {"dim": [{"size": "4"}, {"size": "2"}]}}}, "dtype": {"type": "DT_INT32"}}}, {"name": "PartitionedCall/transpose_202/perm", "op": "Const", "attr": {"value": {"tensor": {"dtype": "DT_INT32", "tensorShape": {"dim": [{"size": "4"}]}}}, "dtype": {"type": "DT_INT32"}}}, {"name": "PartitionedCall/Reshape_13", "op": "Const", "attr": {"value": {"tensor": {"dtype": "DT_FLOAT", "tensorShape": {"dim": [{"size": "5"}, {"size": "5"}, {"size": "1152"}, {"size": "1"}]}}}, "dtype": {"type": "DT_FLOAT"}}}, {"name": "unknown_134", "op": "Const", "attr": {"value": {"tensor": {"dtype": "DT_FLOAT", "tensorShape": {"dim": [{"size": "1152"}]}}}, "dtype": {"type": "DT_FLOAT"}}}, {"name": "PartitionedCall/transpose_203/perm", "op": "Const", "attr": {"value": {"tensor": {"dtype": "DT_INT32", "tensorShape": {"dim": [{"size": "4"}]}}}, "dtype": {"type": "DT_INT32"}}}, {"name": "ConstantFolding/PartitionedCall/split_67-folded-1", "op": "Const", "attr": {"value": {"tensor": {"dtype": "DT_INT32", "tensorShape": {"dim": [{"size": "2"}]}}}, "dtype": {"type": "DT_INT32"}}}, {"name": "PartitionedCall/transpose_205/perm", "op": "Const", "attr": {"value": {"tensor": {"dtype": "DT_INT32", "tensorShape": {"dim": [{"size": "4"}]}}}, "dtype": {"type": "DT_INT32"}}}, {"name": "PartitionedCall/split_68", "op": "Const", "attr": {"value": {"tensor": {"dtype": "DT_FLOAT", "tensorShape": {"dim": [{"size": "1"}, {"size": "1"}, {"size": "1152"}, {"size": "288"}]}}}, "dtype": {"type": "DT_FLOAT"}}}, {"name": "unknown_136", "op": "Const", "attr": {"value": {"tensor": {"dtype": "DT_FLOAT", "tensorShape": {"dim": [{"size": "288"}]}}}, "dtype": {"type": "DT_FLOAT"}}}, {"name": "PartitionedCall/transpose_206/perm", "op": "Const", "attr": {"value": {"tensor": {"dtype": "DT_INT32", "tensorShape": {"dim": [{"size": "4"}]}}}, "dtype": {"type": "DT_INT32"}}}, {"name": "PartitionedCall/transpose_208/perm", "op": "Const", "attr": {"value": {"tensor": {"dtype": "DT_INT32", "tensorShape": {"dim": [{"size": "4"}]}}}, "dtype": {"type": "DT_INT32"}}}, {"name": "PartitionedCall/split_69", "op": "Const", "attr": {"value": {"tensor": {"dtype": "DT_FLOAT", "tensorShape": {"dim": [{"size": "1"}, {"size": "1"}, {"size": "288"}, {"size": "1152"}]}}}, "dtype": {"type": "DT_FLOAT"}}}, {"name": "unknown_138", "op": "Const", "attr": {"value": {"tensor": {"dtype": "DT_FLOAT", "tensorShape": {"dim": [{"size": "1152"}]}}}, "dtype": {"type": "DT_FLOAT"}}}, {"name": "PartitionedCall/transpose_209/perm", "op": "Const", "attr": {"value": {"tensor": {"dtype": "DT_INT32", "tensorShape": {"dim": [{"size": "4"}]}}}, "dtype": {"type": "DT_INT32"}}}, {"name": "PartitionedCall/transpose_211/perm", "op": "Const", "attr": {"value": {"tensor": {"dtype": "DT_INT32", "tensorShape": {"dim": [{"size": "4"}]}}}, "dtype": {"type": "DT_INT32"}}}, {"name": "PartitionedCall/split_70", "op": "Const", "attr": {"value": {"tensor": {"dtype": "DT_FLOAT", "tensorShape": {"dim": [{"size": "1"}, {"size": "1"}, {"size": "1152"}, {"size": "192"}]}}}, "dtype": {"type": "DT_FLOAT"}}}, {"name": "unknown_140", "op": "Const", "attr": {"value": {"tensor": {"dtype": "DT_FLOAT", "tensorShape": {"dim": [{"size": "192"}]}}}, "dtype": {"type": "DT_FLOAT"}}}, {"name": "PartitionedCall/transpose_212/perm", "op": "Const", "attr": {"value": {"tensor": {"dtype": "DT_INT32", "tensorShape": {"dim": [{"size": "4"}]}}}, "dtype": {"type": "DT_INT32"}}}, {"name": "PartitionedCall/split_61", "op": "Const", "attr": {"value": {"tensor": {"dtype": "DT_FLOAT", "tensorShape": {"dim": [{"size": "1"}, {"size": "1"}, {"size": "192"}, {"size": "1152"}]}}}, "dtype": {"type": "DT_FLOAT"}}}, {"name": "unknown_122", "op": "Const", "attr": {"value": {"tensor": {"dtype": "DT_FLOAT", "tensorShape": {"dim": [{"size": "1152"}]}}}, "dtype": {"type": "DT_FLOAT"}}}, {"name": "PartitionedCall/transpose_185/perm", "op": "Const", "attr": {"value": {"tensor": {"dtype": "DT_INT32", "tensorShape": {"dim": [{"size": "4"}]}}}, "dtype": {"type": "DT_INT32"}}}, {"name": "PartitionedCall/Const_13", "op": "Const", "attr": {"value": {"tensor": {"dtype": "DT_INT32", "tensorShape": {"dim": [{"size": "4"}, {"size": "2"}]}}}, "dtype": {"type": "DT_INT32"}}}, {"name": "PartitionedCall/transpose_187/perm", "op": "Const", "attr": {"value": {"tensor": {"dtype": "DT_INT32", "tensorShape": {"dim": [{"size": "4"}]}}}, "dtype": {"type": "DT_INT32"}}}, {"name": "PartitionedCall/Reshape_12", "op": "Const", "attr": {"value": {"tensor": {"dtype": "DT_FLOAT", "tensorShape": {"dim": [{"size": "5"}, {"size": "5"}, {"size": "1152"}, {"size": "1"}]}}}, "dtype": {"type": "DT_FLOAT"}}}, {"name": "unknown_124", "op": "Const", "attr": {"value": {"tensor": {"dtype": "DT_FLOAT", "tensorShape": {"dim": [{"size": "1152"}]}}}, "dtype": {"type": "DT_FLOAT"}}}, {"name": "PartitionedCall/transpose_188/perm", "op": "Const", "attr": {"value": {"tensor": {"dtype": "DT_INT32", "tensorShape": {"dim": [{"size": "4"}]}}}, "dtype": {"type": "DT_INT32"}}}, {"name": "ConstantFolding/PartitionedCall/split_62-folded-1", "op": "Const", "attr": {"value": {"tensor": {"dtype": "DT_INT32", "tensorShape": {"dim": [{"size": "2"}]}}}, "dtype": {"type": "DT_INT32"}}}, {"name": "PartitionedCall/transpose_190/perm", "op": "Const", "attr": {"value": {"tensor": {"dtype": "DT_INT32", "tensorShape": {"dim": [{"size": "4"}]}}}, "dtype": {"type": "DT_INT32"}}}, {"name": "PartitionedCall/split_63", "op": "Const", "attr": {"value": {"tensor": {"dtype": "DT_FLOAT", "tensorShape": {"dim": [{"size": "1"}, {"size": "1"}, {"size": "1152"}, {"size": "288"}]}}}, "dtype": {"type": "DT_FLOAT"}}}, {"name": "unknown_126", "op": "Const", "attr": {"value": {"tensor": {"dtype": "DT_FLOAT", "tensorShape": {"dim": [{"size": "288"}]}}}, "dtype": {"type": "DT_FLOAT"}}}, {"name": "PartitionedCall/transpose_191/perm", "op": "Const", "attr": {"value": {"tensor": {"dtype": "DT_INT32", "tensorShape": {"dim": [{"size": "4"}]}}}, "dtype": {"type": "DT_INT32"}}}, {"name": "PartitionedCall/transpose_193/perm", "op": "Const", "attr": {"value": {"tensor": {"dtype": "DT_INT32", "tensorShape": {"dim": [{"size": "4"}]}}}, "dtype": {"type": "DT_INT32"}}}, {"name": "PartitionedCall/split_64", "op": "Const", "attr": {"value": {"tensor": {"dtype": "DT_FLOAT", "tensorShape": {"dim": [{"size": "1"}, {"size": "1"}, {"size": "288"}, {"size": "1152"}]}}}, "dtype": {"type": "DT_FLOAT"}}}, {"name": "unknown_128", "op": "Const", "attr": {"value": {"tensor": {"dtype": "DT_FLOAT", "tensorShape": {"dim": [{"size": "1152"}]}}}, "dtype": {"type": "DT_FLOAT"}}}, {"name": "PartitionedCall/transpose_194/perm", "op": "Const", "attr": {"value": {"tensor": {"dtype": "DT_INT32", "tensorShape": {"dim": [{"size": "4"}]}}}, "dtype": {"type": "DT_INT32"}}}, {"name": "PartitionedCall/transpose_196/perm", "op": "Const", "attr": {"value": {"tensor": {"dtype": "DT_INT32", "tensorShape": {"dim": [{"size": "4"}]}}}, "dtype": {"type": "DT_INT32"}}}, {"name": "PartitionedCall/split_65", "op": "Const", "attr": {"value": {"tensor": {"dtype": "DT_FLOAT", "tensorShape": {"dim": [{"size": "1"}, {"size": "1"}, {"size": "1152"}, {"size": "192"}]}}}, "dtype": {"type": "DT_FLOAT"}}}, {"name": "unknown_130", "op": "Const", "attr": {"value": {"tensor": {"dtype": "DT_FLOAT", "tensorShape": {"dim": [{"size": "192"}]}}}, "dtype": {"type": "DT_FLOAT"}}}, {"name": "PartitionedCall/transpose_197/perm", "op": "Const", "attr": {"value": {"tensor": {"dtype": "DT_INT32", "tensorShape": {"dim": [{"size": "4"}]}}}, "dtype": {"type": "DT_INT32"}}}, {"name": "PartitionedCall/transpose_154/perm", "op": "Const", "attr": {"value": {"tensor": {"dtype": "DT_INT32", "tensorShape": {"dim": [{"size": "4"}]}}}, "dtype": {"type": "DT_INT32"}}}, {"name": "PartitionedCall/split_51", "op": "Const", "attr": {"value": {"tensor": {"dtype": "DT_FLOAT", "tensorShape": {"dim": [{"size": "1"}, {"size": "1"}, {"size": "112"}, {"size": "672"}]}}}, "dtype": {"type": "DT_FLOAT"}}}, {"name": "unknown_102", "op": "Const", "attr": {"value": {"tensor": {"dtype": "DT_FLOAT", "tensorShape": {"dim": [{"size": "672"}]}}}, "dtype": {"type": "DT_FLOAT"}}}, {"name": "PartitionedCall/transpose_155/perm", "op": "Const", "attr": {"value": {"tensor": {"dtype": "DT_INT32", "tensorShape": {"dim": [{"size": "4"}]}}}, "dtype": {"type": "DT_INT32"}}}, {"name": "PartitionedCall/Const_11", "op": "Const", "attr": {"value": {"tensor": {"dtype": "DT_INT32", "tensorShape": {"dim": [{"size": "4"}, {"size": "2"}]}}}, "dtype": {"type": "DT_INT32"}}}, {"name": "PartitionedCall/transpose_157/perm", "op": "Const", "attr": {"value": {"tensor": {"dtype": "DT_INT32", "tensorShape": {"dim": [{"size": "4"}]}}}, "dtype": {"type": "DT_INT32"}}}, {"name": "PartitionedCall/Reshape_10", "op": "Const", "attr": {"value": {"tensor": {"dtype": "DT_FLOAT", "tensorShape": {"dim": [{"size": "5"}, {"size": "5"}, {"size": "672"}, {"size": "1"}]}}}, "dtype": {"type": "DT_FLOAT"}}}, {"name": "unknown_104", "op": "Const", "attr": {"value": {"tensor": {"dtype": "DT_FLOAT", "tensorShape": {"dim": [{"size": "672"}]}}}, "dtype": {"type": "DT_FLOAT"}}}, {"name": "PartitionedCall/transpose_158/perm", "op": "Const", "attr": {"value": {"tensor": {"dtype": "DT_INT32", "tensorShape": {"dim": [{"size": "4"}]}}}, "dtype": {"type": "DT_INT32"}}}, {"name": "ConstantFolding/PartitionedCall/split_52-folded-1", "op": "Const", "attr": {"value": {"tensor": {"dtype": "DT_INT32", "tensorShape": {"dim": [{"size": "2"}]}}}, "dtype": {"type": "DT_INT32"}}}, {"name": "PartitionedCall/transpose_160/perm", "op": "Const", "attr": {"value": {"tensor": {"dtype": "DT_INT32", "tensorShape": {"dim": [{"size": "4"}]}}}, "dtype": {"type": "DT_INT32"}}}, {"name": "PartitionedCall/split_53", "op": "Const", "attr": {"value": {"tensor": {"dtype": "DT_FLOAT", "tensorShape": {"dim": [{"size": "1"}, {"size": "1"}, {"size": "672"}, {"size": "168"}]}}}, "dtype": {"type": "DT_FLOAT"}}}, {"name": "unknown_106", "op": "Const", "attr": {"value": {"tensor": {"dtype": "DT_FLOAT", "tensorShape": {"dim": [{"size": "168"}]}}}, "dtype": {"type": "DT_FLOAT"}}}, {"name": "PartitionedCall/transpose_161/perm", "op": "Const", "attr": {"value": {"tensor": {"dtype": "DT_INT32", "tensorShape": {"dim": [{"size": "4"}]}}}, "dtype": {"type": "DT_INT32"}}}, {"name": "PartitionedCall/transpose_163/perm", "op": "Const", "attr": {"value": {"tensor": {"dtype": "DT_INT32", "tensorShape": {"dim": [{"size": "4"}]}}}, "dtype": {"type": "DT_INT32"}}}, {"name": "PartitionedCall/split_54", "op": "Const", "attr": {"value": {"tensor": {"dtype": "DT_FLOAT", "tensorShape": {"dim": [{"size": "1"}, {"size": "1"}, {"size": "168"}, {"size": "672"}]}}}, "dtype": {"type": "DT_FLOAT"}}}, {"name": "unknown_108", "op": "Const", "attr": {"value": {"tensor": {"dtype": "DT_FLOAT", "tensorShape": {"dim": [{"size": "672"}]}}}, "dtype": {"type": "DT_FLOAT"}}}, {"name": "PartitionedCall/transpose_164/perm", "op": "Const", "attr": {"value": {"tensor": {"dtype": "DT_INT32", "tensorShape": {"dim": [{"size": "4"}]}}}, "dtype": {"type": "DT_INT32"}}}, {"name": "PartitionedCall/transpose_166/perm", "op": "Const", "attr": {"value": {"tensor": {"dtype": "DT_INT32", "tensorShape": {"dim": [{"size": "4"}]}}}, "dtype": {"type": "DT_INT32"}}}, {"name": "PartitionedCall/split_55", "op": "Const", "attr": {"value": {"tensor": {"dtype": "DT_FLOAT", "tensorShape": {"dim": [{"size": "1"}, {"size": "1"}, {"size": "672"}, {"size": "112"}]}}}, "dtype": {"type": "DT_FLOAT"}}}, {"name": "unknown_110", "op": "Const", "attr": {"value": {"tensor": {"dtype": "DT_FLOAT", "tensorShape": {"dim": [{"size": "112"}]}}}, "dtype": {"type": "DT_FLOAT"}}}, {"name": "PartitionedCall/transpose_167/perm", "op": "Const", "attr": {"value": {"tensor": {"dtype": "DT_INT32", "tensorShape": {"dim": [{"size": "4"}]}}}, "dtype": {"type": "DT_INT32"}}}, {"name": "PartitionedCall/split_46", "op": "Const", "attr": {"value": {"tensor": {"dtype": "DT_FLOAT", "tensorShape": {"dim": [{"size": "1"}, {"size": "1"}, {"size": "112"}, {"size": "672"}]}}}, "dtype": {"type": "DT_FLOAT"}}}, {"name": "unknown_92", "op": "Const", "attr": {"value": {"tensor": {"dtype": "DT_FLOAT", "tensorShape": {"dim": [{"size": "672"}]}}}, "dtype": {"type": "DT_FLOAT"}}}, {"name": "PartitionedCall/transpose_140/perm", "op": "Const", "attr": {"value": {"tensor": {"dtype": "DT_INT32", "tensorShape": {"dim": [{"size": "4"}]}}}, "dtype": {"type": "DT_INT32"}}}, {"name": "PartitionedCall/Const_10", "op": "Const", "attr": {"value": {"tensor": {"dtype": "DT_INT32", "tensorShape": {"dim": [{"size": "4"}, {"size": "2"}]}}}, "dtype": {"type": "DT_INT32"}}}, {"name": "PartitionedCall/transpose_142/perm", "op": "Const", "attr": {"value": {"tensor": {"dtype": "DT_INT32", "tensorShape": {"dim": [{"size": "4"}]}}}, "dtype": {"type": "DT_INT32"}}}, {"name": "PartitionedCall/Reshape_9", "op": "Const", "attr": {"value": {"tensor": {"dtype": "DT_FLOAT", "tensorShape": {"dim": [{"size": "5"}, {"size": "5"}, {"size": "672"}, {"size": "1"}]}}}, "dtype": {"type": "DT_FLOAT"}}}, {"name": "unknown_94", "op": "Const", "attr": {"value": {"tensor": {"dtype": "DT_FLOAT", "tensorShape": {"dim": [{"size": "672"}]}}}, "dtype": {"type": "DT_FLOAT"}}}, {"name": "PartitionedCall/transpose_143/perm", "op": "Const", "attr": {"value": {"tensor": {"dtype": "DT_INT32", "tensorShape": {"dim": [{"size": "4"}]}}}, "dtype": {"type": "DT_INT32"}}}, {"name": "ConstantFolding/PartitionedCall/split_47-folded-1", "op": "Const", "attr": {"value": {"tensor": {"dtype": "DT_INT32", "tensorShape": {"dim": [{"size": "2"}]}}}, "dtype": {"type": "DT_INT32"}}}, {"name": "PartitionedCall/transpose_145/perm", "op": "Const", "attr": {"value": {"tensor": {"dtype": "DT_INT32", "tensorShape": {"dim": [{"size": "4"}]}}}, "dtype": {"type": "DT_INT32"}}}, {"name": "PartitionedCall/split_48", "op": "Const", "attr": {"value": {"tensor": {"dtype": "DT_FLOAT", "tensorShape": {"dim": [{"size": "1"}, {"size": "1"}, {"size": "672"}, {"size": "168"}]}}}, "dtype": {"type": "DT_FLOAT"}}}, {"name": "unknown_96", "op": "Const", "attr": {"value": {"tensor": {"dtype": "DT_FLOAT", "tensorShape": {"dim": [{"size": "168"}]}}}, "dtype": {"type": "DT_FLOAT"}}}, {"name": "PartitionedCall/transpose_146/perm", "op": "Const", "attr": {"value": {"tensor": {"dtype": "DT_INT32", "tensorShape": {"dim": [{"size": "4"}]}}}, "dtype": {"type": "DT_INT32"}}}, {"name": "PartitionedCall/transpose_148/perm", "op": "Const", "attr": {"value": {"tensor": {"dtype": "DT_INT32", "tensorShape": {"dim": [{"size": "4"}]}}}, "dtype": {"type": "DT_INT32"}}}, {"name": "PartitionedCall/split_49", "op": "Const", "attr": {"value": {"tensor": {"dtype": "DT_FLOAT", "tensorShape": {"dim": [{"size": "1"}, {"size": "1"}, {"size": "168"}, {"size": "672"}]}}}, "dtype": {"type": "DT_FLOAT"}}}, {"name": "unknown_98", "op": "Const", "attr": {"value": {"tensor": {"dtype": "DT_FLOAT", "tensorShape": {"dim": [{"size": "672"}]}}}, "dtype": {"type": "DT_FLOAT"}}}, {"name": "PartitionedCall/transpose_149/perm", "op": "Const", "attr": {"value": {"tensor": {"dtype": "DT_INT32", "tensorShape": {"dim": [{"size": "4"}]}}}, "dtype": {"type": "DT_INT32"}}}, {"name": "PartitionedCall/transpose_151/perm", "op": "Const", "attr": {"value": {"tensor": {"dtype": "DT_INT32", "tensorShape": {"dim": [{"size": "4"}]}}}, "dtype": {"type": "DT_INT32"}}}, {"name": "PartitionedCall/split_50", "op": "Const", "attr": {"value": {"tensor": {"dtype": "DT_FLOAT", "tensorShape": {"dim": [{"size": "1"}, {"size": "1"}, {"size": "672"}, {"size": "112"}]}}}, "dtype": {"type": "DT_FLOAT"}}}, {"name": "unknown_100", "op": "Const", "attr": {"value": {"tensor": {"dtype": "DT_FLOAT", "tensorShape": {"dim": [{"size": "112"}]}}}, "dtype": {"type": "DT_FLOAT"}}}, {"name": "PartitionedCall/transpose_152/perm", "op": "Const", "attr": {"value": {"tensor": {"dtype": "DT_INT32", "tensorShape": {"dim": [{"size": "4"}]}}}, "dtype": {"type": "DT_INT32"}}}, {"name": "PartitionedCall/transpose_109/perm", "op": "Const", "attr": {"value": {"tensor": {"dtype": "DT_INT32", "tensorShape": {"dim": [{"size": "4"}]}}}, "dtype": {"type": "DT_INT32"}}}, {"name": "PartitionedCall/split_36", "op": "Const", "attr": {"value": {"tensor": {"dtype": "DT_FLOAT", "tensorShape": {"dim": [{"size": "1"}, {"size": "1"}, {"size": "80"}, {"size": "480"}]}}}, "dtype": {"type": "DT_FLOAT"}}}, {"name": "unknown_72", "op": "Const", "attr": {"value": {"tensor": {"dtype": "DT_FLOAT", "tensorShape": {"dim": [{"size": "480"}]}}}, "dtype": {"type": "DT_FLOAT"}}}, {"name": "PartitionedCall/transpose_110/perm", "op": "Const", "attr": {"value": {"tensor": {"dtype": "DT_INT32", "tensorShape": {"dim": [{"size": "4"}]}}}, "dtype": {"type": "DT_INT32"}}}, {"name": "PartitionedCall/Const_8", "op": "Const", "attr": {"value": {"tensor": {"dtype": "DT_INT32", "tensorShape": {"dim": [{"size": "4"}, {"size": "2"}]}}}, "dtype": {"type": "DT_INT32"}}}, {"name": "PartitionedCall/transpose_112/perm", "op": "Const", "attr": {"value": {"tensor": {"dtype": "DT_INT32", "tensorShape": {"dim": [{"size": "4"}]}}}, "dtype": {"type": "DT_INT32"}}}, {"name": "PartitionedCall/Reshape_7", "op": "Const", "attr": {"value": {"tensor": {"dtype": "DT_FLOAT", "tensorShape": {"dim": [{"size": "3"}, {"size": "3"}, {"size": "480"}, {"size": "1"}]}}}, "dtype": {"type": "DT_FLOAT"}}}, {"name": "unknown_74", "op": "Const", "attr": {"value": {"tensor": {"dtype": "DT_FLOAT", "tensorShape": {"dim": [{"size": "480"}]}}}, "dtype": {"type": "DT_FLOAT"}}}, {"name": "PartitionedCall/transpose_113/perm", "op": "Const", "attr": {"value": {"tensor": {"dtype": "DT_INT32", "tensorShape": {"dim": [{"size": "4"}]}}}, "dtype": {"type": "DT_INT32"}}}, {"name": "ConstantFolding/PartitionedCall/split_37-folded-1", "op": "Const", "attr": {"value": {"tensor": {"dtype": "DT_INT32", "tensorShape": {"dim": [{"size": "2"}]}}}, "dtype": {"type": "DT_INT32"}}}, {"name": "PartitionedCall/transpose_115/perm", "op": "Const", "attr": {"value": {"tensor": {"dtype": "DT_INT32", "tensorShape": {"dim": [{"size": "4"}]}}}, "dtype": {"type": "DT_INT32"}}}, {"name": "PartitionedCall/split_38", "op": "Const", "attr": {"value": {"tensor": {"dtype": "DT_FLOAT", "tensorShape": {"dim": [{"size": "1"}, {"size": "1"}, {"size": "480"}, {"size": "120"}]}}}, "dtype": {"type": "DT_FLOAT"}}}, {"name": "unknown_76", "op": "Const", "attr": {"value": {"tensor": {"dtype": "DT_FLOAT", "tensorShape": {"dim": [{"size": "120"}]}}}, "dtype": {"type": "DT_FLOAT"}}}, {"name": "PartitionedCall/transpose_116/perm", "op": "Const", "attr": {"value": {"tensor": {"dtype": "DT_INT32", "tensorShape": {"dim": [{"size": "4"}]}}}, "dtype": {"type": "DT_INT32"}}}, {"name": "PartitionedCall/transpose_118/perm", "op": "Const", "attr": {"value": {"tensor": {"dtype": "DT_INT32", "tensorShape": {"dim": [{"size": "4"}]}}}, "dtype": {"type": "DT_INT32"}}}, {"name": "PartitionedCall/split_39", "op": "Const", "attr": {"value": {"tensor": {"dtype": "DT_FLOAT", "tensorShape": {"dim": [{"size": "1"}, {"size": "1"}, {"size": "120"}, {"size": "480"}]}}}, "dtype": {"type": "DT_FLOAT"}}}, {"name": "unknown_78", "op": "Const", "attr": {"value": {"tensor": {"dtype": "DT_FLOAT", "tensorShape": {"dim": [{"size": "480"}]}}}, "dtype": {"type": "DT_FLOAT"}}}, {"name": "PartitionedCall/transpose_119/perm", "op": "Const", "attr": {"value": {"tensor": {"dtype": "DT_INT32", "tensorShape": {"dim": [{"size": "4"}]}}}, "dtype": {"type": "DT_INT32"}}}, {"name": "PartitionedCall/transpose_121/perm", "op": "Const", "attr": {"value": {"tensor": {"dtype": "DT_INT32", "tensorShape": {"dim": [{"size": "4"}]}}}, "dtype": {"type": "DT_INT32"}}}, {"name": "PartitionedCall/split_40", "op": "Const", "attr": {"value": {"tensor": {"dtype": "DT_FLOAT", "tensorShape": {"dim": [{"size": "1"}, {"size": "1"}, {"size": "480"}, {"size": "80"}]}}}, "dtype": {"type": "DT_FLOAT"}}}, {"name": "unknown_80", "op": "Const", "attr": {"value": {"tensor": {"dtype": "DT_FLOAT", "tensorShape": {"dim": [{"size": "80"}]}}}, "dtype": {"type": "DT_FLOAT"}}}, {"name": "PartitionedCall/transpose_122/perm", "op": "Const", "attr": {"value": {"tensor": {"dtype": "DT_INT32", "tensorShape": {"dim": [{"size": "4"}]}}}, "dtype": {"type": "DT_INT32"}}}, {"name": "PartitionedCall/split_31", "op": "Const", "attr": {"value": {"tensor": {"dtype": "DT_FLOAT", "tensorShape": {"dim": [{"size": "1"}, {"size": "1"}, {"size": "80"}, {"size": "480"}]}}}, "dtype": {"type": "DT_FLOAT"}}}, {"name": "unknown_62", "op": "Const", "attr": {"value": {"tensor": {"dtype": "DT_FLOAT", "tensorShape": {"dim": [{"size": "480"}]}}}, "dtype": {"type": "DT_FLOAT"}}}, {"name": "PartitionedCall/transpose_95/perm", "op": "Const", "attr": {"value": {"tensor": {"dtype": "DT_INT32", "tensorShape": {"dim": [{"size": "4"}]}}}, "dtype": {"type": "DT_INT32"}}}, {"name": "PartitionedCall/Const_7", "op": "Const", "attr": {"value": {"tensor": {"dtype": "DT_INT32", "tensorShape": {"dim": [{"size": "4"}, {"size": "2"}]}}}, "dtype": {"type": "DT_INT32"}}}, {"name": "PartitionedCall/transpose_97/perm", "op": "Const", "attr": {"value": {"tensor": {"dtype": "DT_INT32", "tensorShape": {"dim": [{"size": "4"}]}}}, "dtype": {"type": "DT_INT32"}}}, {"name": "PartitionedCall/Reshape_6", "op": "Const", "attr": {"value": {"tensor": {"dtype": "DT_FLOAT", "tensorShape": {"dim": [{"size": "3"}, {"size": "3"}, {"size": "480"}, {"size": "1"}]}}}, "dtype": {"type": "DT_FLOAT"}}}, {"name": "unknown_64", "op": "Const", "attr": {"value": {"tensor": {"dtype": "DT_FLOAT", "tensorShape": {"dim": [{"size": "480"}]}}}, "dtype": {"type": "DT_FLOAT"}}}, {"name": "PartitionedCall/transpose_98/perm", "op": "Const", "attr": {"value": {"tensor": {"dtype": "DT_INT32", "tensorShape": {"dim": [{"size": "4"}]}}}, "dtype": {"type": "DT_INT32"}}}, {"name": "ConstantFolding/PartitionedCall/split_32-folded-1", "op": "Const", "attr": {"value": {"tensor": {"dtype": "DT_INT32", "tensorShape": {"dim": [{"size": "2"}]}}}, "dtype": {"type": "DT_INT32"}}}, {"name": "PartitionedCall/transpose_100/perm", "op": "Const", "attr": {"value": {"tensor": {"dtype": "DT_INT32", "tensorShape": {"dim": [{"size": "4"}]}}}, "dtype": {"type": "DT_INT32"}}}, {"name": "PartitionedCall/split_33", "op": "Const", "attr": {"value": {"tensor": {"dtype": "DT_FLOAT", "tensorShape": {"dim": [{"size": "1"}, {"size": "1"}, {"size": "480"}, {"size": "120"}]}}}, "dtype": {"type": "DT_FLOAT"}}}, {"name": "unknown_66", "op": "Const", "attr": {"value": {"tensor": {"dtype": "DT_FLOAT", "tensorShape": {"dim": [{"size": "120"}]}}}, "dtype": {"type": "DT_FLOAT"}}}, {"name": "PartitionedCall/transpose_101/perm", "op": "Const", "attr": {"value": {"tensor": {"dtype": "DT_INT32", "tensorShape": {"dim": [{"size": "4"}]}}}, "dtype": {"type": "DT_INT32"}}}, {"name": "PartitionedCall/transpose_103/perm", "op": "Const", "attr": {"value": {"tensor": {"dtype": "DT_INT32", "tensorShape": {"dim": [{"size": "4"}]}}}, "dtype": {"type": "DT_INT32"}}}, {"name": "PartitionedCall/split_34", "op": "Const", "attr": {"value": {"tensor": {"dtype": "DT_FLOAT", "tensorShape": {"dim": [{"size": "1"}, {"size": "1"}, {"size": "120"}, {"size": "480"}]}}}, "dtype": {"type": "DT_FLOAT"}}}, {"name": "unknown_68", "op": "Const", "attr": {"value": {"tensor": {"dtype": "DT_FLOAT", "tensorShape": {"dim": [{"size": "480"}]}}}, "dtype": {"type": "DT_FLOAT"}}}, {"name": "PartitionedCall/transpose_104/perm", "op": "Const", "attr": {"value": {"tensor": {"dtype": "DT_INT32", "tensorShape": {"dim": [{"size": "4"}]}}}, "dtype": {"type": "DT_INT32"}}}, {"name": "PartitionedCall/transpose_106/perm", "op": "Const", "attr": {"value": {"tensor": {"dtype": "DT_INT32", "tensorShape": {"dim": [{"size": "4"}]}}}, "dtype": {"type": "DT_INT32"}}}, {"name": "PartitionedCall/split_35", "op": "Const", "attr": {"value": {"tensor": {"dtype": "DT_FLOAT", "tensorShape": {"dim": [{"size": "1"}, {"size": "1"}, {"size": "480"}, {"size": "80"}]}}}, "dtype": {"type": "DT_FLOAT"}}}, {"name": "unknown_70", "op": "Const", "attr": {"value": {"tensor": {"dtype": "DT_FLOAT", "tensorShape": {"dim": [{"size": "80"}]}}}, "dtype": {"type": "DT_FLOAT"}}}, {"name": "PartitionedCall/transpose_107/perm", "op": "Const", "attr": {"value": {"tensor": {"dtype": "DT_INT32", "tensorShape": {"dim": [{"size": "4"}]}}}, "dtype": {"type": "DT_INT32"}}}, {"name": "PartitionedCall/split_21", "op": "Const", "attr": {"value": {"tensor": {"dtype": "DT_FLOAT", "tensorShape": {"dim": [{"size": "1"}, {"size": "1"}, {"size": "40"}, {"size": "240"}]}}}, "dtype": {"type": "DT_FLOAT"}}}, {"name": "unknown_42", "op": "Const", "attr": {"value": {"tensor": {"dtype": "DT_FLOAT", "tensorShape": {"dim": [{"size": "240"}]}}}, "dtype": {"type": "DT_FLOAT"}}}, {"name": "PartitionedCall/transpose_65/perm", "op": "Const", "attr": {"value": {"tensor": {"dtype": "DT_INT32", "tensorShape": {"dim": [{"size": "4"}]}}}, "dtype": {"type": "DT_INT32"}}}, {"name": "PartitionedCall/Const_5", "op": "Const", "attr": {"value": {"tensor": {"dtype": "DT_INT32", "tensorShape": {"dim": [{"size": "4"}, {"size": "2"}]}}}, "dtype": {"type": "DT_INT32"}}}, {"name": "PartitionedCall/transpose_67/perm", "op": "Const", "attr": {"value": {"tensor": {"dtype": "DT_INT32", "tensorShape": {"dim": [{"size": "4"}]}}}, "dtype": {"type": "DT_INT32"}}}, {"name": "PartitionedCall/Reshape_4", "op": "Const", "attr": {"value": {"tensor": {"dtype": "DT_FLOAT", "tensorShape": {"dim": [{"size": "5"}, {"size": "5"}, {"size": "240"}, {"size": "1"}]}}}, "dtype": {"type": "DT_FLOAT"}}}, {"name": "unknown_44", "op": "Const", "attr": {"value": {"tensor": {"dtype": "DT_FLOAT", "tensorShape": {"dim": [{"size": "240"}]}}}, "dtype": {"type": "DT_FLOAT"}}}, {"name": "PartitionedCall/transpose_68/perm", "op": "Const", "attr": {"value": {"tensor": {"dtype": "DT_INT32", "tensorShape": {"dim": [{"size": "4"}]}}}, "dtype": {"type": "DT_INT32"}}}, {"name": "ConstantFolding/PartitionedCall/split_22-folded-1", "op": "Const", "attr": {"value": {"tensor": {"dtype": "DT_INT32", "tensorShape": {"dim": [{"size": "2"}]}}}, "dtype": {"type": "DT_INT32"}}}, {"name": "PartitionedCall/transpose_70/perm", "op": "Const", "attr": {"value": {"tensor": {"dtype": "DT_INT32", "tensorShape": {"dim": [{"size": "4"}]}}}, "dtype": {"type": "DT_INT32"}}}, {"name": "PartitionedCall/split_23", "op": "Const", "attr": {"value": {"tensor": {"dtype": "DT_FLOAT", "tensorShape": {"dim": [{"size": "1"}, {"size": "1"}, {"size": "240"}, {"size": "60"}]}}}, "dtype": {"type": "DT_FLOAT"}}}, {"name": "unknown_46", "op": "Const", "attr": {"value": {"tensor": {"dtype": "DT_FLOAT", "tensorShape": {"dim": [{"size": "60"}]}}}, "dtype": {"type": "DT_FLOAT"}}}, {"name": "PartitionedCall/transpose_71/perm", "op": "Const", "attr": {"value": {"tensor": {"dtype": "DT_INT32", "tensorShape": {"dim": [{"size": "4"}]}}}, "dtype": {"type": "DT_INT32"}}}, {"name": "PartitionedCall/transpose_73/perm", "op": "Const", "attr": {"value": {"tensor": {"dtype": "DT_INT32", "tensorShape": {"dim": [{"size": "4"}]}}}, "dtype": {"type": "DT_INT32"}}}, {"name": "PartitionedCall/split_24", "op": "Const", "attr": {"value": {"tensor": {"dtype": "DT_FLOAT", "tensorShape": {"dim": [{"size": "1"}, {"size": "1"}, {"size": "60"}, {"size": "240"}]}}}, "dtype": {"type": "DT_FLOAT"}}}, {"name": "unknown_48", "op": "Const", "attr": {"value": {"tensor": {"dtype": "DT_FLOAT", "tensorShape": {"dim": [{"size": "240"}]}}}, "dtype": {"type": "DT_FLOAT"}}}, {"name": "PartitionedCall/transpose_74/perm", "op": "Const", "attr": {"value": {"tensor": {"dtype": "DT_INT32", "tensorShape": {"dim": [{"size": "4"}]}}}, "dtype": {"type": "DT_INT32"}}}, {"name": "PartitionedCall/transpose_76/perm", "op": "Const", "attr": {"value": {"tensor": {"dtype": "DT_INT32", "tensorShape": {"dim": [{"size": "4"}]}}}, "dtype": {"type": "DT_INT32"}}}, {"name": "PartitionedCall/split_25", "op": "Const", "attr": {"value": {"tensor": {"dtype": "DT_FLOAT", "tensorShape": {"dim": [{"size": "1"}, {"size": "1"}, {"size": "240"}, {"size": "40"}]}}}, "dtype": {"type": "DT_FLOAT"}}}, {"name": "unknown_50", "op": "Const", "attr": {"value": {"tensor": {"dtype": "DT_FLOAT", "tensorShape": {"dim": [{"size": "40"}]}}}, "dtype": {"type": "DT_FLOAT"}}}, {"name": "PartitionedCall/transpose_77/perm", "op": "Const", "attr": {"value": {"tensor": {"dtype": "DT_INT32", "tensorShape": {"dim": [{"size": "4"}]}}}, "dtype": {"type": "DT_INT32"}}}, {"name": "PartitionedCall/split_11", "op": "Const", "attr": {"value": {"tensor": {"dtype": "DT_FLOAT", "tensorShape": {"dim": [{"size": "1"}, {"size": "1"}, {"size": "24"}, {"size": "144"}]}}}, "dtype": {"type": "DT_FLOAT"}}}, {"name": "unknown_22", "op": "Const", "attr": {"value": {"tensor": {"dtype": "DT_FLOAT", "tensorShape": {"dim": [{"size": "144"}]}}}, "dtype": {"type": "DT_FLOAT"}}}, {"name": "PartitionedCall/transpose_35/perm", "op": "Const", "attr": {"value": {"tensor": {"dtype": "DT_INT32", "tensorShape": {"dim": [{"size": "4"}]}}}, "dtype": {"type": "DT_INT32"}}}, {"name": "PartitionedCall/Const_3", "op": "Const", "attr": {"value": {"tensor": {"dtype": "DT_INT32", "tensorShape": {"dim": [{"size": "4"}, {"size": "2"}]}}}, "dtype": {"type": "DT_INT32"}}}, {"name": "PartitionedCall/transpose_37/perm", "op": "Const", "attr": {"value": {"tensor": {"dtype": "DT_INT32", "tensorShape": {"dim": [{"size": "4"}]}}}, "dtype": {"type": "DT_INT32"}}}, {"name": "PartitionedCall/Reshape_2", "op": "Const", "attr": {"value": {"tensor": {"dtype": "DT_FLOAT", "tensorShape": {"dim": [{"size": "3"}, {"size": "3"}, {"size": "144"}, {"size": "1"}]}}}, "dtype": {"type": "DT_FLOAT"}}}, {"name": "unknown_24", "op": "Const", "attr": {"value": {"tensor": {"dtype": "DT_FLOAT", "tensorShape": {"dim": [{"size": "144"}]}}}, "dtype": {"type": "DT_FLOAT"}}}, {"name": "PartitionedCall/transpose_38/perm", "op": "Const", "attr": {"value": {"tensor": {"dtype": "DT_INT32", "tensorShape": {"dim": [{"size": "4"}]}}}, "dtype": {"type": "DT_INT32"}}}, {"name": "ConstantFolding/PartitionedCall/split_12-folded-1", "op": "Const", "attr": {"value": {"tensor": {"dtype": "DT_INT32", "tensorShape": {"dim": [{"size": "2"}]}}}, "dtype": {"type": "DT_INT32"}}}, {"name": "PartitionedCall/transpose_40/perm", "op": "Const", "attr": {"value": {"tensor": {"dtype": "DT_INT32", "tensorShape": {"dim": [{"size": "4"}]}}}, "dtype": {"type": "DT_INT32"}}}, {"name": "PartitionedCall/split_13", "op": "Const", "attr": {"value": {"tensor": {"dtype": "DT_FLOAT", "tensorShape": {"dim": [{"size": "1"}, {"size": "1"}, {"size": "144"}, {"size": "36"}]}}}, "dtype": {"type": "DT_FLOAT"}}}, {"name": "unknown_26", "op": "Const", "attr": {"value": {"tensor": {"dtype": "DT_FLOAT", "tensorShape": {"dim": [{"size": "36"}]}}}, "dtype": {"type": "DT_FLOAT"}}}, {"name": "PartitionedCall/transpose_41/perm", "op": "Const", "attr": {"value": {"tensor": {"dtype": "DT_INT32", "tensorShape": {"dim": [{"size": "4"}]}}}, "dtype": {"type": "DT_INT32"}}}, {"name": "PartitionedCall/transpose_43/perm", "op": "Const", "attr": {"value": {"tensor": {"dtype": "DT_INT32", "tensorShape": {"dim": [{"size": "4"}]}}}, "dtype": {"type": "DT_INT32"}}}, {"name": "PartitionedCall/split_14", "op": "Const", "attr": {"value": {"tensor": {"dtype": "DT_FLOAT", "tensorShape": {"dim": [{"size": "1"}, {"size": "1"}, {"size": "36"}, {"size": "144"}]}}}, "dtype": {"type": "DT_FLOAT"}}}, {"name": "unknown_28", "op": "Const", "attr": {"value": {"tensor": {"dtype": "DT_FLOAT", "tensorShape": {"dim": [{"size": "144"}]}}}, "dtype": {"type": "DT_FLOAT"}}}, {"name": "PartitionedCall/transpose_44/perm", "op": "Const", "attr": {"value": {"tensor": {"dtype": "DT_INT32", "tensorShape": {"dim": [{"size": "4"}]}}}, "dtype": {"type": "DT_INT32"}}}, {"name": "PartitionedCall/transpose_46/perm", "op": "Const", "attr": {"value": {"tensor": {"dtype": "DT_INT32", "tensorShape": {"dim": [{"size": "4"}]}}}, "dtype": {"type": "DT_INT32"}}}, {"name": "PartitionedCall/split_15", "op": "Const", "attr": {"value": {"tensor": {"dtype": "DT_FLOAT", "tensorShape": {"dim": [{"size": "1"}, {"size": "1"}, {"size": "144"}, {"size": "24"}]}}}, "dtype": {"type": "DT_FLOAT"}}}, {"name": "unknown_30", "op": "Const", "attr": {"value": {"tensor": {"dtype": "DT_FLOAT", "tensorShape": {"dim": [{"size": "24"}]}}}, "dtype": {"type": "DT_FLOAT"}}}, {"name": "PartitionedCall/transpose_47/perm", "op": "Const", "attr": {"value": {"tensor": {"dtype": "DT_INT32", "tensorShape": {"dim": [{"size": "4"}]}}}, "dtype": {"type": "DT_INT32"}}}, {"name": "PartitionedCall/Const", "op": "Const", "attr": {"value": {"tensor": {"dtype": "DT_INT32", "tensorShape": {"dim": [{"size": "4"}, {"size": "2"}]}}}, "dtype": {"type": "DT_INT32"}}}, {"name": "PartitionedCall/transpose_1/perm", "op": "Const", "attr": {"value": {"tensor": {"dtype": "DT_INT32", "tensorShape": {"dim": [{"size": "4"}]}}}, "dtype": {"type": "DT_INT32"}}}, {"name": "PartitionedCall/split", "op": "Const", "attr": {"value": {"tensor": {"dtype": "DT_FLOAT", "tensorShape": {"dim": [{"size": "3"}, {"size": "3"}, {"size": "3"}, {"size": "32"}]}}}, "dtype": {"type": "DT_FLOAT"}}}, {"name": "unknown_0", "op": "Const", "attr": {"value": {"tensor": {"dtype": "DT_FLOAT", "tensorShape": {"dim": [{"size": "32"}]}}}, "dtype": {"type": "DT_FLOAT"}}}, {"name": "PartitionedCall/transpose_2/perm", "op": "Const", "attr": {"value": {"tensor": {"dtype": "DT_INT32", "tensorShape": {"dim": [{"size": "4"}]}}}, "dtype": {"type": "DT_INT32"}}}, {"name": "PartitionedCall/transpose_4/perm", "op": "Const", "attr": {"value": {"tensor": {"dtype": "DT_INT32", "tensorShape": {"dim": [{"size": "4"}]}}}, "dtype": {"type": "DT_INT32"}}}, {"name": "PartitionedCall/split_1", "op": "Const", "attr": {"value": {"tensor": {"dtype": "DT_FLOAT", "tensorShape": {"dim": [{"size": "1"}, {"size": "1"}, {"size": "32"}, {"size": "32"}]}}}, "dtype": {"type": "DT_FLOAT"}}}, {"name": "unknown_2", "op": "Const", "attr": {"value": {"tensor": {"dtype": "DT_FLOAT", "tensorShape": {"dim": [{"size": "32"}]}}}, "dtype": {"type": "DT_FLOAT"}}}, {"name": "PartitionedCall/transpose_5/perm", "op": "Const", "attr": {"value": {"tensor": {"dtype": "DT_INT32", "tensorShape": {"dim": [{"size": "4"}]}}}, "dtype": {"type": "DT_INT32"}}}, {"name": "PartitionedCall/Const_1", "op": "Const", "attr": {"value": {"tensor": {"dtype": "DT_INT32", "tensorShape": {"dim": [{"size": "4"}, {"size": "2"}]}}}, "dtype": {"type": "DT_INT32"}}}, {"name": "PartitionedCall/transpose_7/perm", "op": "Const", "attr": {"value": {"tensor": {"dtype": "DT_INT32", "tensorShape": {"dim": [{"size": "4"}]}}}, "dtype": {"type": "DT_INT32"}}}, {"name": "PartitionedCall/Reshape", "op": "Const", "attr": {"value": {"tensor": {"dtype": "DT_FLOAT", "tensorShape": {"dim": [{"size": "3"}, {"size": "3"}, {"size": "32"}, {"size": "1"}]}}}, "dtype": {"type": "DT_FLOAT"}}}, {"name": "unknown_4", "op": "Const", "attr": {"value": {"tensor": {"dtype": "DT_FLOAT", "tensorShape": {"dim": [{"size": "32"}]}}}, "dtype": {"type": "DT_FLOAT"}}}, {"name": "PartitionedCall/transpose_8/perm", "op": "Const", "attr": {"value": {"tensor": {"dtype": "DT_INT32", "tensorShape": {"dim": [{"size": "4"}]}}}, "dtype": {"type": "DT_INT32"}}}, {"name": "ConstantFolding/PartitionedCall/split_2-folded-1", "op": "Const", "attr": {"value": {"tensor": {"dtype": "DT_INT32", "tensorShape": {"dim": [{"size": "2"}]}}}, "dtype": {"type": "DT_INT32"}}}, {"name": "PartitionedCall/transpose_10/perm", "op": "Const", "attr": {"value": {"tensor": {"dtype": "DT_INT32", "tensorShape": {"dim": [{"size": "4"}]}}}, "dtype": {"type": "DT_INT32"}}}, {"name": "PartitionedCall/split_3", "op": "Const", "attr": {"value": {"tensor": {"dtype": "DT_FLOAT", "tensorShape": {"dim": [{"size": "1"}, {"size": "1"}, {"size": "32"}, {"size": "8"}]}}}, "dtype": {"type": "DT_FLOAT"}}}, {"name": "unknown_6", "op": "Const", "attr": {"value": {"tensor": {"dtype": "DT_FLOAT", "tensorShape": {"dim": [{"size": "8"}]}}}, "dtype": {"type": "DT_FLOAT"}}}, {"name": "PartitionedCall/transpose_11/perm", "op": "Const", "attr": {"value": {"tensor": {"dtype": "DT_INT32", "tensorShape": {"dim": [{"size": "4"}]}}}, "dtype": {"type": "DT_INT32"}}}, {"name": "PartitionedCall/transpose_13/perm", "op": "Const", "attr": {"value": {"tensor": {"dtype": "DT_INT32", "tensorShape": {"dim": [{"size": "4"}]}}}, "dtype": {"type": "DT_INT32"}}}, {"name": "PartitionedCall/split_4", "op": "Const", "attr": {"value": {"tensor": {"dtype": "DT_FLOAT", "tensorShape": {"dim": [{"size": "1"}, {"size": "1"}, {"size": "8"}, {"size": "32"}]}}}, "dtype": {"type": "DT_FLOAT"}}}, {"name": "unknown_8", "op": "Const", "attr": {"value": {"tensor": {"dtype": "DT_FLOAT", "tensorShape": {"dim": [{"size": "32"}]}}}, "dtype": {"type": "DT_FLOAT"}}}, {"name": "PartitionedCall/transpose_14/perm", "op": "Const", "attr": {"value": {"tensor": {"dtype": "DT_INT32", "tensorShape": {"dim": [{"size": "4"}]}}}, "dtype": {"type": "DT_INT32"}}}, {"name": "PartitionedCall/transpose_16/perm", "op": "Const", "attr": {"value": {"tensor": {"dtype": "DT_INT32", "tensorShape": {"dim": [{"size": "4"}]}}}, "dtype": {"type": "DT_INT32"}}}, {"name": "PartitionedCall/split_5", "op": "Const", "attr": {"value": {"tensor": {"dtype": "DT_FLOAT", "tensorShape": {"dim": [{"size": "1"}, {"size": "1"}, {"size": "32"}, {"size": "16"}]}}}, "dtype": {"type": "DT_FLOAT"}}}, {"name": "unknown_10", "op": "Const", "attr": {"value": {"tensor": {"dtype": "DT_FLOAT", "tensorShape": {"dim": [{"size": "16"}]}}}, "dtype": {"type": "DT_FLOAT"}}}, {"name": "PartitionedCall/split_6", "op": "Const", "attr": {"value": {"tensor": {"dtype": "DT_FLOAT", "tensorShape": {"dim": [{"size": "1"}, {"size": "1"}, {"size": "16"}, {"size": "96"}]}}}, "dtype": {"type": "DT_FLOAT"}}}, {"name": "unknown_12", "op": "Const", "attr": {"value": {"tensor": {"dtype": "DT_FLOAT", "tensorShape": {"dim": [{"size": "96"}]}}}, "dtype": {"type": "DT_FLOAT"}}}, {"name": "PartitionedCall/transpose_20/perm", "op": "Const", "attr": {"value": {"tensor": {"dtype": "DT_INT32", "tensorShape": {"dim": [{"size": "4"}]}}}, "dtype": {"type": "DT_INT32"}}}, {"name": "PartitionedCall/Const_2", "op": "Const", "attr": {"value": {"tensor": {"dtype": "DT_INT32", "tensorShape": {"dim": [{"size": "4"}, {"size": "2"}]}}}, "dtype": {"type": "DT_INT32"}}}, {"name": "PartitionedCall/transpose_22/perm", "op": "Const", "attr": {"value": {"tensor": {"dtype": "DT_INT32", "tensorShape": {"dim": [{"size": "4"}]}}}, "dtype": {"type": "DT_INT32"}}}, {"name": "PartitionedCall/Reshape_1", "op": "Const", "attr": {"value": {"tensor": {"dtype": "DT_FLOAT", "tensorShape": {"dim": [{"size": "3"}, {"size": "3"}, {"size": "96"}, {"size": "1"}]}}}, "dtype": {"type": "DT_FLOAT"}}}, {"name": "unknown_14", "op": "Const", "attr": {"value": {"tensor": {"dtype": "DT_FLOAT", "tensorShape": {"dim": [{"size": "96"}]}}}, "dtype": {"type": "DT_FLOAT"}}}, {"name": "PartitionedCall/transpose_23/perm", "op": "Const", "attr": {"value": {"tensor": {"dtype": "DT_INT32", "tensorShape": {"dim": [{"size": "4"}]}}}, "dtype": {"type": "DT_INT32"}}}, {"name": "ConstantFolding/PartitionedCall/split_7-folded-1", "op": "Const", "attr": {"value": {"tensor": {"dtype": "DT_INT32", "tensorShape": {"dim": [{"size": "2"}]}}}, "dtype": {"type": "DT_INT32"}}}, {"name": "PartitionedCall/transpose_25/perm", "op": "Const", "attr": {"value": {"tensor": {"dtype": "DT_INT32", "tensorShape": {"dim": [{"size": "4"}]}}}, "dtype": {"type": "DT_INT32"}}}, {"name": "PartitionedCall/split_8", "op": "Const", "attr": {"value": {"tensor": {"dtype": "DT_FLOAT", "tensorShape": {"dim": [{"size": "1"}, {"size": "1"}, {"size": "96"}, {"size": "24"}]}}}, "dtype": {"type": "DT_FLOAT"}}}, {"name": "unknown_16", "op": "Const", "attr": {"value": {"tensor": {"dtype": "DT_FLOAT", "tensorShape": {"dim": [{"size": "24"}]}}}, "dtype": {"type": "DT_FLOAT"}}}, {"name": "PartitionedCall/transpose_26/perm", "op": "Const", "attr": {"value": {"tensor": {"dtype": "DT_INT32", "tensorShape": {"dim": [{"size": "4"}]}}}, "dtype": {"type": "DT_INT32"}}}, {"name": "PartitionedCall/transpose_28/perm", "op": "Const", "attr": {"value": {"tensor": {"dtype": "DT_INT32", "tensorShape": {"dim": [{"size": "4"}]}}}, "dtype": {"type": "DT_INT32"}}}, {"name": "PartitionedCall/split_9", "op": "Const", "attr": {"value": {"tensor": {"dtype": "DT_FLOAT", "tensorShape": {"dim": [{"size": "1"}, {"size": "1"}, {"size": "24"}, {"size": "96"}]}}}, "dtype": {"type": "DT_FLOAT"}}}, {"name": "unknown_18", "op": "Const", "attr": {"value": {"tensor": {"dtype": "DT_FLOAT", "tensorShape": {"dim": [{"size": "96"}]}}}, "dtype": {"type": "DT_FLOAT"}}}, {"name": "PartitionedCall/transpose_29/perm", "op": "Const", "attr": {"value": {"tensor": {"dtype": "DT_INT32", "tensorShape": {"dim": [{"size": "4"}]}}}, "dtype": {"type": "DT_INT32"}}}, {"name": "PartitionedCall/transpose_31/perm", "op": "Const", "attr": {"value": {"tensor": {"dtype": "DT_INT32", "tensorShape": {"dim": [{"size": "4"}]}}}, "dtype": {"type": "DT_INT32"}}}, {"name": "PartitionedCall/split_10", "op": "Const", "attr": {"value": {"tensor": {"dtype": "DT_FLOAT", "tensorShape": {"dim": [{"size": "1"}, {"size": "1"}, {"size": "96"}, {"size": "24"}]}}}, "dtype": {"type": "DT_FLOAT"}}}, {"name": "unknown_20", "op": "Const", "attr": {"value": {"tensor": {"dtype": "DT_FLOAT", "tensorShape": {"dim": [{"size": "24"}]}}}, "dtype": {"type": "DT_FLOAT"}}}, {"name": "PartitionedCall/transpose_32/perm", "op": "Const", "attr": {"value": {"tensor": {"dtype": "DT_INT32", "tensorShape": {"dim": [{"size": "4"}]}}}, "dtype": {"type": "DT_INT32"}}}, {"name": "PartitionedCall/transpose_49/perm", "op": "Const", "attr": {"value": {"tensor": {"dtype": "DT_INT32", "tensorShape": {"dim": [{"size": "4"}]}}}, "dtype": {"type": "DT_INT32"}}}, {"name": "PartitionedCall/split_16", "op": "Const", "attr": {"value": {"tensor": {"dtype": "DT_FLOAT", "tensorShape": {"dim": [{"size": "1"}, {"size": "1"}, {"size": "24"}, {"size": "144"}]}}}, "dtype": {"type": "DT_FLOAT"}}}, {"name": "unknown_32", "op": "Const", "attr": {"value": {"tensor": {"dtype": "DT_FLOAT", "tensorShape": {"dim": [{"size": "144"}]}}}, "dtype": {"type": "DT_FLOAT"}}}, {"name": "PartitionedCall/transpose_50/perm", "op": "Const", "attr": {"value": {"tensor": {"dtype": "DT_INT32", "tensorShape": {"dim": [{"size": "4"}]}}}, "dtype": {"type": "DT_INT32"}}}, {"name": "PartitionedCall/Const_4", "op": "Const", "attr": {"value": {"tensor": {"dtype": "DT_INT32", "tensorShape": {"dim": [{"size": "4"}, {"size": "2"}]}}}, "dtype": {"type": "DT_INT32"}}}, {"name": "PartitionedCall/transpose_52/perm", "op": "Const", "attr": {"value": {"tensor": {"dtype": "DT_INT32", "tensorShape": {"dim": [{"size": "4"}]}}}, "dtype": {"type": "DT_INT32"}}}, {"name": "PartitionedCall/Reshape_3", "op": "Const", "attr": {"value": {"tensor": {"dtype": "DT_FLOAT", "tensorShape": {"dim": [{"size": "5"}, {"size": "5"}, {"size": "144"}, {"size": "1"}]}}}, "dtype": {"type": "DT_FLOAT"}}}, {"name": "unknown_34", "op": "Const", "attr": {"value": {"tensor": {"dtype": "DT_FLOAT", "tensorShape": {"dim": [{"size": "144"}]}}}, "dtype": {"type": "DT_FLOAT"}}}, {"name": "PartitionedCall/transpose_53/perm", "op": "Const", "attr": {"value": {"tensor": {"dtype": "DT_INT32", "tensorShape": {"dim": [{"size": "4"}]}}}, "dtype": {"type": "DT_INT32"}}}, {"name": "ConstantFolding/PartitionedCall/split_17-folded-1", "op": "Const", "attr": {"value": {"tensor": {"dtype": "DT_INT32", "tensorShape": {"dim": [{"size": "2"}]}}}, "dtype": {"type": "DT_INT32"}}}, {"name": "PartitionedCall/transpose_55/perm", "op": "Const", "attr": {"value": {"tensor": {"dtype": "DT_INT32", "tensorShape": {"dim": [{"size": "4"}]}}}, "dtype": {"type": "DT_INT32"}}}, {"name": "PartitionedCall/split_18", "op": "Const", "attr": {"value": {"tensor": {"dtype": "DT_FLOAT", "tensorShape": {"dim": [{"size": "1"}, {"size": "1"}, {"size": "144"}, {"size": "36"}]}}}, "dtype": {"type": "DT_FLOAT"}}}, {"name": "unknown_36", "op": "Const", "attr": {"value": {"tensor": {"dtype": "DT_FLOAT", "tensorShape": {"dim": [{"size": "36"}]}}}, "dtype": {"type": "DT_FLOAT"}}}, {"name": "PartitionedCall/transpose_56/perm", "op": "Const", "attr": {"value": {"tensor": {"dtype": "DT_INT32", "tensorShape": {"dim": [{"size": "4"}]}}}, "dtype": {"type": "DT_INT32"}}}, {"name": "PartitionedCall/transpose_58/perm", "op": "Const", "attr": {"value": {"tensor": {"dtype": "DT_INT32", "tensorShape": {"dim": [{"size": "4"}]}}}, "dtype": {"type": "DT_INT32"}}}, {"name": "PartitionedCall/split_19", "op": "Const", "attr": {"value": {"tensor": {"dtype": "DT_FLOAT", "tensorShape": {"dim": [{"size": "1"}, {"size": "1"}, {"size": "36"}, {"size": "144"}]}}}, "dtype": {"type": "DT_FLOAT"}}}, {"name": "unknown_38", "op": "Const", "attr": {"value": {"tensor": {"dtype": "DT_FLOAT", "tensorShape": {"dim": [{"size": "144"}]}}}, "dtype": {"type": "DT_FLOAT"}}}, {"name": "PartitionedCall/transpose_59/perm", "op": "Const", "attr": {"value": {"tensor": {"dtype": "DT_INT32", "tensorShape": {"dim": [{"size": "4"}]}}}, "dtype": {"type": "DT_INT32"}}}, {"name": "PartitionedCall/transpose_61/perm", "op": "Const", "attr": {"value": {"tensor": {"dtype": "DT_INT32", "tensorShape": {"dim": [{"size": "4"}]}}}, "dtype": {"type": "DT_INT32"}}}, {"name": "PartitionedCall/split_20", "op": "Const", "attr": {"value": {"tensor": {"dtype": "DT_FLOAT", "tensorShape": {"dim": [{"size": "1"}, {"size": "1"}, {"size": "144"}, {"size": "40"}]}}}, "dtype": {"type": "DT_FLOAT"}}}, {"name": "unknown_40", "op": "Const", "attr": {"value": {"tensor": {"dtype": "DT_FLOAT", "tensorShape": {"dim": [{"size": "40"}]}}}, "dtype": {"type": "DT_FLOAT"}}}, {"name": "PartitionedCall/transpose_62/perm", "op": "Const", "attr": {"value": {"tensor": {"dtype": "DT_INT32", "tensorShape": {"dim": [{"size": "4"}]}}}, "dtype": {"type": "DT_INT32"}}}, {"name": "PartitionedCall/transpose_79/perm", "op": "Const", "attr": {"value": {"tensor": {"dtype": "DT_INT32", "tensorShape": {"dim": [{"size": "4"}]}}}, "dtype": {"type": "DT_INT32"}}}, {"name": "PartitionedCall/split_26", "op": "Const", "attr": {"value": {"tensor": {"dtype": "DT_FLOAT", "tensorShape": {"dim": [{"size": "1"}, {"size": "1"}, {"size": "40"}, {"size": "240"}]}}}, "dtype": {"type": "DT_FLOAT"}}}, {"name": "unknown_52", "op": "Const", "attr": {"value": {"tensor": {"dtype": "DT_FLOAT", "tensorShape": {"dim": [{"size": "240"}]}}}, "dtype": {"type": "DT_FLOAT"}}}, {"name": "PartitionedCall/transpose_80/perm", "op": "Const", "attr": {"value": {"tensor": {"dtype": "DT_INT32", "tensorShape": {"dim": [{"size": "4"}]}}}, "dtype": {"type": "DT_INT32"}}}, {"name": "PartitionedCall/Const_6", "op": "Const", "attr": {"value": {"tensor": {"dtype": "DT_INT32", "tensorShape": {"dim": [{"size": "4"}, {"size": "2"}]}}}, "dtype": {"type": "DT_INT32"}}}, {"name": "PartitionedCall/transpose_82/perm", "op": "Const", "attr": {"value": {"tensor": {"dtype": "DT_INT32", "tensorShape": {"dim": [{"size": "4"}]}}}, "dtype": {"type": "DT_INT32"}}}, {"name": "PartitionedCall/Reshape_5", "op": "Const", "attr": {"value": {"tensor": {"dtype": "DT_FLOAT", "tensorShape": {"dim": [{"size": "3"}, {"size": "3"}, {"size": "240"}, {"size": "1"}]}}}, "dtype": {"type": "DT_FLOAT"}}}, {"name": "unknown_54", "op": "Const", "attr": {"value": {"tensor": {"dtype": "DT_FLOAT", "tensorShape": {"dim": [{"size": "240"}]}}}, "dtype": {"type": "DT_FLOAT"}}}, {"name": "PartitionedCall/transpose_83/perm", "op": "Const", "attr": {"value": {"tensor": {"dtype": "DT_INT32", "tensorShape": {"dim": [{"size": "4"}]}}}, "dtype": {"type": "DT_INT32"}}}, {"name": "ConstantFolding/PartitionedCall/split_27-folded-1", "op": "Const", "attr": {"value": {"tensor": {"dtype": "DT_INT32", "tensorShape": {"dim": [{"size": "2"}]}}}, "dtype": {"type": "DT_INT32"}}}, {"name": "PartitionedCall/transpose_85/perm", "op": "Const", "attr": {"value": {"tensor": {"dtype": "DT_INT32", "tensorShape": {"dim": [{"size": "4"}]}}}, "dtype": {"type": "DT_INT32"}}}, {"name": "PartitionedCall/split_28", "op": "Const", "attr": {"value": {"tensor": {"dtype": "DT_FLOAT", "tensorShape": {"dim": [{"size": "1"}, {"size": "1"}, {"size": "240"}, {"size": "60"}]}}}, "dtype": {"type": "DT_FLOAT"}}}, {"name": "unknown_56", "op": "Const", "attr": {"value": {"tensor": {"dtype": "DT_FLOAT", "tensorShape": {"dim": [{"size": "60"}]}}}, "dtype": {"type": "DT_FLOAT"}}}, {"name": "PartitionedCall/transpose_86/perm", "op": "Const", "attr": {"value": {"tensor": {"dtype": "DT_INT32", "tensorShape": {"dim": [{"size": "4"}]}}}, "dtype": {"type": "DT_INT32"}}}, {"name": "PartitionedCall/transpose_88/perm", "op": "Const", "attr": {"value": {"tensor": {"dtype": "DT_INT32", "tensorShape": {"dim": [{"size": "4"}]}}}, "dtype": {"type": "DT_INT32"}}}, {"name": "PartitionedCall/split_29", "op": "Const", "attr": {"value": {"tensor": {"dtype": "DT_FLOAT", "tensorShape": {"dim": [{"size": "1"}, {"size": "1"}, {"size": "60"}, {"size": "240"}]}}}, "dtype": {"type": "DT_FLOAT"}}}, {"name": "unknown_58", "op": "Const", "attr": {"value": {"tensor": {"dtype": "DT_FLOAT", "tensorShape": {"dim": [{"size": "240"}]}}}, "dtype": {"type": "DT_FLOAT"}}}, {"name": "PartitionedCall/transpose_89/perm", "op": "Const", "attr": {"value": {"tensor": {"dtype": "DT_INT32", "tensorShape": {"dim": [{"size": "4"}]}}}, "dtype": {"type": "DT_INT32"}}}, {"name": "PartitionedCall/transpose_91/perm", "op": "Const", "attr": {"value": {"tensor": {"dtype": "DT_INT32", "tensorShape": {"dim": [{"size": "4"}]}}}, "dtype": {"type": "DT_INT32"}}}, {"name": "PartitionedCall/split_30", "op": "Const", "attr": {"value": {"tensor": {"dtype": "DT_FLOAT", "tensorShape": {"dim": [{"size": "1"}, {"size": "1"}, {"size": "240"}, {"size": "80"}]}}}, "dtype": {"type": "DT_FLOAT"}}}, {"name": "unknown_60", "op": "Const", "attr": {"value": {"tensor": {"dtype": "DT_FLOAT", "tensorShape": {"dim": [{"size": "80"}]}}}, "dtype": {"type": "DT_FLOAT"}}}, {"name": "PartitionedCall/transpose_92/perm", "op": "Const", "attr": {"value": {"tensor": {"dtype": "DT_INT32", "tensorShape": {"dim": [{"size": "4"}]}}}, "dtype": {"type": "DT_INT32"}}}, {"name": "PartitionedCall/transpose_124/perm", "op": "Const", "attr": {"value": {"tensor": {"dtype": "DT_INT32", "tensorShape": {"dim": [{"size": "4"}]}}}, "dtype": {"type": "DT_INT32"}}}, {"name": "PartitionedCall/split_41", "op": "Const", "attr": {"value": {"tensor": {"dtype": "DT_FLOAT", "tensorShape": {"dim": [{"size": "1"}, {"size": "1"}, {"size": "80"}, {"size": "480"}]}}}, "dtype": {"type": "DT_FLOAT"}}}, {"name": "unknown_82", "op": "Const", "attr": {"value": {"tensor": {"dtype": "DT_FLOAT", "tensorShape": {"dim": [{"size": "480"}]}}}, "dtype": {"type": "DT_FLOAT"}}}, {"name": "PartitionedCall/transpose_125/perm", "op": "Const", "attr": {"value": {"tensor": {"dtype": "DT_INT32", "tensorShape": {"dim": [{"size": "4"}]}}}, "dtype": {"type": "DT_INT32"}}}, {"name": "PartitionedCall/Const_9", "op": "Const", "attr": {"value": {"tensor": {"dtype": "DT_INT32", "tensorShape": {"dim": [{"size": "4"}, {"size": "2"}]}}}, "dtype": {"type": "DT_INT32"}}}, {"name": "PartitionedCall/transpose_127/perm", "op": "Const", "attr": {"value": {"tensor": {"dtype": "DT_INT32", "tensorShape": {"dim": [{"size": "4"}]}}}, "dtype": {"type": "DT_INT32"}}}, {"name": "PartitionedCall/Reshape_8", "op": "Const", "attr": {"value": {"tensor": {"dtype": "DT_FLOAT", "tensorShape": {"dim": [{"size": "5"}, {"size": "5"}, {"size": "480"}, {"size": "1"}]}}}, "dtype": {"type": "DT_FLOAT"}}}, {"name": "unknown_84", "op": "Const", "attr": {"value": {"tensor": {"dtype": "DT_FLOAT", "tensorShape": {"dim": [{"size": "480"}]}}}, "dtype": {"type": "DT_FLOAT"}}}, {"name": "PartitionedCall/transpose_128/perm", "op": "Const", "attr": {"value": {"tensor": {"dtype": "DT_INT32", "tensorShape": {"dim": [{"size": "4"}]}}}, "dtype": {"type": "DT_INT32"}}}, {"name": "ConstantFolding/PartitionedCall/split_42-folded-1", "op": "Const", "attr": {"value": {"tensor": {"dtype": "DT_INT32", "tensorShape": {"dim": [{"size": "2"}]}}}, "dtype": {"type": "DT_INT32"}}}, {"name": "PartitionedCall/transpose_130/perm", "op": "Const", "attr": {"value": {"tensor": {"dtype": "DT_INT32", "tensorShape": {"dim": [{"size": "4"}]}}}, "dtype": {"type": "DT_INT32"}}}, {"name": "PartitionedCall/split_43", "op": "Const", "attr": {"value": {"tensor": {"dtype": "DT_FLOAT", "tensorShape": {"dim": [{"size": "1"}, {"size": "1"}, {"size": "480"}, {"size": "120"}]}}}, "dtype": {"type": "DT_FLOAT"}}}, {"name": "unknown_86", "op": "Const", "attr": {"value": {"tensor": {"dtype": "DT_FLOAT", "tensorShape": {"dim": [{"size": "120"}]}}}, "dtype": {"type": "DT_FLOAT"}}}, {"name": "PartitionedCall/transpose_131/perm", "op": "Const", "attr": {"value": {"tensor": {"dtype": "DT_INT32", "tensorShape": {"dim": [{"size": "4"}]}}}, "dtype": {"type": "DT_INT32"}}}, {"name": "PartitionedCall/transpose_133/perm", "op": "Const", "attr": {"value": {"tensor": {"dtype": "DT_INT32", "tensorShape": {"dim": [{"size": "4"}]}}}, "dtype": {"type": "DT_INT32"}}}, {"name": "PartitionedCall/split_44", "op": "Const", "attr": {"value": {"tensor": {"dtype": "DT_FLOAT", "tensorShape": {"dim": [{"size": "1"}, {"size": "1"}, {"size": "120"}, {"size": "480"}]}}}, "dtype": {"type": "DT_FLOAT"}}}, {"name": "unknown_88", "op": "Const", "attr": {"value": {"tensor": {"dtype": "DT_FLOAT", "tensorShape": {"dim": [{"size": "480"}]}}}, "dtype": {"type": "DT_FLOAT"}}}, {"name": "PartitionedCall/transpose_134/perm", "op": "Const", "attr": {"value": {"tensor": {"dtype": "DT_INT32", "tensorShape": {"dim": [{"size": "4"}]}}}, "dtype": {"type": "DT_INT32"}}}, {"name": "PartitionedCall/transpose_136/perm", "op": "Const", "attr": {"value": {"tensor": {"dtype": "DT_INT32", "tensorShape": {"dim": [{"size": "4"}]}}}, "dtype": {"type": "DT_INT32"}}}, {"name": "PartitionedCall/split_45", "op": "Const", "attr": {"value": {"tensor": {"dtype": "DT_FLOAT", "tensorShape": {"dim": [{"size": "1"}, {"size": "1"}, {"size": "480"}, {"size": "112"}]}}}, "dtype": {"type": "DT_FLOAT"}}}, {"name": "unknown_90", "op": "Const", "attr": {"value": {"tensor": {"dtype": "DT_FLOAT", "tensorShape": {"dim": [{"size": "112"}]}}}, "dtype": {"type": "DT_FLOAT"}}}, {"name": "PartitionedCall/transpose_137/perm", "op": "Const", "attr": {"value": {"tensor": {"dtype": "DT_INT32", "tensorShape": {"dim": [{"size": "4"}]}}}, "dtype": {"type": "DT_INT32"}}}, {"name": "PartitionedCall/transpose_169/perm", "op": "Const", "attr": {"value": {"tensor": {"dtype": "DT_INT32", "tensorShape": {"dim": [{"size": "4"}]}}}, "dtype": {"type": "DT_INT32"}}}, {"name": "PartitionedCall/split_56", "op": "Const", "attr": {"value": {"tensor": {"dtype": "DT_FLOAT", "tensorShape": {"dim": [{"size": "1"}, {"size": "1"}, {"size": "112"}, {"size": "672"}]}}}, "dtype": {"type": "DT_FLOAT"}}}, {"name": "unknown_112", "op": "Const", "attr": {"value": {"tensor": {"dtype": "DT_FLOAT", "tensorShape": {"dim": [{"size": "672"}]}}}, "dtype": {"type": "DT_FLOAT"}}}, {"name": "PartitionedCall/transpose_170/perm", "op": "Const", "attr": {"value": {"tensor": {"dtype": "DT_INT32", "tensorShape": {"dim": [{"size": "4"}]}}}, "dtype": {"type": "DT_INT32"}}}, {"name": "PartitionedCall/Const_12", "op": "Const", "attr": {"value": {"tensor": {"dtype": "DT_INT32", "tensorShape": {"dim": [{"size": "4"}, {"size": "2"}]}}}, "dtype": {"type": "DT_INT32"}}}, {"name": "PartitionedCall/transpose_172/perm", "op": "Const", "attr": {"value": {"tensor": {"dtype": "DT_INT32", "tensorShape": {"dim": [{"size": "4"}]}}}, "dtype": {"type": "DT_INT32"}}}, {"name": "PartitionedCall/Reshape_11", "op": "Const", "attr": {"value": {"tensor": {"dtype": "DT_FLOAT", "tensorShape": {"dim": [{"size": "5"}, {"size": "5"}, {"size": "672"}, {"size": "1"}]}}}, "dtype": {"type": "DT_FLOAT"}}}, {"name": "unknown_114", "op": "Const", "attr": {"value": {"tensor": {"dtype": "DT_FLOAT", "tensorShape": {"dim": [{"size": "672"}]}}}, "dtype": {"type": "DT_FLOAT"}}}, {"name": "PartitionedCall/transpose_173/perm", "op": "Const", "attr": {"value": {"tensor": {"dtype": "DT_INT32", "tensorShape": {"dim": [{"size": "4"}]}}}, "dtype": {"type": "DT_INT32"}}}, {"name": "ConstantFolding/PartitionedCall/split_57-folded-1", "op": "Const", "attr": {"value": {"tensor": {"dtype": "DT_INT32", "tensorShape": {"dim": [{"size": "2"}]}}}, "dtype": {"type": "DT_INT32"}}}, {"name": "PartitionedCall/transpose_175/perm", "op": "Const", "attr": {"value": {"tensor": {"dtype": "DT_INT32", "tensorShape": {"dim": [{"size": "4"}]}}}, "dtype": {"type": "DT_INT32"}}}, {"name": "PartitionedCall/split_58", "op": "Const", "attr": {"value": {"tensor": {"dtype": "DT_FLOAT", "tensorShape": {"dim": [{"size": "1"}, {"size": "1"}, {"size": "672"}, {"size": "168"}]}}}, "dtype": {"type": "DT_FLOAT"}}}, {"name": "unknown_116", "op": "Const", "attr": {"value": {"tensor": {"dtype": "DT_FLOAT", "tensorShape": {"dim": [{"size": "168"}]}}}, "dtype": {"type": "DT_FLOAT"}}}, {"name": "PartitionedCall/transpose_176/perm", "op": "Const", "attr": {"value": {"tensor": {"dtype": "DT_INT32", "tensorShape": {"dim": [{"size": "4"}]}}}, "dtype": {"type": "DT_INT32"}}}, {"name": "PartitionedCall/transpose_178/perm", "op": "Const", "attr": {"value": {"tensor": {"dtype": "DT_INT32", "tensorShape": {"dim": [{"size": "4"}]}}}, "dtype": {"type": "DT_INT32"}}}, {"name": "PartitionedCall/split_59", "op": "Const", "attr": {"value": {"tensor": {"dtype": "DT_FLOAT", "tensorShape": {"dim": [{"size": "1"}, {"size": "1"}, {"size": "168"}, {"size": "672"}]}}}, "dtype": {"type": "DT_FLOAT"}}}, {"name": "unknown_118", "op": "Const", "attr": {"value": {"tensor": {"dtype": "DT_FLOAT", "tensorShape": {"dim": [{"size": "672"}]}}}, "dtype": {"type": "DT_FLOAT"}}}, {"name": "PartitionedCall/transpose_179/perm", "op": "Const", "attr": {"value": {"tensor": {"dtype": "DT_INT32", "tensorShape": {"dim": [{"size": "4"}]}}}, "dtype": {"type": "DT_INT32"}}}, {"name": "PartitionedCall/transpose_181/perm", "op": "Const", "attr": {"value": {"tensor": {"dtype": "DT_INT32", "tensorShape": {"dim": [{"size": "4"}]}}}, "dtype": {"type": "DT_INT32"}}}, {"name": "PartitionedCall/split_60", "op": "Const", "attr": {"value": {"tensor": {"dtype": "DT_FLOAT", "tensorShape": {"dim": [{"size": "1"}, {"size": "1"}, {"size": "672"}, {"size": "192"}]}}}, "dtype": {"type": "DT_FLOAT"}}}, {"name": "unknown_120", "op": "Const", "attr": {"value": {"tensor": {"dtype": "DT_FLOAT", "tensorShape": {"dim": [{"size": "192"}]}}}, "dtype": {"type": "DT_FLOAT"}}}, {"name": "PartitionedCall/transpose_182/perm", "op": "Const", "attr": {"value": {"tensor": {"dtype": "DT_INT32", "tensorShape": {"dim": [{"size": "4"}]}}}, "dtype": {"type": "DT_INT32"}}}, {"name": "PartitionedCall/transpose_229/perm", "op": "Const", "attr": {"value": {"tensor": {"dtype": "DT_INT32", "tensorShape": {"dim": [{"size": "4"}]}}}, "dtype": {"type": "DT_INT32"}}}, {"name": "PartitionedCall/split_76", "op": "Const", "attr": {"value": {"tensor": {"dtype": "DT_FLOAT", "tensorShape": {"dim": [{"size": "1"}, {"size": "1"}, {"size": "192"}, {"size": "1152"}]}}}, "dtype": {"type": "DT_FLOAT"}}}, {"name": "unknown_152", "op": "Const", "attr": {"value": {"tensor": {"dtype": "DT_FLOAT", "tensorShape": {"dim": [{"size": "1152"}]}}}, "dtype": {"type": "DT_FLOAT"}}}, {"name": "PartitionedCall/transpose_230/perm", "op": "Const", "attr": {"value": {"tensor": {"dtype": "DT_INT32", "tensorShape": {"dim": [{"size": "4"}]}}}, "dtype": {"type": "DT_INT32"}}}, {"name": "PartitionedCall/Const_16", "op": "Const", "attr": {"value": {"tensor": {"dtype": "DT_INT32", "tensorShape": {"dim": [{"size": "4"}, {"size": "2"}]}}}, "dtype": {"type": "DT_INT32"}}}, {"name": "PartitionedCall/transpose_232/perm", "op": "Const", "attr": {"value": {"tensor": {"dtype": "DT_INT32", "tensorShape": {"dim": [{"size": "4"}]}}}, "dtype": {"type": "DT_INT32"}}}, {"name": "PartitionedCall/Reshape_15", "op": "Const", "attr": {"value": {"tensor": {"dtype": "DT_FLOAT", "tensorShape": {"dim": [{"size": "3"}, {"size": "3"}, {"size": "1152"}, {"size": "1"}]}}}, "dtype": {"type": "DT_FLOAT"}}}, {"name": "unknown_154", "op": "Const", "attr": {"value": {"tensor": {"dtype": "DT_FLOAT", "tensorShape": {"dim": [{"size": "1152"}]}}}, "dtype": {"type": "DT_FLOAT"}}}, {"name": "PartitionedCall/transpose_233/perm", "op": "Const", "attr": {"value": {"tensor": {"dtype": "DT_INT32", "tensorShape": {"dim": [{"size": "4"}]}}}, "dtype": {"type": "DT_INT32"}}}, {"name": "ConstantFolding/PartitionedCall/split_77-folded-1", "op": "Const", "attr": {"value": {"tensor": {"dtype": "DT_INT32", "tensorShape": {"dim": [{"size": "2"}]}}}, "dtype": {"type": "DT_INT32"}}}, {"name": "PartitionedCall/transpose_235/perm", "op": "Const", "attr": {"value": {"tensor": {"dtype": "DT_INT32", "tensorShape": {"dim": [{"size": "4"}]}}}, "dtype": {"type": "DT_INT32"}}}, {"name": "PartitionedCall/split_78", "op": "Const", "attr": {"value": {"tensor": {"dtype": "DT_FLOAT", "tensorShape": {"dim": [{"size": "1"}, {"size": "1"}, {"size": "1152"}, {"size": "288"}]}}}, "dtype": {"type": "DT_FLOAT"}}}, {"name": "unknown_156", "op": "Const", "attr": {"value": {"tensor": {"dtype": "DT_FLOAT", "tensorShape": {"dim": [{"size": "288"}]}}}, "dtype": {"type": "DT_FLOAT"}}}, {"name": "PartitionedCall/transpose_236/perm", "op": "Const", "attr": {"value": {"tensor": {"dtype": "DT_INT32", "tensorShape": {"dim": [{"size": "4"}]}}}, "dtype": {"type": "DT_INT32"}}}, {"name": "PartitionedCall/transpose_238/perm", "op": "Const", "attr": {"value": {"tensor": {"dtype": "DT_INT32", "tensorShape": {"dim": [{"size": "4"}]}}}, "dtype": {"type": "DT_INT32"}}}, {"name": "PartitionedCall/split_79", "op": "Const", "attr": {"value": {"tensor": {"dtype": "DT_FLOAT", "tensorShape": {"dim": [{"size": "1"}, {"size": "1"}, {"size": "288"}, {"size": "1152"}]}}}, "dtype": {"type": "DT_FLOAT"}}}, {"name": "unknown_158", "op": "Const", "attr": {"value": {"tensor": {"dtype": "DT_FLOAT", "tensorShape": {"dim": [{"size": "1152"}]}}}, "dtype": {"type": "DT_FLOAT"}}}, {"name": "PartitionedCall/transpose_239/perm", "op": "Const", "attr": {"value": {"tensor": {"dtype": "DT_INT32", "tensorShape": {"dim": [{"size": "4"}]}}}, "dtype": {"type": "DT_INT32"}}}, {"name": "PartitionedCall/transpose_241/perm", "op": "Const", "attr": {"value": {"tensor": {"dtype": "DT_INT32", "tensorShape": {"dim": [{"size": "4"}]}}}, "dtype": {"type": "DT_INT32"}}}, {"name": "PartitionedCall/split_80", "op": "Const", "attr": {"value": {"tensor": {"dtype": "DT_FLOAT", "tensorShape": {"dim": [{"size": "1"}, {"size": "1"}, {"size": "1152"}, {"size": "320"}]}}}, "dtype": {"type": "DT_FLOAT"}}}, {"name": "unknown_160", "op": "Const", "attr": {"value": {"tensor": {"dtype": "DT_FLOAT", "tensorShape": {"dim": [{"size": "320"}]}}}, "dtype": {"type": "DT_FLOAT"}}}, {"name": "PartitionedCall/split_81", "op": "Const", "attr": {"value": {"tensor": {"dtype": "DT_FLOAT", "tensorShape": {"dim": [{"size": "1"}, {"size": "1"}, {"size": "320"}, {"size": "1280"}]}}}, "dtype": {"type": "DT_FLOAT"}}}, {"name": "unknown_162", "op": "Const", "attr": {"value": {"tensor": {"dtype": "DT_FLOAT", "tensorShape": {"dim": [{"size": "1280"}]}}}, "dtype": {"type": "DT_FLOAT"}}}, {"name": "PartitionedCall/transpose_245/perm", "op": "Const", "attr": {"value": {"tensor": {"dtype": "DT_INT32", "tensorShape": {"dim": [{"size": "4"}]}}}, "dtype": {"type": "DT_INT32"}}}, {"name": "ConstantFolding/PartitionedCall/split_82-folded-1", "op": "Const", "attr": {"value": {"tensor": {"dtype": "DT_INT32", "tensorShape": {"dim": [{"size": "2"}]}}}, "dtype": {"type": "DT_INT32"}}}, {"name": "PartitionedCall/strided_slice_1/stack", "op": "Const", "attr": {"value": {"tensor": {"dtype": "DT_INT32", "tensorShape": {"dim": [{"size": "1"}]}}}, "dtype": {"type": "DT_INT32"}}}, {"name": "PartitionedCall/strided_slice_1/stack_1", "op": "Const", "attr": {"value": {"tensor": {"dtype": "DT_INT32", "tensorShape": {"dim": [{"size": "1"}]}}}, "dtype": {"type": "DT_INT32"}}}, {"name": "PartitionedCall/strided_slice_1/stack_2", "op": "Const", "attr": {"value": {"tensor": {"dtype": "DT_INT32", "tensorShape": {"dim": [{"size": "1"}]}}}, "dtype": {"type": "DT_INT32"}}}, {"name": "PartitionedCall/Const_19", "op": "Const", "attr": {"value": {"tensor": {"dtype": "DT_INT32", "tensorShape": {"dim": [{"size": "1"}]}}}, "dtype": {"type": "DT_INT32"}}}, {"name": "PartitionedCall/flatten/strided_slice/stack", "op": "Const", "attr": {"value": {"tensor": {"dtype": "DT_INT32", "tensorShape": {"dim": [{"size": "1"}]}}}, "dtype": {"type": "DT_INT32"}}}, {"name": "PartitionedCall/flatten/strided_slice/stack_1", "op": "Const", "attr": {"value": {"tensor": {"dtype": "DT_INT32", "tensorShape": {"dim": [{"size": "1"}]}}}, "dtype": {"type": "DT_INT32"}}}, {"name": "PartitionedCall/flatten/strided_slice/stack_2", "op": "Const", "attr": {"value": {"tensor": {"dtype": "DT_INT32", "tensorShape": {"dim": [{"size": "1"}]}}}, "dtype": {"type": "DT_INT32"}}}, {"name": "PartitionedCall/flatten/Reshape/shape/1", "op": "Const", "attr": {"value": {"tensor": {"dtype": "DT_INT32", "tensorShape": {}}}, "dtype": {"type": "DT_INT32"}}}, {"name": "PartitionedCall/transpose_246", "op": "Const", "attr": {"value": {"tensor": {"dtype": "DT_FLOAT", "tensorShape": {"dim": [{"size": "1280"}, {"size": "7"}]}}}, "dtype": {"type": "DT_FLOAT"}}}, {"name": "PartitionedCall/mul_1", "op": "Const", "attr": {"value": {"tensor": {"dtype": "DT_FLOAT", "tensorShape": {"dim": [{"size": "7"}]}}}, "dtype": {"type": "DT_FLOAT"}}}, {"name": "input", "op": "Placeholder", "attr": {"shape": {"shape": {"dim": [{"size": "-1"}, {"size": "3"}, {"size": "128"}, {"size": "128"}]}}, "dtype": {"type": "DT_FLOAT"}}}, {"name": "PartitionedCall/Pad", "op": "Pad", "input": ["input", "PartitionedCall/Const"], "attr": {"Tpaddings": {"type": "DT_INT32"}, "T": {"type": "DT_FLOAT"}}}, {"name": "PartitionedCall/transpose_1", "op": "Transpose", "input": ["PartitionedCall/Pad", "PartitionedCall/transpose_1/perm"], "attr": {"Tperm": {"type": "DT_INT32"}, "T": {"type": "DT_FLOAT"}}}, {"name": "PartitionedCall/Add", "op": "_FusedConv2D", "input": ["PartitionedCall/transpose_1", "PartitionedCall/split", "unknown_0"], "device": "/device:CPU:0", "attr": {"num_host_args": {"i": "0"}, "data_format": {"s": "TkhXQw=="}, "filter_format": {"s": "SFdJTw=="}, "fused_ops": {"list": {"s": ["Qmlhc0FkZA=="]}}, "num_args": {"i": "1"}, "strides": {"list": {"i": ["1", "2", "2", "1"]}}, "TArgs": {"list": {"type": ["DT_FLOAT"]}}, "padding": {"s": "VkFMSUQ="}, "use_cudnn_on_gpu": {"b": true}, "leakyrelu_alpha": {"f": 0.2}, "epsilon": {"f": 0.0}, "T": {"type": "DT_FLOAT"}, "explicit_paddings": {"list": {}}, "dilations": {"list": {"i": ["1", "1", "1", "1"]}}}}, {"name": "PartitionedCall/transpose_2", "op": "Transpose", "input": ["PartitionedCall/Add", "PartitionedCall/transpose_2/perm"], "attr": {"Tperm": {"type": "DT_INT32"}, "T": {"type": "DT_FLOAT"}}}, {"name": "PartitionedCall/onnx_tf_prefix_/stem/swish/Sigmoid", "op": "Sigmoid", "input": ["PartitionedCall/transpose_2"], "attr": {"T": {"type": "DT_FLOAT"}}}, {"name": "PartitionedCall/onnx_tf_prefix_/stem/swish/Mul", "op": "Mul", "input": ["PartitionedCall/transpose_2", "PartitionedCall/onnx_tf_prefix_/stem/swish/Sigmoid"], "attr": {"T": {"type": "DT_FLOAT"}}}, {"name": "PartitionedCall/transpose_4", "op": "Transpose", "input": ["PartitionedCall/onnx_tf_prefix_/stem/swish/Mul", "PartitionedCall/transpose_4/perm"], "attr": {"Tperm": {"type": "DT_INT32"}, "T": {"type": "DT_FLOAT"}}}, {"name": "PartitionedCall/Add_1", "op": "_FusedConv2D", "input": ["PartitionedCall/transpose_4", "PartitionedCall/split_1", "unknown_2"], "device": "/device:CPU:0", "attr": {"num_host_args": {"i": "0"}, "data_format": {"s": "TkhXQw=="}, "filter_format": {"s": "SFdJTw=="}, "fused_ops": {"list": {"s": ["Qmlhc0FkZA=="]}}, "num_args": {"i": "1"}, "strides": {"list": {"i": ["1", "1", "1", "1"]}}, "TArgs": {"list": {"type": ["DT_FLOAT"]}}, "padding": {"s": "VkFMSUQ="}, "use_cudnn_on_gpu": {"b": true}, "leakyrelu_alpha": {"f": 0.2}, "epsilon": {"f": 0.0}, "T": {"type": "DT_FLOAT"}, "explicit_paddings": {"list": {}}, "dilations": {"list": {"i": ["1", "1", "1", "1"]}}}}, {"name": "PartitionedCall/transpose_5", "op": "Transpose", "input": ["PartitionedCall/Add_1", "PartitionedCall/transpose_5/perm"], "attr": {"Tperm": {"type": "DT_INT32"}, "T": {"type": "DT_FLOAT"}}}, {"name": "PartitionedCall/onnx_tf_prefix_/blocks/blocks.0/swish/Sigmoid", "op": "Sigmoid", "input": ["PartitionedCall/transpose_5"], "attr": {"T": {"type": "DT_FLOAT"}}}, {"name": "PartitionedCall/onnx_tf_prefix_/blocks/blocks.0/swish/Mul", "op": "Mul", "input": ["PartitionedCall/transpose_5", "PartitionedCall/onnx_tf_prefix_/blocks/blocks.0/swish/Sigmoid"], "attr": {"T": {"type": "DT_FLOAT"}}}, {"name": "PartitionedCall/Pad_1", "op": "Pad", "input": ["PartitionedCall/onnx_tf_prefix_/blocks/blocks.0/swish/Mul", "PartitionedCall/Const_1"], "attr": {"Tpaddings": {"type": "DT_INT32"}, "T": {"type": "DT_FLOAT"}}}, {"name": "PartitionedCall/transpose_7", "op": "Transpose", "input": ["PartitionedCall/Pad_1", "PartitionedCall/transpose_7/perm"], "attr": {"Tperm": {"type": "DT_INT32"}, "T": {"type": "DT_FLOAT"}}}, {"name": "PartitionedCall/depthwise", "op": "FusedDepthwiseConv2dNative", "input": ["PartitionedCall/transpose_7", "PartitionedCall/Reshape", "unknown_4"], "attr": {"padding": {"s": "VkFMSUQ="}, "data_format": {"s": "TkhXQw=="}, "strides": {"list": {"i": ["1", "1", "1", "1"]}}, "num_args": {"i": "1"}, "fused_ops": {"list": {"s": ["Qmlhc0FkZA=="]}}, "T": {"type": "DT_FLOAT"}, "explicit_paddings": {"list": {}}, "dilations": {"list": {"i": ["1", "1", "1", "1"]}}}}, {"name": "PartitionedCall/transpose_8", "op": "Transpose", "input": ["PartitionedCall/depthwise", "PartitionedCall/transpose_8/perm"], "attr": {"Tperm": {"type": "DT_INT32"}, "T": {"type": "DT_FLOAT"}}}, {"name": "PartitionedCall/onnx_tf_prefix_/blocks/blocks.0/swish_1/Sigmoid", "op": "Sigmoid", "input": ["PartitionedCall/transpose_8"], "attr": {"T": {"type": "DT_FLOAT"}}}, {"name": "PartitionedCall/onnx_tf_prefix_/blocks/blocks.0/swish_1/Mul", "op": "Mul", "input": ["PartitionedCall/transpose_8", "PartitionedCall/onnx_tf_prefix_/blocks/blocks.0/swish_1/Sigmoid"], "attr": {"T": {"type": "DT_FLOAT"}}}, {"name": "PartitionedCall/Mean", "op": "Mean", "input": ["PartitionedCall/onnx_tf_prefix_/blocks/blocks.0/swish_1/Mul", "ConstantFolding/PartitionedCall/split_2-folded-1"], "attr": {"Tidx": {"type": "DT_INT32"}, "T": {"type": "DT_FLOAT"}, "keep_dims": {"b": true}}}, {"name": "PartitionedCall/transpose_10", "op": "Transpose", "input": ["PartitionedCall/Mean", "PartitionedCall/transpose_10/perm"], "attr": {"Tperm": {"type": "DT_INT32"}, "T": {"type": "DT_FLOAT"}}}, {"name": "PartitionedCall/Add_3", "op": "_FusedConv2D", "input": ["PartitionedCall/transpose_10", "PartitionedCall/split_3", "unknown_6"], "device": "/device:CPU:0", "attr": {"num_host_args": {"i": "0"}, "data_format": {"s": "TkhXQw=="}, "filter_format": {"s": "SFdJTw=="}, "fused_ops": {"list": {"s": ["Qmlhc0FkZA=="]}}, "num_args": {"i": "1"}, "strides": {"list": {"i": ["1", "1", "1", "1"]}}, "TArgs": {"list": {"type": ["DT_FLOAT"]}}, "padding": {"s": "VkFMSUQ="}, "use_cudnn_on_gpu": {"b": true}, "leakyrelu_alpha": {"f": 0.2}, "epsilon": {"f": 0.0}, "T": {"type": "DT_FLOAT"}, "explicit_paddings": {"list": {}}, "dilations": {"list": {"i": ["1", "1", "1", "1"]}}}}, {"name": "PartitionedCall/transpose_11", "op": "Transpose", "input": ["PartitionedCall/Add_3", "PartitionedCall/transpose_11/perm"], "attr": {"Tperm": {"type": "DT_INT32"}, "T": {"type": "DT_FLOAT"}}}, {"name": "PartitionedCall/onnx_tf_prefix_/blocks/blocks.0/se/Relu", "op": "Relu", "input": ["PartitionedCall/transpose_11"], "attr": {"T": {"type": "DT_FLOAT"}}}, {"name": "PartitionedCall/transpose_13", "op": "Transpose", "input": ["PartitionedCall/onnx_tf_prefix_/blocks/blocks.0/se/Relu", "PartitionedCall/transpose_13/perm"], "attr": {"Tperm": {"type": "DT_INT32"}, "T": {"type": "DT_FLOAT"}}}, {"name": "PartitionedCall/Add_4", "op": "_FusedConv2D", "input": ["PartitionedCall/transpose_13", "PartitionedCall/split_4", "unknown_8"], "device": "/device:CPU:0", "attr": {"num_host_args": {"i": "0"}, "data_format": {"s": "TkhXQw=="}, "filter_format": {"s": "SFdJTw=="}, "strides": {"list": {"i": ["1", "1", "1", "1"]}}, "num_args": {"i": "1"}, "fused_ops": {"list": {"s": ["Qmlhc0FkZA=="]}}, "TArgs": {"list": {"type": ["DT_FLOAT"]}}, "padding": {"s": "VkFMSUQ="}, "use_cudnn_on_gpu": {"b": true}, "leakyrelu_alpha": {"f": 0.2}, "epsilon": {"f": 0.0}, "T": {"type": "DT_FLOAT"}, "explicit_paddings": {"list": {}}, "dilations": {"list": {"i": ["1", "1", "1", "1"]}}}}, {"name": "PartitionedCall/transpose_14", "op": "Transpose", "input": ["PartitionedCall/Add_4", "PartitionedCall/transpose_14/perm"], "attr": {"Tperm": {"type": "DT_INT32"}, "T": {"type": "DT_FLOAT"}}}, {"name": "PartitionedCall/onnx_tf_prefix_/blocks/blocks.0/se/Sigmoid", "op": "Sigmoid", "input": ["PartitionedCall/transpose_14"], "attr": {"T": {"type": "DT_FLOAT"}}}, {"name": "PartitionedCall/onnx_tf_prefix_/blocks/blocks.0/se/Mul", "op": "Mul", "input": ["PartitionedCall/onnx_tf_prefix_/blocks/blocks.0/swish_1/Mul", "PartitionedCall/onnx_tf_prefix_/blocks/blocks.0/se/Sigmoid"], "attr": {"T": {"type": "DT_FLOAT"}}}, {"name": "PartitionedCall/transpose_16", "op": "Transpose", "input": ["PartitionedCall/onnx_tf_prefix_/blocks/blocks.0/se/Mul", "PartitionedCall/transpose_16/perm"], "attr": {"Tperm": {"type": "DT_INT32"}, "T": {"type": "DT_FLOAT"}}}, {"name": "PartitionedCall/Add_5", "op": "_FusedConv2D", "input": ["PartitionedCall/transpose_16", "PartitionedCall/split_5", "unknown_10"], "device": "/device:CPU:0", "attr": {"num_host_args": {"i": "0"}, "data_format": {"s": "TkhXQw=="}, "filter_format": {"s": "SFdJTw=="}, "fused_ops": {"list": {"s": ["Qmlhc0FkZA=="]}}, "num_args": {"i": "1"}, "strides": {"list": {"i": ["1", "1", "1", "1"]}}, "TArgs": {"list": {"type": ["DT_FLOAT"]}}, "padding": {"s": "VkFMSUQ="}, "use_cudnn_on_gpu": {"b": true}, "leakyrelu_alpha": {"f": 0.2}, "epsilon": {"f": 0.0}, "T": {"type": "DT_FLOAT"}, "explicit_paddings": {"list": {}}, "dilations": {"list": {"i": ["1", "1", "1", "1"]}}}}, {"name": "PartitionedCall/Add_6", "op": "_FusedConv2D", "input": ["PartitionedCall/Add_5", "PartitionedCall/split_6", "unknown_12"], "device": "/device:CPU:0", "attr": {"num_host_args": {"i": "0"}, "data_format": {"s": "TkhXQw=="}, "filter_format": {"s": "SFdJTw=="}, "fused_ops": {"list": {"s": ["Qmlhc0FkZA=="]}}, "num_args": {"i": "1"}, "strides": {"list": {"i": ["1", "1", "1", "1"]}}, "TArgs": {"list": {"type": ["DT_FLOAT"]}}, "padding": {"s": "VkFMSUQ="}, "use_cudnn_on_gpu": {"b": true}, "leakyrelu_alpha": {"f": 0.2}, "epsilon": {"f": 0.0}, "T": {"type": "DT_FLOAT"}, "explicit_paddings": {"list": {}}, "dilations": {"list": {"i": ["1", "1", "1", "1"]}}}}, {"name": "PartitionedCall/transpose_20", "op": "Transpose", "input": ["PartitionedCall/Add_6", "PartitionedCall/transpose_20/perm"], "attr": {"Tperm": {"type": "DT_INT32"}, "T": {"type": "DT_FLOAT"}}}, {"name": "PartitionedCall/onnx_tf_prefix_/blocks/blocks.1/swish/Sigmoid", "op": "Sigmoid", "input": ["PartitionedCall/transpose_20"], "attr": {"T": {"type": "DT_FLOAT"}}}, {"name": "PartitionedCall/onnx_tf_prefix_/blocks/blocks.1/swish/Mul", "op": "Mul", "input": ["PartitionedCall/transpose_20", "PartitionedCall/onnx_tf_prefix_/blocks/blocks.1/swish/Sigmoid"], "attr": {"T": {"type": "DT_FLOAT"}}}, {"name": "PartitionedCall/Pad_2", "op": "Pad", "input": ["PartitionedCall/onnx_tf_prefix_/blocks/blocks.1/swish/Mul", "PartitionedCall/Const_2"], "attr": {"Tpaddings": {"type": "DT_INT32"}, "T": {"type": "DT_FLOAT"}}}, {"name": "PartitionedCall/transpose_22", "op": "Transpose", "input": ["PartitionedCall/Pad_2", "PartitionedCall/transpose_22/perm"], "attr": {"Tperm": {"type": "DT_INT32"}, "T": {"type": "DT_FLOAT"}}}, {"name": "PartitionedCall/depthwise_1", "op": "FusedDepthwiseConv2dNative", "input": ["PartitionedCall/transpose_22", "PartitionedCall/Reshape_1", "unknown_14"], "attr": {"padding": {"s": "VkFMSUQ="}, "data_format": {"s": "TkhXQw=="}, "strides": {"list": {"i": ["1", "2", "2", "1"]}}, "num_args": {"i": "1"}, "fused_ops": {"list": {"s": ["Qmlhc0FkZA=="]}}, "T": {"type": "DT_FLOAT"}, "explicit_paddings": {"list": {}}, "dilations": {"list": {"i": ["1", "1", "1", "1"]}}}}, {"name": "PartitionedCall/transpose_23", "op": "Transpose", "input": ["PartitionedCall/depthwise_1", "PartitionedCall/transpose_23/perm"], "attr": {"Tperm": {"type": "DT_INT32"}, "T": {"type": "DT_FLOAT"}}}, {"name": "PartitionedCall/onnx_tf_prefix_/blocks/blocks.1/swish_1/Sigmoid", "op": "Sigmoid", "input": ["PartitionedCall/transpose_23"], "attr": {"T": {"type": "DT_FLOAT"}}}, {"name": "PartitionedCall/onnx_tf_prefix_/blocks/blocks.1/swish_1/Mul", "op": "Mul", "input": ["PartitionedCall/transpose_23", "PartitionedCall/onnx_tf_prefix_/blocks/blocks.1/swish_1/Sigmoid"], "attr": {"T": {"type": "DT_FLOAT"}}}, {"name": "PartitionedCall/Mean_1", "op": "Mean", "input": ["PartitionedCall/onnx_tf_prefix_/blocks/blocks.1/swish_1/Mul", "ConstantFolding/PartitionedCall/split_7-folded-1"], "attr": {"Tidx": {"type": "DT_INT32"}, "T": {"type": "DT_FLOAT"}, "keep_dims": {"b": true}}}, {"name": "PartitionedCall/transpose_25", "op": "Transpose", "input": ["PartitionedCall/Mean_1", "PartitionedCall/transpose_25/perm"], "attr": {"Tperm": {"type": "DT_INT32"}, "T": {"type": "DT_FLOAT"}}}, {"name": "PartitionedCall/Add_8", "op": "_FusedConv2D", "input": ["PartitionedCall/transpose_25", "PartitionedCall/split_8", "unknown_16"], "device": "/device:CPU:0", "attr": {"num_host_args": {"i": "0"}, "data_format": {"s": "TkhXQw=="}, "filter_format": {"s": "SFdJTw=="}, "strides": {"list": {"i": ["1", "1", "1", "1"]}}, "num_args": {"i": "1"}, "fused_ops": {"list": {"s": ["Qmlhc0FkZA=="]}}, "TArgs": {"list": {"type": ["DT_FLOAT"]}}, "padding": {"s": "VkFMSUQ="}, "use_cudnn_on_gpu": {"b": true}, "leakyrelu_alpha": {"f": 0.2}, "epsilon": {"f": 0.0}, "T": {"type": "DT_FLOAT"}, "explicit_paddings": {"list": {}}, "dilations": {"list": {"i": ["1", "1", "1", "1"]}}}}, {"name": "PartitionedCall/transpose_26", "op": "Transpose", "input": ["PartitionedCall/Add_8", "PartitionedCall/transpose_26/perm"], "attr": {"Tperm": {"type": "DT_INT32"}, "T": {"type": "DT_FLOAT"}}}, {"name": "PartitionedCall/onnx_tf_prefix_/blocks/blocks.1/se/Relu", "op": "Relu", "input": ["PartitionedCall/transpose_26"], "attr": {"T": {"type": "DT_FLOAT"}}}, {"name": "PartitionedCall/transpose_28", "op": "Transpose", "input": ["PartitionedCall/onnx_tf_prefix_/blocks/blocks.1/se/Relu", "PartitionedCall/transpose_28/perm"], "attr": {"Tperm": {"type": "DT_INT32"}, "T": {"type": "DT_FLOAT"}}}, {"name": "PartitionedCall/Add_9", "op": "_FusedConv2D", "input": ["PartitionedCall/transpose_28", "PartitionedCall/split_9", "unknown_18"], "device": "/device:CPU:0", "attr": {"num_host_args": {"i": "0"}, "data_format": {"s": "TkhXQw=="}, "filter_format": {"s": "SFdJTw=="}, "fused_ops": {"list": {"s": ["Qmlhc0FkZA=="]}}, "num_args": {"i": "1"}, "strides": {"list": {"i": ["1", "1", "1", "1"]}}, "TArgs": {"list": {"type": ["DT_FLOAT"]}}, "padding": {"s": "VkFMSUQ="}, "use_cudnn_on_gpu": {"b": true}, "leakyrelu_alpha": {"f": 0.2}, "epsilon": {"f": 0.0}, "T": {"type": "DT_FLOAT"}, "explicit_paddings": {"list": {}}, "dilations": {"list": {"i": ["1", "1", "1", "1"]}}}}, {"name": "PartitionedCall/transpose_29", "op": "Transpose", "input": ["PartitionedCall/Add_9", "PartitionedCall/transpose_29/perm"], "attr": {"Tperm": {"type": "DT_INT32"}, "T": {"type": "DT_FLOAT"}}}, {"name": "PartitionedCall/onnx_tf_prefix_/blocks/blocks.1/se/Sigmoid", "op": "Sigmoid", "input": ["PartitionedCall/transpose_29"], "attr": {"T": {"type": "DT_FLOAT"}}}, {"name": "PartitionedCall/onnx_tf_prefix_/blocks/blocks.1/se/Mul", "op": "Mul", "input": ["PartitionedCall/onnx_tf_prefix_/blocks/blocks.1/swish_1/Mul", "PartitionedCall/onnx_tf_prefix_/blocks/blocks.1/se/Sigmoid"], "attr": {"T": {"type": "DT_FLOAT"}}}, {"name": "PartitionedCall/transpose_31", "op": "Transpose", "input": ["PartitionedCall/onnx_tf_prefix_/blocks/blocks.1/se/Mul", "PartitionedCall/transpose_31/perm"], "attr": {"Tperm": {"type": "DT_INT32"}, "T": {"type": "DT_FLOAT"}}}, {"name": "PartitionedCall/Add_10", "op": "_FusedConv2D", "input": ["PartitionedCall/transpose_31", "PartitionedCall/split_10", "unknown_20"], "device": "/device:CPU:0", "attr": {"num_host_args": {"i": "0"}, "data_format": {"s": "TkhXQw=="}, "filter_format": {"s": "SFdJTw=="}, "fused_ops": {"list": {"s": ["Qmlhc0FkZA=="]}}, "num_args": {"i": "1"}, "strides": {"list": {"i": ["1", "1", "1", "1"]}}, "TArgs": {"list": {"type": ["DT_FLOAT"]}}, "padding": {"s": "VkFMSUQ="}, "use_cudnn_on_gpu": {"b": true}, "leakyrelu_alpha": {"f": 0.2}, "epsilon": {"f": 0.0}, "T": {"type": "DT_FLOAT"}, "explicit_paddings": {"list": {}}, "dilations": {"list": {"i": ["1", "1", "1", "1"]}}}}, {"name": "PartitionedCall/Add_11", "op": "_FusedConv2D", "input": ["PartitionedCall/Add_10", "PartitionedCall/split_11", "unknown_22"], "device": "/device:CPU:0", "attr": {"num_host_args": {"i": "0"}, "data_format": {"s": "TkhXQw=="}, "filter_format": {"s": "SFdJTw=="}, "strides": {"list": {"i": ["1", "1", "1", "1"]}}, "num_args": {"i": "1"}, "fused_ops": {"list": {"s": ["Qmlhc0FkZA=="]}}, "TArgs": {"list": {"type": ["DT_FLOAT"]}}, "padding": {"s": "VkFMSUQ="}, "use_cudnn_on_gpu": {"b": true}, "leakyrelu_alpha": {"f": 0.2}, "epsilon": {"f": 0.0}, "T": {"type": "DT_FLOAT"}, "explicit_paddings": {"list": {}}, "dilations": {"list": {"i": ["1", "1", "1", "1"]}}}}, {"name": "PartitionedCall/transpose_32", "op": "Transpose", "input": ["PartitionedCall/Add_10", "PartitionedCall/transpose_32/perm"], "attr": {"Tperm": {"type": "DT_INT32"}, "T": {"type": "DT_FLOAT"}}}, {"name": "PartitionedCall/transpose_35", "op": "Transpose", "input": ["PartitionedCall/Add_11", "PartitionedCall/transpose_35/perm"], "attr": {"Tperm": {"type": "DT_INT32"}, "T": {"type": "DT_FLOAT"}}}, {"name": "PartitionedCall/onnx_tf_prefix_/blocks/blocks.2/swish/Sigmoid", "op": "Sigmoid", "input": ["PartitionedCall/transpose_35"], "attr": {"T": {"type": "DT_FLOAT"}}}, {"name": "PartitionedCall/onnx_tf_prefix_/blocks/blocks.2/swish/Mul", "op": "Mul", "input": ["PartitionedCall/transpose_35", "PartitionedCall/onnx_tf_prefix_/blocks/blocks.2/swish/Sigmoid"], "attr": {"T": {"type": "DT_FLOAT"}}}, {"name": "PartitionedCall/Pad_3", "op": "Pad", "input": ["PartitionedCall/onnx_tf_prefix_/blocks/blocks.2/swish/Mul", "PartitionedCall/Const_3"], "attr": {"Tpaddings": {"type": "DT_INT32"}, "T": {"type": "DT_FLOAT"}}}, {"name": "PartitionedCall/transpose_37", "op": "Transpose", "input": ["PartitionedCall/Pad_3", "PartitionedCall/transpose_37/perm"], "attr": {"Tperm": {"type": "DT_INT32"}, "T": {"type": "DT_FLOAT"}}}, {"name": "PartitionedCall/depthwise_2", "op": "FusedDepthwiseConv2dNative", "input": ["PartitionedCall/transpose_37", "PartitionedCall/Reshape_2", "unknown_24"], "attr": {"padding": {"s": "VkFMSUQ="}, "data_format": {"s": "TkhXQw=="}, "strides": {"list": {"i": ["1", "1", "1", "1"]}}, "num_args": {"i": "1"}, "fused_ops": {"list": {"s": ["Qmlhc0FkZA=="]}}, "T": {"type": "DT_FLOAT"}, "explicit_paddings": {"list": {}}, "dilations": {"list": {"i": ["1", "1", "1", "1"]}}}}, {"name": "PartitionedCall/transpose_38", "op": "Transpose", "input": ["PartitionedCall/depthwise_2", "PartitionedCall/transpose_38/perm"], "attr": {"Tperm": {"type": "DT_INT32"}, "T": {"type": "DT_FLOAT"}}}, {"name": "PartitionedCall/onnx_tf_prefix_/blocks/blocks.2/swish_1/Sigmoid", "op": "Sigmoid", "input": ["PartitionedCall/transpose_38"], "attr": {"T": {"type": "DT_FLOAT"}}}, {"name": "PartitionedCall/onnx_tf_prefix_/blocks/blocks.2/swish_1/Mul", "op": "Mul", "input": ["PartitionedCall/transpose_38", "PartitionedCall/onnx_tf_prefix_/blocks/blocks.2/swish_1/Sigmoid"], "attr": {"T": {"type": "DT_FLOAT"}}}, {"name": "PartitionedCall/Mean_2", "op": "Mean", "input": ["PartitionedCall/onnx_tf_prefix_/blocks/blocks.2/swish_1/Mul", "ConstantFolding/PartitionedCall/split_12-folded-1"], "attr": {"Tidx": {"type": "DT_INT32"}, "T": {"type": "DT_FLOAT"}, "keep_dims": {"b": true}}}, {"name": "PartitionedCall/transpose_40", "op": "Transpose", "input": ["PartitionedCall/Mean_2", "PartitionedCall/transpose_40/perm"], "attr": {"Tperm": {"type": "DT_INT32"}, "T": {"type": "DT_FLOAT"}}}, {"name": "PartitionedCall/Add_13", "op": "_FusedConv2D", "input": ["PartitionedCall/transpose_40", "PartitionedCall/split_13", "unknown_26"], "device": "/device:CPU:0", "attr": {"num_host_args": {"i": "0"}, "data_format": {"s": "TkhXQw=="}, "filter_format": {"s": "SFdJTw=="}, "fused_ops": {"list": {"s": ["Qmlhc0FkZA=="]}}, "num_args": {"i": "1"}, "strides": {"list": {"i": ["1", "1", "1", "1"]}}, "TArgs": {"list": {"type": ["DT_FLOAT"]}}, "padding": {"s": "VkFMSUQ="}, "use_cudnn_on_gpu": {"b": true}, "leakyrelu_alpha": {"f": 0.2}, "epsilon": {"f": 0.0}, "T": {"type": "DT_FLOAT"}, "explicit_paddings": {"list": {}}, "dilations": {"list": {"i": ["1", "1", "1", "1"]}}}}, {"name": "PartitionedCall/transpose_41", "op": "Transpose", "input": ["PartitionedCall/Add_13", "PartitionedCall/transpose_41/perm"], "attr": {"Tperm": {"type": "DT_INT32"}, "T": {"type": "DT_FLOAT"}}}, {"name": "PartitionedCall/onnx_tf_prefix_/blocks/blocks.2/se/Relu", "op": "Relu", "input": ["PartitionedCall/transpose_41"], "attr": {"T": {"type": "DT_FLOAT"}}}, {"name": "PartitionedCall/transpose_43", "op": "Transpose", "input": ["PartitionedCall/onnx_tf_prefix_/blocks/blocks.2/se/Relu", "PartitionedCall/transpose_43/perm"], "attr": {"Tperm": {"type": "DT_INT32"}, "T": {"type": "DT_FLOAT"}}}, {"name": "PartitionedCall/Add_14", "op": "_FusedConv2D", "input": ["PartitionedCall/transpose_43", "PartitionedCall/split_14", "unknown_28"], "device": "/device:CPU:0", "attr": {"num_host_args": {"i": "0"}, "data_format": {"s": "TkhXQw=="}, "filter_format": {"s": "SFdJTw=="}, "strides": {"list": {"i": ["1", "1", "1", "1"]}}, "num_args": {"i": "1"}, "fused_ops": {"list": {"s": ["Qmlhc0FkZA=="]}}, "TArgs": {"list": {"type": ["DT_FLOAT"]}}, "padding": {"s": "VkFMSUQ="}, "use_cudnn_on_gpu": {"b": true}, "leakyrelu_alpha": {"f": 0.2}, "epsilon": {"f": 0.0}, "T": {"type": "DT_FLOAT"}, "explicit_paddings": {"list": {}}, "dilations": {"list": {"i": ["1", "1", "1", "1"]}}}}, {"name": "PartitionedCall/transpose_44", "op": "Transpose", "input": ["PartitionedCall/Add_14", "PartitionedCall/transpose_44/perm"], "attr": {"Tperm": {"type": "DT_INT32"}, "T": {"type": "DT_FLOAT"}}}, {"name": "PartitionedCall/onnx_tf_prefix_/blocks/blocks.2/se/Sigmoid", "op": "Sigmoid", "input": ["PartitionedCall/transpose_44"], "attr": {"T": {"type": "DT_FLOAT"}}}, {"name": "PartitionedCall/onnx_tf_prefix_/blocks/blocks.2/se/Mul", "op": "Mul", "input": ["PartitionedCall/onnx_tf_prefix_/blocks/blocks.2/swish_1/Mul", "PartitionedCall/onnx_tf_prefix_/blocks/blocks.2/se/Sigmoid"], "attr": {"T": {"type": "DT_FLOAT"}}}, {"name": "PartitionedCall/transpose_46", "op": "Transpose", "input": ["PartitionedCall/onnx_tf_prefix_/blocks/blocks.2/se/Mul", "PartitionedCall/transpose_46/perm"], "attr": {"Tperm": {"type": "DT_INT32"}, "T": {"type": "DT_FLOAT"}}}, {"name": "PartitionedCall/Add_15", "op": "_FusedConv2D", "input": ["PartitionedCall/transpose_46", "PartitionedCall/split_15", "unknown_30"], "device": "/device:CPU:0", "attr": {"num_host_args": {"i": "0"}, "data_format": {"s": "TkhXQw=="}, "filter_format": {"s": "SFdJTw=="}, "fused_ops": {"list": {"s": ["Qmlhc0FkZA=="]}}, "num_args": {"i": "1"}, "strides": {"list": {"i": ["1", "1", "1", "1"]}}, "TArgs": {"list": {"type": ["DT_FLOAT"]}}, "padding": {"s": "VkFMSUQ="}, "use_cudnn_on_gpu": {"b": true}, "leakyrelu_alpha": {"f": 0.2}, "epsilon": {"f": 0.0}, "T": {"type": "DT_FLOAT"}, "explicit_paddings": {"list": {}}, "dilations": {"list": {"i": ["1", "1", "1", "1"]}}}}, {"name": "PartitionedCall/transpose_47", "op": "Transpose", "input": ["PartitionedCall/Add_15", "PartitionedCall/transpose_47/perm"], "attr": {"Tperm": {"type": "DT_INT32"}, "T": {"type": "DT_FLOAT"}}}, {"name": "PartitionedCall/onnx_tf_prefix_/blocks/blocks.2/Add", "op": "AddV2", "input": ["PartitionedCall/transpose_47", "PartitionedCall/transpose_32"], "attr": {"T": {"type": "DT_FLOAT"}}}, {"name": "PartitionedCall/transpose_49", "op": "Transpose", "input": ["PartitionedCall/onnx_tf_prefix_/blocks/blocks.2/Add", "PartitionedCall/transpose_49/perm"], "attr": {"Tperm": {"type": "DT_INT32"}, "T": {"type": "DT_FLOAT"}}}, {"name": "PartitionedCall/Add_16", "op": "_FusedConv2D", "input": ["PartitionedCall/transpose_49", "PartitionedCall/split_16", "unknown_32"], "device": "/device:CPU:0", "attr": {"num_host_args": {"i": "0"}, "data_format": {"s": "TkhXQw=="}, "filter_format": {"s": "SFdJTw=="}, "fused_ops": {"list": {"s": ["Qmlhc0FkZA=="]}}, "num_args": {"i": "1"}, "strides": {"list": {"i": ["1", "1", "1", "1"]}}, "TArgs": {"list": {"type": ["DT_FLOAT"]}}, "padding": {"s": "VkFMSUQ="}, "use_cudnn_on_gpu": {"b": true}, "leakyrelu_alpha": {"f": 0.2}, "epsilon": {"f": 0.0}, "T": {"type": "DT_FLOAT"}, "explicit_paddings": {"list": {}}, "dilations": {"list": {"i": ["1", "1", "1", "1"]}}}}, {"name": "PartitionedCall/transpose_50", "op": "Transpose", "input": ["PartitionedCall/Add_16", "PartitionedCall/transpose_50/perm"], "attr": {"Tperm": {"type": "DT_INT32"}, "T": {"type": "DT_FLOAT"}}}, {"name": "PartitionedCall/onnx_tf_prefix_/blocks/blocks.3/swish/Sigmoid", "op": "Sigmoid", "input": ["PartitionedCall/transpose_50"], "attr": {"T": {"type": "DT_FLOAT"}}}, {"name": "PartitionedCall/onnx_tf_prefix_/blocks/blocks.3/swish/Mul", "op": "Mul", "input": ["PartitionedCall/transpose_50", "PartitionedCall/onnx_tf_prefix_/blocks/blocks.3/swish/Sigmoid"], "attr": {"T": {"type": "DT_FLOAT"}}}, {"name": "PartitionedCall/Pad_4", "op": "Pad", "input": ["PartitionedCall/onnx_tf_prefix_/blocks/blocks.3/swish/Mul", "PartitionedCall/Const_4"], "attr": {"Tpaddings": {"type": "DT_INT32"}, "T": {"type": "DT_FLOAT"}}}, {"name": "PartitionedCall/transpose_52", "op": "Transpose", "input": ["PartitionedCall/Pad_4", "PartitionedCall/transpose_52/perm"], "attr": {"Tperm": {"type": "DT_INT32"}, "T": {"type": "DT_FLOAT"}}}, {"name": "PartitionedCall/depthwise_3", "op": "FusedDepthwiseConv2dNative", "input": ["PartitionedCall/transpose_52", "PartitionedCall/Reshape_3", "unknown_34"], "attr": {"padding": {"s": "VkFMSUQ="}, "data_format": {"s": "TkhXQw=="}, "strides": {"list": {"i": ["1", "2", "2", "1"]}}, "num_args": {"i": "1"}, "fused_ops": {"list": {"s": ["Qmlhc0FkZA=="]}}, "T": {"type": "DT_FLOAT"}, "explicit_paddings": {"list": {}}, "dilations": {"list": {"i": ["1", "1", "1", "1"]}}}}, {"name": "PartitionedCall/transpose_53", "op": "Transpose", "input": ["PartitionedCall/depthwise_3", "PartitionedCall/transpose_53/perm"], "attr": {"Tperm": {"type": "DT_INT32"}, "T": {"type": "DT_FLOAT"}}}, {"name": "PartitionedCall/onnx_tf_prefix_/blocks/blocks.3/swish_1/Sigmoid", "op": "Sigmoid", "input": ["PartitionedCall/transpose_53"], "attr": {"T": {"type": "DT_FLOAT"}}}, {"name": "PartitionedCall/onnx_tf_prefix_/blocks/blocks.3/swish_1/Mul", "op": "Mul", "input": ["PartitionedCall/transpose_53", "PartitionedCall/onnx_tf_prefix_/blocks/blocks.3/swish_1/Sigmoid"], "attr": {"T": {"type": "DT_FLOAT"}}}, {"name": "PartitionedCall/Mean_3", "op": "Mean", "input": ["PartitionedCall/onnx_tf_prefix_/blocks/blocks.3/swish_1/Mul", "ConstantFolding/PartitionedCall/split_17-folded-1"], "attr": {"Tidx": {"type": "DT_INT32"}, "T": {"type": "DT_FLOAT"}, "keep_dims": {"b": true}}}, {"name": "PartitionedCall/transpose_55", "op": "Transpose", "input": ["PartitionedCall/Mean_3", "PartitionedCall/transpose_55/perm"], "attr": {"Tperm": {"type": "DT_INT32"}, "T": {"type": "DT_FLOAT"}}}, {"name": "PartitionedCall/Add_18", "op": "_FusedConv2D", "input": ["PartitionedCall/transpose_55", "PartitionedCall/split_18", "unknown_36"], "device": "/device:CPU:0", "attr": {"num_host_args": {"i": "0"}, "data_format": {"s": "TkhXQw=="}, "filter_format": {"s": "SFdJTw=="}, "strides": {"list": {"i": ["1", "1", "1", "1"]}}, "num_args": {"i": "1"}, "fused_ops": {"list": {"s": ["Qmlhc0FkZA=="]}}, "TArgs": {"list": {"type": ["DT_FLOAT"]}}, "padding": {"s": "VkFMSUQ="}, "use_cudnn_on_gpu": {"b": true}, "leakyrelu_alpha": {"f": 0.2}, "epsilon": {"f": 0.0}, "T": {"type": "DT_FLOAT"}, "explicit_paddings": {"list": {}}, "dilations": {"list": {"i": ["1", "1", "1", "1"]}}}}, {"name": "PartitionedCall/transpose_56", "op": "Transpose", "input": ["PartitionedCall/Add_18", "PartitionedCall/transpose_56/perm"], "attr": {"Tperm": {"type": "DT_INT32"}, "T": {"type": "DT_FLOAT"}}}, {"name": "PartitionedCall/onnx_tf_prefix_/blocks/blocks.3/se/Relu", "op": "Relu", "input": ["PartitionedCall/transpose_56"], "attr": {"T": {"type": "DT_FLOAT"}}}, {"name": "PartitionedCall/transpose_58", "op": "Transpose", "input": ["PartitionedCall/onnx_tf_prefix_/blocks/blocks.3/se/Relu", "PartitionedCall/transpose_58/perm"], "attr": {"Tperm": {"type": "DT_INT32"}, "T": {"type": "DT_FLOAT"}}}, {"name": "PartitionedCall/Add_19", "op": "_FusedConv2D", "input": ["PartitionedCall/transpose_58", "PartitionedCall/split_19", "unknown_38"], "device": "/device:CPU:0", "attr": {"num_host_args": {"i": "0"}, "data_format": {"s": "TkhXQw=="}, "filter_format": {"s": "SFdJTw=="}, "strides": {"list": {"i": ["1", "1", "1", "1"]}}, "num_args": {"i": "1"}, "fused_ops": {"list": {"s": ["Qmlhc0FkZA=="]}}, "TArgs": {"list": {"type": ["DT_FLOAT"]}}, "padding": {"s": "VkFMSUQ="}, "use_cudnn_on_gpu": {"b": true}, "leakyrelu_alpha": {"f": 0.2}, "epsilon": {"f": 0.0}, "T": {"type": "DT_FLOAT"}, "explicit_paddings": {"list": {}}, "dilations": {"list": {"i": ["1", "1", "1", "1"]}}}}, {"name": "PartitionedCall/transpose_59", "op": "Transpose", "input": ["PartitionedCall/Add_19", "PartitionedCall/transpose_59/perm"], "attr": {"Tperm": {"type": "DT_INT32"}, "T": {"type": "DT_FLOAT"}}}, {"name": "PartitionedCall/onnx_tf_prefix_/blocks/blocks.3/se/Sigmoid", "op": "Sigmoid", "input": ["PartitionedCall/transpose_59"], "attr": {"T": {"type": "DT_FLOAT"}}}, {"name": "PartitionedCall/onnx_tf_prefix_/blocks/blocks.3/se/Mul", "op": "Mul", "input": ["PartitionedCall/onnx_tf_prefix_/blocks/blocks.3/swish_1/Mul", "PartitionedCall/onnx_tf_prefix_/blocks/blocks.3/se/Sigmoid"], "attr": {"T": {"type": "DT_FLOAT"}}}, {"name": "PartitionedCall/transpose_61", "op": "Transpose", "input": ["PartitionedCall/onnx_tf_prefix_/blocks/blocks.3/se/Mul", "PartitionedCall/transpose_61/perm"], "attr": {"Tperm": {"type": "DT_INT32"}, "T": {"type": "DT_FLOAT"}}}, {"name": "PartitionedCall/Add_20", "op": "_FusedConv2D", "input": ["PartitionedCall/transpose_61", "PartitionedCall/split_20", "unknown_40"], "device": "/device:CPU:0", "attr": {"num_host_args": {"i": "0"}, "data_format": {"s": "TkhXQw=="}, "filter_format": {"s": "SFdJTw=="}, "strides": {"list": {"i": ["1", "1", "1", "1"]}}, "num_args": {"i": "1"}, "fused_ops": {"list": {"s": ["Qmlhc0FkZA=="]}}, "TArgs": {"list": {"type": ["DT_FLOAT"]}}, "padding": {"s": "VkFMSUQ="}, "use_cudnn_on_gpu": {"b": true}, "leakyrelu_alpha": {"f": 0.2}, "epsilon": {"f": 0.0}, "T": {"type": "DT_FLOAT"}, "explicit_paddings": {"list": {}}, "dilations": {"list": {"i": ["1", "1", "1", "1"]}}}}, {"name": "PartitionedCall/Add_21", "op": "_FusedConv2D", "input": ["PartitionedCall/Add_20", "PartitionedCall/split_21", "unknown_42"], "device": "/device:CPU:0", "attr": {"num_host_args": {"i": "0"}, "data_format": {"s": "TkhXQw=="}, "filter_format": {"s": "SFdJTw=="}, "strides": {"list": {"i": ["1", "1", "1", "1"]}}, "num_args": {"i": "1"}, "fused_ops": {"list": {"s": ["Qmlhc0FkZA=="]}}, "TArgs": {"list": {"type": ["DT_FLOAT"]}}, "padding": {"s": "VkFMSUQ="}, "use_cudnn_on_gpu": {"b": true}, "leakyrelu_alpha": {"f": 0.2}, "epsilon": {"f": 0.0}, "T": {"type": "DT_FLOAT"}, "explicit_paddings": {"list": {}}, "dilations": {"list": {"i": ["1", "1", "1", "1"]}}}}, {"name": "PartitionedCall/transpose_62", "op": "Transpose", "input": ["PartitionedCall/Add_20", "PartitionedCall/transpose_62/perm"], "attr": {"Tperm": {"type": "DT_INT32"}, "T": {"type": "DT_FLOAT"}}}, {"name": "PartitionedCall/transpose_65", "op": "Transpose", "input": ["PartitionedCall/Add_21", "PartitionedCall/transpose_65/perm"], "attr": {"Tperm": {"type": "DT_INT32"}, "T": {"type": "DT_FLOAT"}}}, {"name": "PartitionedCall/onnx_tf_prefix_/blocks/blocks.4/swish/Sigmoid", "op": "Sigmoid", "input": ["PartitionedCall/transpose_65"], "attr": {"T": {"type": "DT_FLOAT"}}}, {"name": "PartitionedCall/onnx_tf_prefix_/blocks/blocks.4/swish/Mul", "op": "Mul", "input": ["PartitionedCall/transpose_65", "PartitionedCall/onnx_tf_prefix_/blocks/blocks.4/swish/Sigmoid"], "attr": {"T": {"type": "DT_FLOAT"}}}, {"name": "PartitionedCall/Pad_5", "op": "Pad", "input": ["PartitionedCall/onnx_tf_prefix_/blocks/blocks.4/swish/Mul", "PartitionedCall/Const_5"], "attr": {"Tpaddings": {"type": "DT_INT32"}, "T": {"type": "DT_FLOAT"}}}, {"name": "PartitionedCall/transpose_67", "op": "Transpose", "input": ["PartitionedCall/Pad_5", "PartitionedCall/transpose_67/perm"], "attr": {"Tperm": {"type": "DT_INT32"}, "T": {"type": "DT_FLOAT"}}}, {"name": "PartitionedCall/depthwise_4", "op": "FusedDepthwiseConv2dNative", "input": ["PartitionedCall/transpose_67", "PartitionedCall/Reshape_4", "unknown_44"], "attr": {"padding": {"s": "VkFMSUQ="}, "data_format": {"s": "TkhXQw=="}, "strides": {"list": {"i": ["1", "1", "1", "1"]}}, "num_args": {"i": "1"}, "fused_ops": {"list": {"s": ["Qmlhc0FkZA=="]}}, "T": {"type": "DT_FLOAT"}, "explicit_paddings": {"list": {}}, "dilations": {"list": {"i": ["1", "1", "1", "1"]}}}}, {"name": "PartitionedCall/transpose_68", "op": "Transpose", "input": ["PartitionedCall/depthwise_4", "PartitionedCall/transpose_68/perm"], "attr": {"Tperm": {"type": "DT_INT32"}, "T": {"type": "DT_FLOAT"}}}, {"name": "PartitionedCall/onnx_tf_prefix_/blocks/blocks.4/swish_1/Sigmoid", "op": "Sigmoid", "input": ["PartitionedCall/transpose_68"], "attr": {"T": {"type": "DT_FLOAT"}}}, {"name": "PartitionedCall/onnx_tf_prefix_/blocks/blocks.4/swish_1/Mul", "op": "Mul", "input": ["PartitionedCall/transpose_68", "PartitionedCall/onnx_tf_prefix_/blocks/blocks.4/swish_1/Sigmoid"], "attr": {"T": {"type": "DT_FLOAT"}}}, {"name": "PartitionedCall/Mean_4", "op": "Mean", "input": ["PartitionedCall/onnx_tf_prefix_/blocks/blocks.4/swish_1/Mul", "ConstantFolding/PartitionedCall/split_22-folded-1"], "attr": {"Tidx": {"type": "DT_INT32"}, "T": {"type": "DT_FLOAT"}, "keep_dims": {"b": true}}}, {"name": "PartitionedCall/transpose_70", "op": "Transpose", "input": ["PartitionedCall/Mean_4", "PartitionedCall/transpose_70/perm"], "attr": {"Tperm": {"type": "DT_INT32"}, "T": {"type": "DT_FLOAT"}}}, {"name": "PartitionedCall/Add_23", "op": "_FusedConv2D", "input": ["PartitionedCall/transpose_70", "PartitionedCall/split_23", "unknown_46"], "device": "/device:CPU:0", "attr": {"num_host_args": {"i": "0"}, "data_format": {"s": "TkhXQw=="}, "filter_format": {"s": "SFdJTw=="}, "fused_ops": {"list": {"s": ["Qmlhc0FkZA=="]}}, "num_args": {"i": "1"}, "strides": {"list": {"i": ["1", "1", "1", "1"]}}, "TArgs": {"list": {"type": ["DT_FLOAT"]}}, "padding": {"s": "VkFMSUQ="}, "use_cudnn_on_gpu": {"b": true}, "leakyrelu_alpha": {"f": 0.2}, "epsilon": {"f": 0.0}, "T": {"type": "DT_FLOAT"}, "explicit_paddings": {"list": {}}, "dilations": {"list": {"i": ["1", "1", "1", "1"]}}}}, {"name": "PartitionedCall/transpose_71", "op": "Transpose", "input": ["PartitionedCall/Add_23", "PartitionedCall/transpose_71/perm"], "attr": {"Tperm": {"type": "DT_INT32"}, "T": {"type": "DT_FLOAT"}}}, {"name": "PartitionedCall/onnx_tf_prefix_/blocks/blocks.4/se/Relu", "op": "Relu", "input": ["PartitionedCall/transpose_71"], "attr": {"T": {"type": "DT_FLOAT"}}}, {"name": "PartitionedCall/transpose_73", "op": "Transpose", "input": ["PartitionedCall/onnx_tf_prefix_/blocks/blocks.4/se/Relu", "PartitionedCall/transpose_73/perm"], "attr": {"Tperm": {"type": "DT_INT32"}, "T": {"type": "DT_FLOAT"}}}, {"name": "PartitionedCall/Add_24", "op": "_FusedConv2D", "input": ["PartitionedCall/transpose_73", "PartitionedCall/split_24", "unknown_48"], "device": "/device:CPU:0", "attr": {"num_host_args": {"i": "0"}, "data_format": {"s": "TkhXQw=="}, "filter_format": {"s": "SFdJTw=="}, "fused_ops": {"list": {"s": ["Qmlhc0FkZA=="]}}, "num_args": {"i": "1"}, "strides": {"list": {"i": ["1", "1", "1", "1"]}}, "TArgs": {"list": {"type": ["DT_FLOAT"]}}, "padding": {"s": "VkFMSUQ="}, "use_cudnn_on_gpu": {"b": true}, "leakyrelu_alpha": {"f": 0.2}, "epsilon": {"f": 0.0}, "T": {"type": "DT_FLOAT"}, "explicit_paddings": {"list": {}}, "dilations": {"list": {"i": ["1", "1", "1", "1"]}}}}, {"name": "PartitionedCall/transpose_74", "op": "Transpose", "input": ["PartitionedCall/Add_24", "PartitionedCall/transpose_74/perm"], "attr": {"Tperm": {"type": "DT_INT32"}, "T": {"type": "DT_FLOAT"}}}, {"name": "PartitionedCall/onnx_tf_prefix_/blocks/blocks.4/se/Sigmoid", "op": "Sigmoid", "input": ["PartitionedCall/transpose_74"], "attr": {"T": {"type": "DT_FLOAT"}}}, {"name": "PartitionedCall/onnx_tf_prefix_/blocks/blocks.4/se/Mul", "op": "Mul", "input": ["PartitionedCall/onnx_tf_prefix_/blocks/blocks.4/swish_1/Mul", "PartitionedCall/onnx_tf_prefix_/blocks/blocks.4/se/Sigmoid"], "attr": {"T": {"type": "DT_FLOAT"}}}, {"name": "PartitionedCall/transpose_76", "op": "Transpose", "input": ["PartitionedCall/onnx_tf_prefix_/blocks/blocks.4/se/Mul", "PartitionedCall/transpose_76/perm"], "attr": {"Tperm": {"type": "DT_INT32"}, "T": {"type": "DT_FLOAT"}}}, {"name": "PartitionedCall/Add_25", "op": "_FusedConv2D", "input": ["PartitionedCall/transpose_76", "PartitionedCall/split_25", "unknown_50"], "device": "/device:CPU:0", "attr": {"num_host_args": {"i": "0"}, "data_format": {"s": "TkhXQw=="}, "filter_format": {"s": "SFdJTw=="}, "fused_ops": {"list": {"s": ["Qmlhc0FkZA=="]}}, "num_args": {"i": "1"}, "strides": {"list": {"i": ["1", "1", "1", "1"]}}, "TArgs": {"list": {"type": ["DT_FLOAT"]}}, "padding": {"s": "VkFMSUQ="}, "use_cudnn_on_gpu": {"b": true}, "leakyrelu_alpha": {"f": 0.2}, "epsilon": {"f": 0.0}, "T": {"type": "DT_FLOAT"}, "explicit_paddings": {"list": {}}, "dilations": {"list": {"i": ["1", "1", "1", "1"]}}}}, {"name": "PartitionedCall/transpose_77", "op": "Transpose", "input": ["PartitionedCall/Add_25", "PartitionedCall/transpose_77/perm"], "attr": {"Tperm": {"type": "DT_INT32"}, "T": {"type": "DT_FLOAT"}}}, {"name": "PartitionedCall/onnx_tf_prefix_/blocks/blocks.4/Add", "op": "AddV2", "input": ["PartitionedCall/transpose_77", "PartitionedCall/transpose_62"], "attr": {"T": {"type": "DT_FLOAT"}}}, {"name": "PartitionedCall/transpose_79", "op": "Transpose", "input": ["PartitionedCall/onnx_tf_prefix_/blocks/blocks.4/Add", "PartitionedCall/transpose_79/perm"], "attr": {"Tperm": {"type": "DT_INT32"}, "T": {"type": "DT_FLOAT"}}}, {"name": "PartitionedCall/Add_26", "op": "_FusedConv2D", "input": ["PartitionedCall/transpose_79", "PartitionedCall/split_26", "unknown_52"], "device": "/device:CPU:0", "attr": {"num_host_args": {"i": "0"}, "data_format": {"s": "TkhXQw=="}, "filter_format": {"s": "SFdJTw=="}, "fused_ops": {"list": {"s": ["Qmlhc0FkZA=="]}}, "num_args": {"i": "1"}, "strides": {"list": {"i": ["1", "1", "1", "1"]}}, "TArgs": {"list": {"type": ["DT_FLOAT"]}}, "padding": {"s": "VkFMSUQ="}, "use_cudnn_on_gpu": {"b": true}, "leakyrelu_alpha": {"f": 0.2}, "epsilon": {"f": 0.0}, "T": {"type": "DT_FLOAT"}, "explicit_paddings": {"list": {}}, "dilations": {"list": {"i": ["1", "1", "1", "1"]}}}}, {"name": "PartitionedCall/transpose_80", "op": "Transpose", "input": ["PartitionedCall/Add_26", "PartitionedCall/transpose_80/perm"], "attr": {"Tperm": {"type": "DT_INT32"}, "T": {"type": "DT_FLOAT"}}}, {"name": "PartitionedCall/onnx_tf_prefix_/blocks/blocks.5/swish/Sigmoid", "op": "Sigmoid", "input": ["PartitionedCall/transpose_80"], "attr": {"T": {"type": "DT_FLOAT"}}}, {"name": "PartitionedCall/onnx_tf_prefix_/blocks/blocks.5/swish/Mul", "op": "Mul", "input": ["PartitionedCall/transpose_80", "PartitionedCall/onnx_tf_prefix_/blocks/blocks.5/swish/Sigmoid"], "attr": {"T": {"type": "DT_FLOAT"}}}, {"name": "PartitionedCall/Pad_6", "op": "Pad", "input": ["PartitionedCall/onnx_tf_prefix_/blocks/blocks.5/swish/Mul", "PartitionedCall/Const_6"], "attr": {"Tpaddings": {"type": "DT_INT32"}, "T": {"type": "DT_FLOAT"}}}, {"name": "PartitionedCall/transpose_82", "op": "Transpose", "input": ["PartitionedCall/Pad_6", "PartitionedCall/transpose_82/perm"], "attr": {"Tperm": {"type": "DT_INT32"}, "T": {"type": "DT_FLOAT"}}}, {"name": "PartitionedCall/depthwise_5", "op": "FusedDepthwiseConv2dNative", "input": ["PartitionedCall/transpose_82", "PartitionedCall/Reshape_5", "unknown_54"], "attr": {"padding": {"s": "VkFMSUQ="}, "data_format": {"s": "TkhXQw=="}, "strides": {"list": {"i": ["1", "2", "2", "1"]}}, "num_args": {"i": "1"}, "fused_ops": {"list": {"s": ["Qmlhc0FkZA=="]}}, "T": {"type": "DT_FLOAT"}, "explicit_paddings": {"list": {}}, "dilations": {"list": {"i": ["1", "1", "1", "1"]}}}}, {"name": "PartitionedCall/transpose_83", "op": "Transpose", "input": ["PartitionedCall/depthwise_5", "PartitionedCall/transpose_83/perm"], "attr": {"Tperm": {"type": "DT_INT32"}, "T": {"type": "DT_FLOAT"}}}, {"name": "PartitionedCall/onnx_tf_prefix_/blocks/blocks.5/swish_1/Sigmoid", "op": "Sigmoid", "input": ["PartitionedCall/transpose_83"], "attr": {"T": {"type": "DT_FLOAT"}}}, {"name": "PartitionedCall/onnx_tf_prefix_/blocks/blocks.5/swish_1/Mul", "op": "Mul", "input": ["PartitionedCall/transpose_83", "PartitionedCall/onnx_tf_prefix_/blocks/blocks.5/swish_1/Sigmoid"], "attr": {"T": {"type": "DT_FLOAT"}}}, {"name": "PartitionedCall/Mean_5", "op": "Mean", "input": ["PartitionedCall/onnx_tf_prefix_/blocks/blocks.5/swish_1/Mul", "ConstantFolding/PartitionedCall/split_27-folded-1"], "attr": {"T": {"type": "DT_FLOAT"}, "Tidx": {"type": "DT_INT32"}, "keep_dims": {"b": true}}}, {"name": "PartitionedCall/transpose_85", "op": "Transpose", "input": ["PartitionedCall/Mean_5", "PartitionedCall/transpose_85/perm"], "attr": {"Tperm": {"type": "DT_INT32"}, "T": {"type": "DT_FLOAT"}}}, {"name": "PartitionedCall/Add_28", "op": "_FusedConv2D", "input": ["PartitionedCall/transpose_85", "PartitionedCall/split_28", "unknown_56"], "device": "/device:CPU:0", "attr": {"num_host_args": {"i": "0"}, "data_format": {"s": "TkhXQw=="}, "filter_format": {"s": "SFdJTw=="}, "fused_ops": {"list": {"s": ["Qmlhc0FkZA=="]}}, "num_args": {"i": "1"}, "strides": {"list": {"i": ["1", "1", "1", "1"]}}, "TArgs": {"list": {"type": ["DT_FLOAT"]}}, "padding": {"s": "VkFMSUQ="}, "use_cudnn_on_gpu": {"b": true}, "leakyrelu_alpha": {"f": 0.2}, "epsilon": {"f": 0.0}, "T": {"type": "DT_FLOAT"}, "explicit_paddings": {"list": {}}, "dilations": {"list": {"i": ["1", "1", "1", "1"]}}}}, {"name": "PartitionedCall/transpose_86", "op": "Transpose", "input": ["PartitionedCall/Add_28", "PartitionedCall/transpose_86/perm"], "attr": {"Tperm": {"type": "DT_INT32"}, "T": {"type": "DT_FLOAT"}}}, {"name": "PartitionedCall/onnx_tf_prefix_/blocks/blocks.5/se/Relu", "op": "Relu", "input": ["PartitionedCall/transpose_86"], "attr": {"T": {"type": "DT_FLOAT"}}}, {"name": "PartitionedCall/transpose_88", "op": "Transpose", "input": ["PartitionedCall/onnx_tf_prefix_/blocks/blocks.5/se/Relu", "PartitionedCall/transpose_88/perm"], "attr": {"Tperm": {"type": "DT_INT32"}, "T": {"type": "DT_FLOAT"}}}, {"name": "PartitionedCall/Add_29", "op": "_FusedConv2D", "input": ["PartitionedCall/transpose_88", "PartitionedCall/split_29", "unknown_58"], "device": "/device:CPU:0", "attr": {"num_host_args": {"i": "0"}, "data_format": {"s": "TkhXQw=="}, "filter_format": {"s": "SFdJTw=="}, "fused_ops": {"list": {"s": ["Qmlhc0FkZA=="]}}, "num_args": {"i": "1"}, "strides": {"list": {"i": ["1", "1", "1", "1"]}}, "TArgs": {"list": {"type": ["DT_FLOAT"]}}, "padding": {"s": "VkFMSUQ="}, "use_cudnn_on_gpu": {"b": true}, "leakyrelu_alpha": {"f": 0.2}, "epsilon": {"f": 0.0}, "T": {"type": "DT_FLOAT"}, "explicit_paddings": {"list": {}}, "dilations": {"list": {"i": ["1", "1", "1", "1"]}}}}, {"name": "PartitionedCall/transpose_89", "op": "Transpose", "input": ["PartitionedCall/Add_29", "PartitionedCall/transpose_89/perm"], "attr": {"Tperm": {"type": "DT_INT32"}, "T": {"type": "DT_FLOAT"}}}, {"name": "PartitionedCall/onnx_tf_prefix_/blocks/blocks.5/se/Sigmoid", "op": "Sigmoid", "input": ["PartitionedCall/transpose_89"], "attr": {"T": {"type": "DT_FLOAT"}}}, {"name": "PartitionedCall/onnx_tf_prefix_/blocks/blocks.5/se/Mul", "op": "Mul", "input": ["PartitionedCall/onnx_tf_prefix_/blocks/blocks.5/swish_1/Mul", "PartitionedCall/onnx_tf_prefix_/blocks/blocks.5/se/Sigmoid"], "attr": {"T": {"type": "DT_FLOAT"}}}, {"name": "PartitionedCall/transpose_91", "op": "Transpose", "input": ["PartitionedCall/onnx_tf_prefix_/blocks/blocks.5/se/Mul", "PartitionedCall/transpose_91/perm"], "attr": {"Tperm": {"type": "DT_INT32"}, "T": {"type": "DT_FLOAT"}}}, {"name": "PartitionedCall/Add_30", "op": "_FusedConv2D", "input": ["PartitionedCall/transpose_91", "PartitionedCall/split_30", "unknown_60"], "device": "/device:CPU:0", "attr": {"num_host_args": {"i": "0"}, "data_format": {"s": "TkhXQw=="}, "filter_format": {"s": "SFdJTw=="}, "fused_ops": {"list": {"s": ["Qmlhc0FkZA=="]}}, "num_args": {"i": "1"}, "strides": {"list": {"i": ["1", "1", "1", "1"]}}, "TArgs": {"list": {"type": ["DT_FLOAT"]}}, "padding": {"s": "VkFMSUQ="}, "use_cudnn_on_gpu": {"b": true}, "leakyrelu_alpha": {"f": 0.2}, "epsilon": {"f": 0.0}, "T": {"type": "DT_FLOAT"}, "explicit_paddings": {"list": {}}, "dilations": {"list": {"i": ["1", "1", "1", "1"]}}}}, {"name": "PartitionedCall/Add_31", "op": "_FusedConv2D", "input": ["PartitionedCall/Add_30", "PartitionedCall/split_31", "unknown_62"], "device": "/device:CPU:0", "attr": {"num_host_args": {"i": "0"}, "data_format": {"s": "TkhXQw=="}, "filter_format": {"s": "SFdJTw=="}, "strides": {"list": {"i": ["1", "1", "1", "1"]}}, "num_args": {"i": "1"}, "fused_ops": {"list": {"s": ["Qmlhc0FkZA=="]}}, "TArgs": {"list": {"type": ["DT_FLOAT"]}}, "padding": {"s": "VkFMSUQ="}, "use_cudnn_on_gpu": {"b": true}, "leakyrelu_alpha": {"f": 0.2}, "epsilon": {"f": 0.0}, "T": {"type": "DT_FLOAT"}, "explicit_paddings": {"list": {}}, "dilations": {"list": {"i": ["1", "1", "1", "1"]}}}}, {"name": "PartitionedCall/transpose_92", "op": "Transpose", "input": ["PartitionedCall/Add_30", "PartitionedCall/transpose_92/perm"], "attr": {"Tperm": {"type": "DT_INT32"}, "T": {"type": "DT_FLOAT"}}}, {"name": "PartitionedCall/transpose_95", "op": "Transpose", "input": ["PartitionedCall/Add_31", "PartitionedCall/transpose_95/perm"], "attr": {"Tperm": {"type": "DT_INT32"}, "T": {"type": "DT_FLOAT"}}}, {"name": "PartitionedCall/onnx_tf_prefix_/blocks/blocks.6/swish/Sigmoid", "op": "Sigmoid", "input": ["PartitionedCall/transpose_95"], "attr": {"T": {"type": "DT_FLOAT"}}}, {"name": "PartitionedCall/onnx_tf_prefix_/blocks/blocks.6/swish/Mul", "op": "Mul", "input": ["PartitionedCall/transpose_95", "PartitionedCall/onnx_tf_prefix_/blocks/blocks.6/swish/Sigmoid"], "attr": {"T": {"type": "DT_FLOAT"}}}, {"name": "PartitionedCall/Pad_7", "op": "Pad", "input": ["PartitionedCall/onnx_tf_prefix_/blocks/blocks.6/swish/Mul", "PartitionedCall/Const_7"], "attr": {"Tpaddings": {"type": "DT_INT32"}, "T": {"type": "DT_FLOAT"}}}, {"name": "PartitionedCall/transpose_97", "op": "Transpose", "input": ["PartitionedCall/Pad_7", "PartitionedCall/transpose_97/perm"], "attr": {"Tperm": {"type": "DT_INT32"}, "T": {"type": "DT_FLOAT"}}}, {"name": "PartitionedCall/depthwise_6", "op": "FusedDepthwiseConv2dNative", "input": ["PartitionedCall/transpose_97", "PartitionedCall/Reshape_6", "unknown_64"], "attr": {"padding": {"s": "VkFMSUQ="}, "data_format": {"s": "TkhXQw=="}, "strides": {"list": {"i": ["1", "1", "1", "1"]}}, "num_args": {"i": "1"}, "fused_ops": {"list": {"s": ["Qmlhc0FkZA=="]}}, "T": {"type": "DT_FLOAT"}, "explicit_paddings": {"list": {}}, "dilations": {"list": {"i": ["1", "1", "1", "1"]}}}}, {"name": "PartitionedCall/transpose_98", "op": "Transpose", "input": ["PartitionedCall/depthwise_6", "PartitionedCall/transpose_98/perm"], "attr": {"Tperm": {"type": "DT_INT32"}, "T": {"type": "DT_FLOAT"}}}, {"name": "PartitionedCall/onnx_tf_prefix_/blocks/blocks.6/swish_1/Sigmoid", "op": "Sigmoid", "input": ["PartitionedCall/transpose_98"], "attr": {"T": {"type": "DT_FLOAT"}}}, {"name": "PartitionedCall/onnx_tf_prefix_/blocks/blocks.6/swish_1/Mul", "op": "Mul", "input": ["PartitionedCall/transpose_98", "PartitionedCall/onnx_tf_prefix_/blocks/blocks.6/swish_1/Sigmoid"], "attr": {"T": {"type": "DT_FLOAT"}}}, {"name": "PartitionedCall/Mean_6", "op": "Mean", "input": ["PartitionedCall/onnx_tf_prefix_/blocks/blocks.6/swish_1/Mul", "ConstantFolding/PartitionedCall/split_32-folded-1"], "attr": {"T": {"type": "DT_FLOAT"}, "Tidx": {"type": "DT_INT32"}, "keep_dims": {"b": true}}}, {"name": "PartitionedCall/transpose_100", "op": "Transpose", "input": ["PartitionedCall/Mean_6", "PartitionedCall/transpose_100/perm"], "attr": {"Tperm": {"type": "DT_INT32"}, "T": {"type": "DT_FLOAT"}}}, {"name": "PartitionedCall/Add_33", "op": "_FusedConv2D", "input": ["PartitionedCall/transpose_100", "PartitionedCall/split_33", "unknown_66"], "device": "/device:CPU:0", "attr": {"num_host_args": {"i": "0"}, "data_format": {"s": "TkhXQw=="}, "filter_format": {"s": "SFdJTw=="}, "fused_ops": {"list": {"s": ["Qmlhc0FkZA=="]}}, "num_args": {"i": "1"}, "strides": {"list": {"i": ["1", "1", "1", "1"]}}, "TArgs": {"list": {"type": ["DT_FLOAT"]}}, "padding": {"s": "VkFMSUQ="}, "use_cudnn_on_gpu": {"b": true}, "leakyrelu_alpha": {"f": 0.2}, "epsilon": {"f": 0.0}, "T": {"type": "DT_FLOAT"}, "explicit_paddings": {"list": {}}, "dilations": {"list": {"i": ["1", "1", "1", "1"]}}}}, {"name": "PartitionedCall/transpose_101", "op": "Transpose", "input": ["PartitionedCall/Add_33", "PartitionedCall/transpose_101/perm"], "attr": {"Tperm": {"type": "DT_INT32"}, "T": {"type": "DT_FLOAT"}}}, {"name": "PartitionedCall/onnx_tf_prefix_/blocks/blocks.6/se/Relu", "op": "Relu", "input": ["PartitionedCall/transpose_101"], "attr": {"T": {"type": "DT_FLOAT"}}}, {"name": "PartitionedCall/transpose_103", "op": "Transpose", "input": ["PartitionedCall/onnx_tf_prefix_/blocks/blocks.6/se/Relu", "PartitionedCall/transpose_103/perm"], "attr": {"Tperm": {"type": "DT_INT32"}, "T": {"type": "DT_FLOAT"}}}, {"name": "PartitionedCall/Add_34", "op": "_FusedConv2D", "input": ["PartitionedCall/transpose_103", "PartitionedCall/split_34", "unknown_68"], "device": "/device:CPU:0", "attr": {"num_host_args": {"i": "0"}, "data_format": {"s": "TkhXQw=="}, "filter_format": {"s": "SFdJTw=="}, "strides": {"list": {"i": ["1", "1", "1", "1"]}}, "num_args": {"i": "1"}, "fused_ops": {"list": {"s": ["Qmlhc0FkZA=="]}}, "TArgs": {"list": {"type": ["DT_FLOAT"]}}, "padding": {"s": "VkFMSUQ="}, "use_cudnn_on_gpu": {"b": true}, "leakyrelu_alpha": {"f": 0.2}, "epsilon": {"f": 0.0}, "T": {"type": "DT_FLOAT"}, "explicit_paddings": {"list": {}}, "dilations": {"list": {"i": ["1", "1", "1", "1"]}}}}, {"name": "PartitionedCall/transpose_104", "op": "Transpose", "input": ["PartitionedCall/Add_34", "PartitionedCall/transpose_104/perm"], "attr": {"Tperm": {"type": "DT_INT32"}, "T": {"type": "DT_FLOAT"}}}, {"name": "PartitionedCall/onnx_tf_prefix_/blocks/blocks.6/se/Sigmoid", "op": "Sigmoid", "input": ["PartitionedCall/transpose_104"], "attr": {"T": {"type": "DT_FLOAT"}}}, {"name": "PartitionedCall/onnx_tf_prefix_/blocks/blocks.6/se/Mul", "op": "Mul", "input": ["PartitionedCall/onnx_tf_prefix_/blocks/blocks.6/swish_1/Mul", "PartitionedCall/onnx_tf_prefix_/blocks/blocks.6/se/Sigmoid"], "attr": {"T": {"type": "DT_FLOAT"}}}, {"name": "PartitionedCall/transpose_106", "op": "Transpose", "input": ["PartitionedCall/onnx_tf_prefix_/blocks/blocks.6/se/Mul", "PartitionedCall/transpose_106/perm"], "attr": {"Tperm": {"type": "DT_INT32"}, "T": {"type": "DT_FLOAT"}}}, {"name": "PartitionedCall/Add_35", "op": "_FusedConv2D", "input": ["PartitionedCall/transpose_106", "PartitionedCall/split_35", "unknown_70"], "device": "/device:CPU:0", "attr": {"num_host_args": {"i": "0"}, "data_format": {"s": "TkhXQw=="}, "filter_format": {"s": "SFdJTw=="}, "strides": {"list": {"i": ["1", "1", "1", "1"]}}, "num_args": {"i": "1"}, "fused_ops": {"list": {"s": ["Qmlhc0FkZA=="]}}, "TArgs": {"list": {"type": ["DT_FLOAT"]}}, "padding": {"s": "VkFMSUQ="}, "use_cudnn_on_gpu": {"b": true}, "leakyrelu_alpha": {"f": 0.2}, "epsilon": {"f": 0.0}, "T": {"type": "DT_FLOAT"}, "explicit_paddings": {"list": {}}, "dilations": {"list": {"i": ["1", "1", "1", "1"]}}}}, {"name": "PartitionedCall/transpose_107", "op": "Transpose", "input": ["PartitionedCall/Add_35", "PartitionedCall/transpose_107/perm"], "attr": {"Tperm": {"type": "DT_INT32"}, "T": {"type": "DT_FLOAT"}}}, {"name": "PartitionedCall/onnx_tf_prefix_/blocks/blocks.6/Add", "op": "AddV2", "input": ["PartitionedCall/transpose_107", "PartitionedCall/transpose_92"], "attr": {"T": {"type": "DT_FLOAT"}}}, {"name": "PartitionedCall/transpose_109", "op": "Transpose", "input": ["PartitionedCall/onnx_tf_prefix_/blocks/blocks.6/Add", "PartitionedCall/transpose_109/perm"], "attr": {"Tperm": {"type": "DT_INT32"}, "T": {"type": "DT_FLOAT"}}}, {"name": "PartitionedCall/Add_36", "op": "_FusedConv2D", "input": ["PartitionedCall/transpose_109", "PartitionedCall/split_36", "unknown_72"], "device": "/device:CPU:0", "attr": {"num_host_args": {"i": "0"}, "data_format": {"s": "TkhXQw=="}, "filter_format": {"s": "SFdJTw=="}, "strides": {"list": {"i": ["1", "1", "1", "1"]}}, "num_args": {"i": "1"}, "fused_ops": {"list": {"s": ["Qmlhc0FkZA=="]}}, "TArgs": {"list": {"type": ["DT_FLOAT"]}}, "padding": {"s": "VkFMSUQ="}, "use_cudnn_on_gpu": {"b": true}, "leakyrelu_alpha": {"f": 0.2}, "epsilon": {"f": 0.0}, "T": {"type": "DT_FLOAT"}, "explicit_paddings": {"list": {}}, "dilations": {"list": {"i": ["1", "1", "1", "1"]}}}}, {"name": "PartitionedCall/transpose_110", "op": "Transpose", "input": ["PartitionedCall/Add_36", "PartitionedCall/transpose_110/perm"], "attr": {"Tperm": {"type": "DT_INT32"}, "T": {"type": "DT_FLOAT"}}}, {"name": "PartitionedCall/onnx_tf_prefix_/blocks/blocks.7/swish/Sigmoid", "op": "Sigmoid", "input": ["PartitionedCall/transpose_110"], "attr": {"T": {"type": "DT_FLOAT"}}}, {"name": "PartitionedCall/onnx_tf_prefix_/blocks/blocks.7/swish/Mul", "op": "Mul", "input": ["PartitionedCall/transpose_110", "PartitionedCall/onnx_tf_prefix_/blocks/blocks.7/swish/Sigmoid"], "attr": {"T": {"type": "DT_FLOAT"}}}, {"name": "PartitionedCall/Pad_8", "op": "Pad", "input": ["PartitionedCall/onnx_tf_prefix_/blocks/blocks.7/swish/Mul", "PartitionedCall/Const_8"], "attr": {"Tpaddings": {"type": "DT_INT32"}, "T": {"type": "DT_FLOAT"}}}, {"name": "PartitionedCall/transpose_112", "op": "Transpose", "input": ["PartitionedCall/Pad_8", "PartitionedCall/transpose_112/perm"], "attr": {"Tperm": {"type": "DT_INT32"}, "T": {"type": "DT_FLOAT"}}}, {"name": "PartitionedCall/depthwise_7", "op": "FusedDepthwiseConv2dNative", "input": ["PartitionedCall/transpose_112", "PartitionedCall/Reshape_7", "unknown_74"], "attr": {"padding": {"s": "VkFMSUQ="}, "data_format": {"s": "TkhXQw=="}, "strides": {"list": {"i": ["1", "1", "1", "1"]}}, "num_args": {"i": "1"}, "fused_ops": {"list": {"s": ["Qmlhc0FkZA=="]}}, "T": {"type": "DT_FLOAT"}, "explicit_paddings": {"list": {}}, "dilations": {"list": {"i": ["1", "1", "1", "1"]}}}}, {"name": "PartitionedCall/transpose_113", "op": "Transpose", "input": ["PartitionedCall/depthwise_7", "PartitionedCall/transpose_113/perm"], "attr": {"Tperm": {"type": "DT_INT32"}, "T": {"type": "DT_FLOAT"}}}, {"name": "PartitionedCall/onnx_tf_prefix_/blocks/blocks.7/swish_1/Sigmoid", "op": "Sigmoid", "input": ["PartitionedCall/transpose_113"], "attr": {"T": {"type": "DT_FLOAT"}}}, {"name": "PartitionedCall/onnx_tf_prefix_/blocks/blocks.7/swish_1/Mul", "op": "Mul", "input": ["PartitionedCall/transpose_113", "PartitionedCall/onnx_tf_prefix_/blocks/blocks.7/swish_1/Sigmoid"], "attr": {"T": {"type": "DT_FLOAT"}}}, {"name": "PartitionedCall/Mean_7", "op": "Mean", "input": ["PartitionedCall/onnx_tf_prefix_/blocks/blocks.7/swish_1/Mul", "ConstantFolding/PartitionedCall/split_37-folded-1"], "attr": {"Tidx": {"type": "DT_INT32"}, "T": {"type": "DT_FLOAT"}, "keep_dims": {"b": true}}}, {"name": "PartitionedCall/transpose_115", "op": "Transpose", "input": ["PartitionedCall/Mean_7", "PartitionedCall/transpose_115/perm"], "attr": {"Tperm": {"type": "DT_INT32"}, "T": {"type": "DT_FLOAT"}}}, {"name": "PartitionedCall/Add_38", "op": "_FusedConv2D", "input": ["PartitionedCall/transpose_115", "PartitionedCall/split_38", "unknown_76"], "device": "/device:CPU:0", "attr": {"num_host_args": {"i": "0"}, "data_format": {"s": "TkhXQw=="}, "filter_format": {"s": "SFdJTw=="}, "fused_ops": {"list": {"s": ["Qmlhc0FkZA=="]}}, "num_args": {"i": "1"}, "strides": {"list": {"i": ["1", "1", "1", "1"]}}, "TArgs": {"list": {"type": ["DT_FLOAT"]}}, "padding": {"s": "VkFMSUQ="}, "use_cudnn_on_gpu": {"b": true}, "leakyrelu_alpha": {"f": 0.2}, "epsilon": {"f": 0.0}, "T": {"type": "DT_FLOAT"}, "explicit_paddings": {"list": {}}, "dilations": {"list": {"i": ["1", "1", "1", "1"]}}}}, {"name": "PartitionedCall/transpose_116", "op": "Transpose", "input": ["PartitionedCall/Add_38", "PartitionedCall/transpose_116/perm"], "attr": {"Tperm": {"type": "DT_INT32"}, "T": {"type": "DT_FLOAT"}}}, {"name": "PartitionedCall/onnx_tf_prefix_/blocks/blocks.7/se/Relu", "op": "Relu", "input": ["PartitionedCall/transpose_116"], "attr": {"T": {"type": "DT_FLOAT"}}}, {"name": "PartitionedCall/transpose_118", "op": "Transpose", "input": ["PartitionedCall/onnx_tf_prefix_/blocks/blocks.7/se/Relu", "PartitionedCall/transpose_118/perm"], "attr": {"Tperm": {"type": "DT_INT32"}, "T": {"type": "DT_FLOAT"}}}, {"name": "PartitionedCall/Add_39", "op": "_FusedConv2D", "input": ["PartitionedCall/transpose_118", "PartitionedCall/split_39", "unknown_78"], "device": "/device:CPU:0", "attr": {"num_host_args": {"i": "0"}, "data_format": {"s": "TkhXQw=="}, "filter_format": {"s": "SFdJTw=="}, "fused_ops": {"list": {"s": ["Qmlhc0FkZA=="]}}, "num_args": {"i": "1"}, "strides": {"list": {"i": ["1", "1", "1", "1"]}}, "TArgs": {"list": {"type": ["DT_FLOAT"]}}, "padding": {"s": "VkFMSUQ="}, "use_cudnn_on_gpu": {"b": true}, "leakyrelu_alpha": {"f": 0.2}, "epsilon": {"f": 0.0}, "T": {"type": "DT_FLOAT"}, "explicit_paddings": {"list": {}}, "dilations": {"list": {"i": ["1", "1", "1", "1"]}}}}, {"name": "PartitionedCall/transpose_119", "op": "Transpose", "input": ["PartitionedCall/Add_39", "PartitionedCall/transpose_119/perm"], "attr": {"Tperm": {"type": "DT_INT32"}, "T": {"type": "DT_FLOAT"}}}, {"name": "PartitionedCall/onnx_tf_prefix_/blocks/blocks.7/se/Sigmoid", "op": "Sigmoid", "input": ["PartitionedCall/transpose_119"], "attr": {"T": {"type": "DT_FLOAT"}}}, {"name": "PartitionedCall/onnx_tf_prefix_/blocks/blocks.7/se/Mul", "op": "Mul", "input": ["PartitionedCall/onnx_tf_prefix_/blocks/blocks.7/swish_1/Mul", "PartitionedCall/onnx_tf_prefix_/blocks/blocks.7/se/Sigmoid"], "attr": {"T": {"type": "DT_FLOAT"}}}, {"name": "PartitionedCall/transpose_121", "op": "Transpose", "input": ["PartitionedCall/onnx_tf_prefix_/blocks/blocks.7/se/Mul", "PartitionedCall/transpose_121/perm"], "attr": {"Tperm": {"type": "DT_INT32"}, "T": {"type": "DT_FLOAT"}}}, {"name": "PartitionedCall/Add_40", "op": "_FusedConv2D", "input": ["PartitionedCall/transpose_121", "PartitionedCall/split_40", "unknown_80"], "device": "/device:CPU:0", "attr": {"num_host_args": {"i": "0"}, "data_format": {"s": "TkhXQw=="}, "filter_format": {"s": "SFdJTw=="}, "strides": {"list": {"i": ["1", "1", "1", "1"]}}, "num_args": {"i": "1"}, "fused_ops": {"list": {"s": ["Qmlhc0FkZA=="]}}, "TArgs": {"list": {"type": ["DT_FLOAT"]}}, "padding": {"s": "VkFMSUQ="}, "use_cudnn_on_gpu": {"b": true}, "leakyrelu_alpha": {"f": 0.2}, "epsilon": {"f": 0.0}, "T": {"type": "DT_FLOAT"}, "explicit_paddings": {"list": {}}, "dilations": {"list": {"i": ["1", "1", "1", "1"]}}}}, {"name": "PartitionedCall/transpose_122", "op": "Transpose", "input": ["PartitionedCall/Add_40", "PartitionedCall/transpose_122/perm"], "attr": {"Tperm": {"type": "DT_INT32"}, "T": {"type": "DT_FLOAT"}}}, {"name": "PartitionedCall/onnx_tf_prefix_/blocks/blocks.7/Add", "op": "AddV2", "input": ["PartitionedCall/transpose_122", "PartitionedCall/onnx_tf_prefix_/blocks/blocks.6/Add"], "attr": {"T": {"type": "DT_FLOAT"}}}, {"name": "PartitionedCall/transpose_124", "op": "Transpose", "input": ["PartitionedCall/onnx_tf_prefix_/blocks/blocks.7/Add", "PartitionedCall/transpose_124/perm"], "attr": {"Tperm": {"type": "DT_INT32"}, "T": {"type": "DT_FLOAT"}}}, {"name": "PartitionedCall/Add_41", "op": "_FusedConv2D", "input": ["PartitionedCall/transpose_124", "PartitionedCall/split_41", "unknown_82"], "device": "/device:CPU:0", "attr": {"num_host_args": {"i": "0"}, "data_format": {"s": "TkhXQw=="}, "filter_format": {"s": "SFdJTw=="}, "strides": {"list": {"i": ["1", "1", "1", "1"]}}, "num_args": {"i": "1"}, "fused_ops": {"list": {"s": ["Qmlhc0FkZA=="]}}, "TArgs": {"list": {"type": ["DT_FLOAT"]}}, "padding": {"s": "VkFMSUQ="}, "use_cudnn_on_gpu": {"b": true}, "leakyrelu_alpha": {"f": 0.2}, "epsilon": {"f": 0.0}, "T": {"type": "DT_FLOAT"}, "explicit_paddings": {"list": {}}, "dilations": {"list": {"i": ["1", "1", "1", "1"]}}}}, {"name": "PartitionedCall/transpose_125", "op": "Transpose", "input": ["PartitionedCall/Add_41", "PartitionedCall/transpose_125/perm"], "attr": {"Tperm": {"type": "DT_INT32"}, "T": {"type": "DT_FLOAT"}}}, {"name": "PartitionedCall/onnx_tf_prefix_/blocks/blocks.8/swish/Sigmoid", "op": "Sigmoid", "input": ["PartitionedCall/transpose_125"], "attr": {"T": {"type": "DT_FLOAT"}}}, {"name": "PartitionedCall/onnx_tf_prefix_/blocks/blocks.8/swish/Mul", "op": "Mul", "input": ["PartitionedCall/transpose_125", "PartitionedCall/onnx_tf_prefix_/blocks/blocks.8/swish/Sigmoid"], "attr": {"T": {"type": "DT_FLOAT"}}}, {"name": "PartitionedCall/Pad_9", "op": "Pad", "input": ["PartitionedCall/onnx_tf_prefix_/blocks/blocks.8/swish/Mul", "PartitionedCall/Const_9"], "attr": {"Tpaddings": {"type": "DT_INT32"}, "T": {"type": "DT_FLOAT"}}}, {"name": "PartitionedCall/transpose_127", "op": "Transpose", "input": ["PartitionedCall/Pad_9", "PartitionedCall/transpose_127/perm"], "attr": {"Tperm": {"type": "DT_INT32"}, "T": {"type": "DT_FLOAT"}}}, {"name": "PartitionedCall/depthwise_8", "op": "FusedDepthwiseConv2dNative", "input": ["PartitionedCall/transpose_127", "PartitionedCall/Reshape_8", "unknown_84"], "attr": {"padding": {"s": "VkFMSUQ="}, "data_format": {"s": "TkhXQw=="}, "strides": {"list": {"i": ["1", "1", "1", "1"]}}, "num_args": {"i": "1"}, "fused_ops": {"list": {"s": ["Qmlhc0FkZA=="]}}, "T": {"type": "DT_FLOAT"}, "explicit_paddings": {"list": {}}, "dilations": {"list": {"i": ["1", "1", "1", "1"]}}}}, {"name": "PartitionedCall/transpose_128", "op": "Transpose", "input": ["PartitionedCall/depthwise_8", "PartitionedCall/transpose_128/perm"], "attr": {"Tperm": {"type": "DT_INT32"}, "T": {"type": "DT_FLOAT"}}}, {"name": "PartitionedCall/onnx_tf_prefix_/blocks/blocks.8/swish_1/Sigmoid", "op": "Sigmoid", "input": ["PartitionedCall/transpose_128"], "attr": {"T": {"type": "DT_FLOAT"}}}, {"name": "PartitionedCall/onnx_tf_prefix_/blocks/blocks.8/swish_1/Mul", "op": "Mul", "input": ["PartitionedCall/transpose_128", "PartitionedCall/onnx_tf_prefix_/blocks/blocks.8/swish_1/Sigmoid"], "attr": {"T": {"type": "DT_FLOAT"}}}, {"name": "PartitionedCall/Mean_8", "op": "Mean", "input": ["PartitionedCall/onnx_tf_prefix_/blocks/blocks.8/swish_1/Mul", "ConstantFolding/PartitionedCall/split_42-folded-1"], "attr": {"Tidx": {"type": "DT_INT32"}, "T": {"type": "DT_FLOAT"}, "keep_dims": {"b": true}}}, {"name": "PartitionedCall/transpose_130", "op": "Transpose", "input": ["PartitionedCall/Mean_8", "PartitionedCall/transpose_130/perm"], "attr": {"Tperm": {"type": "DT_INT32"}, "T": {"type": "DT_FLOAT"}}}, {"name": "PartitionedCall/Add_43", "op": "_FusedConv2D", "input": ["PartitionedCall/transpose_130", "PartitionedCall/split_43", "unknown_86"], "device": "/device:CPU:0", "attr": {"num_host_args": {"i": "0"}, "data_format": {"s": "TkhXQw=="}, "filter_format": {"s": "SFdJTw=="}, "strides": {"list": {"i": ["1", "1", "1", "1"]}}, "num_args": {"i": "1"}, "fused_ops": {"list": {"s": ["Qmlhc0FkZA=="]}}, "TArgs": {"list": {"type": ["DT_FLOAT"]}}, "padding": {"s": "VkFMSUQ="}, "use_cudnn_on_gpu": {"b": true}, "leakyrelu_alpha": {"f": 0.2}, "epsilon": {"f": 0.0}, "T": {"type": "DT_FLOAT"}, "explicit_paddings": {"list": {}}, "dilations": {"list": {"i": ["1", "1", "1", "1"]}}}}, {"name": "PartitionedCall/transpose_131", "op": "Transpose", "input": ["PartitionedCall/Add_43", "PartitionedCall/transpose_131/perm"], "attr": {"Tperm": {"type": "DT_INT32"}, "T": {"type": "DT_FLOAT"}}}, {"name": "PartitionedCall/onnx_tf_prefix_/blocks/blocks.8/se/Relu", "op": "Relu", "input": ["PartitionedCall/transpose_131"], "attr": {"T": {"type": "DT_FLOAT"}}}, {"name": "PartitionedCall/transpose_133", "op": "Transpose", "input": ["PartitionedCall/onnx_tf_prefix_/blocks/blocks.8/se/Relu", "PartitionedCall/transpose_133/perm"], "attr": {"Tperm": {"type": "DT_INT32"}, "T": {"type": "DT_FLOAT"}}}, {"name": "PartitionedCall/Add_44", "op": "_FusedConv2D", "input": ["PartitionedCall/transpose_133", "PartitionedCall/split_44", "unknown_88"], "device": "/device:CPU:0", "attr": {"num_host_args": {"i": "0"}, "data_format": {"s": "TkhXQw=="}, "filter_format": {"s": "SFdJTw=="}, "strides": {"list": {"i": ["1", "1", "1", "1"]}}, "num_args": {"i": "1"}, "fused_ops": {"list": {"s": ["Qmlhc0FkZA=="]}}, "TArgs": {"list": {"type": ["DT_FLOAT"]}}, "padding": {"s": "VkFMSUQ="}, "use_cudnn_on_gpu": {"b": true}, "leakyrelu_alpha": {"f": 0.2}, "epsilon": {"f": 0.0}, "T": {"type": "DT_FLOAT"}, "explicit_paddings": {"list": {}}, "dilations": {"list": {"i": ["1", "1", "1", "1"]}}}}, {"name": "PartitionedCall/transpose_134", "op": "Transpose", "input": ["PartitionedCall/Add_44", "PartitionedCall/transpose_134/perm"], "attr": {"Tperm": {"type": "DT_INT32"}, "T": {"type": "DT_FLOAT"}}}, {"name": "PartitionedCall/onnx_tf_prefix_/blocks/blocks.8/se/Sigmoid", "op": "Sigmoid", "input": ["PartitionedCall/transpose_134"], "attr": {"T": {"type": "DT_FLOAT"}}}, {"name": "PartitionedCall/onnx_tf_prefix_/blocks/blocks.8/se/Mul", "op": "Mul", "input": ["PartitionedCall/onnx_tf_prefix_/blocks/blocks.8/swish_1/Mul", "PartitionedCall/onnx_tf_prefix_/blocks/blocks.8/se/Sigmoid"], "attr": {"T": {"type": "DT_FLOAT"}}}, {"name": "PartitionedCall/transpose_136", "op": "Transpose", "input": ["PartitionedCall/onnx_tf_prefix_/blocks/blocks.8/se/Mul", "PartitionedCall/transpose_136/perm"], "attr": {"Tperm": {"type": "DT_INT32"}, "T": {"type": "DT_FLOAT"}}}, {"name": "PartitionedCall/Add_45", "op": "_FusedConv2D", "input": ["PartitionedCall/transpose_136", "PartitionedCall/split_45", "unknown_90"], "device": "/device:CPU:0", "attr": {"num_host_args": {"i": "0"}, "data_format": {"s": "TkhXQw=="}, "filter_format": {"s": "SFdJTw=="}, "strides": {"list": {"i": ["1", "1", "1", "1"]}}, "num_args": {"i": "1"}, "fused_ops": {"list": {"s": ["Qmlhc0FkZA=="]}}, "TArgs": {"list": {"type": ["DT_FLOAT"]}}, "padding": {"s": "VkFMSUQ="}, "use_cudnn_on_gpu": {"b": true}, "leakyrelu_alpha": {"f": 0.2}, "epsilon": {"f": 0.0}, "T": {"type": "DT_FLOAT"}, "explicit_paddings": {"list": {}}, "dilations": {"list": {"i": ["1", "1", "1", "1"]}}}}, {"name": "PartitionedCall/Add_46", "op": "_FusedConv2D", "input": ["PartitionedCall/Add_45", "PartitionedCall/split_46", "unknown_92"], "device": "/device:CPU:0", "attr": {"num_host_args": {"i": "0"}, "data_format": {"s": "TkhXQw=="}, "filter_format": {"s": "SFdJTw=="}, "strides": {"list": {"i": ["1", "1", "1", "1"]}}, "num_args": {"i": "1"}, "fused_ops": {"list": {"s": ["Qmlhc0FkZA=="]}}, "TArgs": {"list": {"type": ["DT_FLOAT"]}}, "padding": {"s": "VkFMSUQ="}, "use_cudnn_on_gpu": {"b": true}, "leakyrelu_alpha": {"f": 0.2}, "epsilon": {"f": 0.0}, "T": {"type": "DT_FLOAT"}, "explicit_paddings": {"list": {}}, "dilations": {"list": {"i": ["1", "1", "1", "1"]}}}}, {"name": "PartitionedCall/transpose_137", "op": "Transpose", "input": ["PartitionedCall/Add_45", "PartitionedCall/transpose_137/perm"], "attr": {"Tperm": {"type": "DT_INT32"}, "T": {"type": "DT_FLOAT"}}}, {"name": "PartitionedCall/transpose_140", "op": "Transpose", "input": ["PartitionedCall/Add_46", "PartitionedCall/transpose_140/perm"], "attr": {"Tperm": {"type": "DT_INT32"}, "T": {"type": "DT_FLOAT"}}}, {"name": "PartitionedCall/onnx_tf_prefix_/blocks/blocks.9/swish/Sigmoid", "op": "Sigmoid", "input": ["PartitionedCall/transpose_140"], "attr": {"T": {"type": "DT_FLOAT"}}}, {"name": "PartitionedCall/onnx_tf_prefix_/blocks/blocks.9/swish/Mul", "op": "Mul", "input": ["PartitionedCall/transpose_140", "PartitionedCall/onnx_tf_prefix_/blocks/blocks.9/swish/Sigmoid"], "attr": {"T": {"type": "DT_FLOAT"}}}, {"name": "PartitionedCall/Pad_10", "op": "Pad", "input": ["PartitionedCall/onnx_tf_prefix_/blocks/blocks.9/swish/Mul", "PartitionedCall/Const_10"], "attr": {"Tpaddings": {"type": "DT_INT32"}, "T": {"type": "DT_FLOAT"}}}, {"name": "PartitionedCall/transpose_142", "op": "Transpose", "input": ["PartitionedCall/Pad_10", "PartitionedCall/transpose_142/perm"], "attr": {"Tperm": {"type": "DT_INT32"}, "T": {"type": "DT_FLOAT"}}}, {"name": "PartitionedCall/depthwise_9", "op": "FusedDepthwiseConv2dNative", "input": ["PartitionedCall/transpose_142", "PartitionedCall/Reshape_9", "unknown_94"], "attr": {"padding": {"s": "VkFMSUQ="}, "data_format": {"s": "TkhXQw=="}, "strides": {"list": {"i": ["1", "1", "1", "1"]}}, "num_args": {"i": "1"}, "fused_ops": {"list": {"s": ["Qmlhc0FkZA=="]}}, "T": {"type": "DT_FLOAT"}, "explicit_paddings": {"list": {}}, "dilations": {"list": {"i": ["1", "1", "1", "1"]}}}}, {"name": "PartitionedCall/transpose_143", "op": "Transpose", "input": ["PartitionedCall/depthwise_9", "PartitionedCall/transpose_143/perm"], "attr": {"Tperm": {"type": "DT_INT32"}, "T": {"type": "DT_FLOAT"}}}, {"name": "PartitionedCall/onnx_tf_prefix_/blocks/blocks.9/swish_1/Sigmoid", "op": "Sigmoid", "input": ["PartitionedCall/transpose_143"], "attr": {"T": {"type": "DT_FLOAT"}}}, {"name": "PartitionedCall/onnx_tf_prefix_/blocks/blocks.9/swish_1/Mul", "op": "Mul", "input": ["PartitionedCall/transpose_143", "PartitionedCall/onnx_tf_prefix_/blocks/blocks.9/swish_1/Sigmoid"], "attr": {"T": {"type": "DT_FLOAT"}}}, {"name": "PartitionedCall/Mean_9", "op": "Mean", "input": ["PartitionedCall/onnx_tf_prefix_/blocks/blocks.9/swish_1/Mul", "ConstantFolding/PartitionedCall/split_47-folded-1"], "attr": {"T": {"type": "DT_FLOAT"}, "Tidx": {"type": "DT_INT32"}, "keep_dims": {"b": true}}}, {"name": "PartitionedCall/transpose_145", "op": "Transpose", "input": ["PartitionedCall/Mean_9", "PartitionedCall/transpose_145/perm"], "attr": {"Tperm": {"type": "DT_INT32"}, "T": {"type": "DT_FLOAT"}}}, {"name": "PartitionedCall/Add_48", "op": "_FusedConv2D", "input": ["PartitionedCall/transpose_145", "PartitionedCall/split_48", "unknown_96"], "device": "/device:CPU:0", "attr": {"num_host_args": {"i": "0"}, "data_format": {"s": "TkhXQw=="}, "filter_format": {"s": "SFdJTw=="}, "strides": {"list": {"i": ["1", "1", "1", "1"]}}, "num_args": {"i": "1"}, "fused_ops": {"list": {"s": ["Qmlhc0FkZA=="]}}, "TArgs": {"list": {"type": ["DT_FLOAT"]}}, "padding": {"s": "VkFMSUQ="}, "use_cudnn_on_gpu": {"b": true}, "leakyrelu_alpha": {"f": 0.2}, "epsilon": {"f": 0.0}, "T": {"type": "DT_FLOAT"}, "explicit_paddings": {"list": {}}, "dilations": {"list": {"i": ["1", "1", "1", "1"]}}}}, {"name": "PartitionedCall/transpose_146", "op": "Transpose", "input": ["PartitionedCall/Add_48", "PartitionedCall/transpose_146/perm"], "attr": {"Tperm": {"type": "DT_INT32"}, "T": {"type": "DT_FLOAT"}}}, {"name": "PartitionedCall/onnx_tf_prefix_/blocks/blocks.9/se/Relu", "op": "Relu", "input": ["PartitionedCall/transpose_146"], "attr": {"T": {"type": "DT_FLOAT"}}}, {"name": "PartitionedCall/transpose_148", "op": "Transpose", "input": ["PartitionedCall/onnx_tf_prefix_/blocks/blocks.9/se/Relu", "PartitionedCall/transpose_148/perm"], "attr": {"Tperm": {"type": "DT_INT32"}, "T": {"type": "DT_FLOAT"}}}, {"name": "PartitionedCall/Add_49", "op": "_FusedConv2D", "input": ["PartitionedCall/transpose_148", "PartitionedCall/split_49", "unknown_98"], "device": "/device:CPU:0", "attr": {"num_host_args": {"i": "0"}, "data_format": {"s": "TkhXQw=="}, "filter_format": {"s": "SFdJTw=="}, "fused_ops": {"list": {"s": ["Qmlhc0FkZA=="]}}, "num_args": {"i": "1"}, "strides": {"list": {"i": ["1", "1", "1", "1"]}}, "TArgs": {"list": {"type": ["DT_FLOAT"]}}, "padding": {"s": "VkFMSUQ="}, "use_cudnn_on_gpu": {"b": true}, "leakyrelu_alpha": {"f": 0.2}, "epsilon": {"f": 0.0}, "T": {"type": "DT_FLOAT"}, "explicit_paddings": {"list": {}}, "dilations": {"list": {"i": ["1", "1", "1", "1"]}}}}, {"name": "PartitionedCall/transpose_149", "op": "Transpose", "input": ["PartitionedCall/Add_49", "PartitionedCall/transpose_149/perm"], "attr": {"Tperm": {"type": "DT_INT32"}, "T": {"type": "DT_FLOAT"}}}, {"name": "PartitionedCall/onnx_tf_prefix_/blocks/blocks.9/se/Sigmoid", "op": "Sigmoid", "input": ["PartitionedCall/transpose_149"], "attr": {"T": {"type": "DT_FLOAT"}}}, {"name": "PartitionedCall/onnx_tf_prefix_/blocks/blocks.9/se/Mul", "op": "Mul", "input": ["PartitionedCall/onnx_tf_prefix_/blocks/blocks.9/swish_1/Mul", "PartitionedCall/onnx_tf_prefix_/blocks/blocks.9/se/Sigmoid"], "attr": {"T": {"type": "DT_FLOAT"}}}, {"name": "PartitionedCall/transpose_151", "op": "Transpose", "input": ["PartitionedCall/onnx_tf_prefix_/blocks/blocks.9/se/Mul", "PartitionedCall/transpose_151/perm"], "attr": {"Tperm": {"type": "DT_INT32"}, "T": {"type": "DT_FLOAT"}}}, {"name": "PartitionedCall/Add_50", "op": "_FusedConv2D", "input": ["PartitionedCall/transpose_151", "PartitionedCall/split_50", "unknown_100"], "device": "/device:CPU:0", "attr": {"num_host_args": {"i": "0"}, "data_format": {"s": "TkhXQw=="}, "filter_format": {"s": "SFdJTw=="}, "fused_ops": {"list": {"s": ["Qmlhc0FkZA=="]}}, "num_args": {"i": "1"}, "strides": {"list": {"i": ["1", "1", "1", "1"]}}, "TArgs": {"list": {"type": ["DT_FLOAT"]}}, "padding": {"s": "VkFMSUQ="}, "use_cudnn_on_gpu": {"b": true}, "leakyrelu_alpha": {"f": 0.2}, "epsilon": {"f": 0.0}, "T": {"type": "DT_FLOAT"}, "explicit_paddings": {"list": {}}, "dilations": {"list": {"i": ["1", "1", "1", "1"]}}}}, {"name": "PartitionedCall/transpose_152", "op": "Transpose", "input": ["PartitionedCall/Add_50", "PartitionedCall/transpose_152/perm"], "attr": {"Tperm": {"type": "DT_INT32"}, "T": {"type": "DT_FLOAT"}}}, {"name": "PartitionedCall/onnx_tf_prefix_/blocks/blocks.9/Add", "op": "AddV2", "input": ["PartitionedCall/transpose_152", "PartitionedCall/transpose_137"], "attr": {"T": {"type": "DT_FLOAT"}}}, {"name": "PartitionedCall/transpose_154", "op": "Transpose", "input": ["PartitionedCall/onnx_tf_prefix_/blocks/blocks.9/Add", "PartitionedCall/transpose_154/perm"], "attr": {"Tperm": {"type": "DT_INT32"}, "T": {"type": "DT_FLOAT"}}}, {"name": "PartitionedCall/Add_51", "op": "_FusedConv2D", "input": ["PartitionedCall/transpose_154", "PartitionedCall/split_51", "unknown_102"], "device": "/device:CPU:0", "attr": {"num_host_args": {"i": "0"}, "data_format": {"s": "TkhXQw=="}, "filter_format": {"s": "SFdJTw=="}, "fused_ops": {"list": {"s": ["Qmlhc0FkZA=="]}}, "num_args": {"i": "1"}, "strides": {"list": {"i": ["1", "1", "1", "1"]}}, "TArgs": {"list": {"type": ["DT_FLOAT"]}}, "padding": {"s": "VkFMSUQ="}, "use_cudnn_on_gpu": {"b": true}, "leakyrelu_alpha": {"f": 0.2}, "epsilon": {"f": 0.0}, "T": {"type": "DT_FLOAT"}, "explicit_paddings": {"list": {}}, "dilations": {"list": {"i": ["1", "1", "1", "1"]}}}}, {"name": "PartitionedCall/transpose_155", "op": "Transpose", "input": ["PartitionedCall/Add_51", "PartitionedCall/transpose_155/perm"], "attr": {"Tperm": {"type": "DT_INT32"}, "T": {"type": "DT_FLOAT"}}}, {"name": "PartitionedCall/onnx_tf_prefix_/blocks/blocks.10/swish/Sigmoid", "op": "Sigmoid", "input": ["PartitionedCall/transpose_155"], "attr": {"T": {"type": "DT_FLOAT"}}}, {"name": "PartitionedCall/onnx_tf_prefix_/blocks/blocks.10/swish/Mul", "op": "Mul", "input": ["PartitionedCall/transpose_155", "PartitionedCall/onnx_tf_prefix_/blocks/blocks.10/swish/Sigmoid"], "attr": {"T": {"type": "DT_FLOAT"}}}, {"name": "PartitionedCall/Pad_11", "op": "Pad", "input": ["PartitionedCall/onnx_tf_prefix_/blocks/blocks.10/swish/Mul", "PartitionedCall/Const_11"], "attr": {"Tpaddings": {"type": "DT_INT32"}, "T": {"type": "DT_FLOAT"}}}, {"name": "PartitionedCall/transpose_157", "op": "Transpose", "input": ["PartitionedCall/Pad_11", "PartitionedCall/transpose_157/perm"], "attr": {"Tperm": {"type": "DT_INT32"}, "T": {"type": "DT_FLOAT"}}}, {"name": "PartitionedCall/depthwise_10", "op": "FusedDepthwiseConv2dNative", "input": ["PartitionedCall/transpose_157", "PartitionedCall/Reshape_10", "unknown_104"], "attr": {"padding": {"s": "VkFMSUQ="}, "data_format": {"s": "TkhXQw=="}, "strides": {"list": {"i": ["1", "1", "1", "1"]}}, "num_args": {"i": "1"}, "fused_ops": {"list": {"s": ["Qmlhc0FkZA=="]}}, "T": {"type": "DT_FLOAT"}, "explicit_paddings": {"list": {}}, "dilations": {"list": {"i": ["1", "1", "1", "1"]}}}}, {"name": "PartitionedCall/transpose_158", "op": "Transpose", "input": ["PartitionedCall/depthwise_10", "PartitionedCall/transpose_158/perm"], "attr": {"Tperm": {"type": "DT_INT32"}, "T": {"type": "DT_FLOAT"}}}, {"name": "PartitionedCall/onnx_tf_prefix_/blocks/blocks.10/swish_1/Sigmoid", "op": "Sigmoid", "input": ["PartitionedCall/transpose_158"], "attr": {"T": {"type": "DT_FLOAT"}}}, {"name": "PartitionedCall/onnx_tf_prefix_/blocks/blocks.10/swish_1/Mul", "op": "Mul", "input": ["PartitionedCall/transpose_158", "PartitionedCall/onnx_tf_prefix_/blocks/blocks.10/swish_1/Sigmoid"], "attr": {"T": {"type": "DT_FLOAT"}}}, {"name": "PartitionedCall/Mean_10", "op": "Mean", "input": ["PartitionedCall/onnx_tf_prefix_/blocks/blocks.10/swish_1/Mul", "ConstantFolding/PartitionedCall/split_52-folded-1"], "attr": {"T": {"type": "DT_FLOAT"}, "Tidx": {"type": "DT_INT32"}, "keep_dims": {"b": true}}}, {"name": "PartitionedCall/transpose_160", "op": "Transpose", "input": ["PartitionedCall/Mean_10", "PartitionedCall/transpose_160/perm"], "attr": {"Tperm": {"type": "DT_INT32"}, "T": {"type": "DT_FLOAT"}}}, {"name": "PartitionedCall/Add_53", "op": "_FusedConv2D", "input": ["PartitionedCall/transpose_160", "PartitionedCall/split_53", "unknown_106"], "device": "/device:CPU:0", "attr": {"num_host_args": {"i": "0"}, "data_format": {"s": "TkhXQw=="}, "filter_format": {"s": "SFdJTw=="}, "strides": {"list": {"i": ["1", "1", "1", "1"]}}, "num_args": {"i": "1"}, "fused_ops": {"list": {"s": ["Qmlhc0FkZA=="]}}, "TArgs": {"list": {"type": ["DT_FLOAT"]}}, "padding": {"s": "VkFMSUQ="}, "use_cudnn_on_gpu": {"b": true}, "leakyrelu_alpha": {"f": 0.2}, "epsilon": {"f": 0.0}, "T": {"type": "DT_FLOAT"}, "explicit_paddings": {"list": {}}, "dilations": {"list": {"i": ["1", "1", "1", "1"]}}}}, {"name": "PartitionedCall/transpose_161", "op": "Transpose", "input": ["PartitionedCall/Add_53", "PartitionedCall/transpose_161/perm"], "attr": {"Tperm": {"type": "DT_INT32"}, "T": {"type": "DT_FLOAT"}}}, {"name": "PartitionedCall/onnx_tf_prefix_/blocks/blocks.10/se/Relu", "op": "Relu", "input": ["PartitionedCall/transpose_161"], "attr": {"T": {"type": "DT_FLOAT"}}}, {"name": "PartitionedCall/transpose_163", "op": "Transpose", "input": ["PartitionedCall/onnx_tf_prefix_/blocks/blocks.10/se/Relu", "PartitionedCall/transpose_163/perm"], "attr": {"Tperm": {"type": "DT_INT32"}, "T": {"type": "DT_FLOAT"}}}, {"name": "PartitionedCall/Add_54", "op": "_FusedConv2D", "input": ["PartitionedCall/transpose_163", "PartitionedCall/split_54", "unknown_108"], "device": "/device:CPU:0", "attr": {"num_host_args": {"i": "0"}, "data_format": {"s": "TkhXQw=="}, "filter_format": {"s": "SFdJTw=="}, "strides": {"list": {"i": ["1", "1", "1", "1"]}}, "num_args": {"i": "1"}, "fused_ops": {"list": {"s": ["Qmlhc0FkZA=="]}}, "TArgs": {"list": {"type": ["DT_FLOAT"]}}, "padding": {"s": "VkFMSUQ="}, "use_cudnn_on_gpu": {"b": true…
"Tperm": {"type": "DT_INT32"}, "T": {"type": "DT_FLOAT"}}}, {"name": "PartitionedCall/onnx_tf_prefix_/blocks/blocks.13/se/Sigmoid", "op": "Sigmoid", "input": ["PartitionedCall/transpose_209"], "attr": {"T": {"type": "DT_FLOAT"}}}, {"name": "PartitionedCall/onnx_tf_prefix_/blocks/blocks.13/se/Mul", "op": "Mul", "input": ["PartitionedCall/onnx_tf_prefix_/blocks/blocks.13/swish_1/Mul", "PartitionedCall/onnx_tf_prefix_/blocks/blocks.13/se/Sigmoid"], "attr": {"T": {"type": "DT_FLOAT"}}}, {"name": "PartitionedCall/transpose_211", "op": "Transpose", "input": ["PartitionedCall/onnx_tf_prefix_/blocks/blocks.13/se/Mul", "PartitionedCall/transpose_211/perm"], "attr": {"Tperm": {"type": "DT_INT32"}, "T": {"type": "DT_FLOAT"}}}, {"name": "PartitionedCall/Add_70", "op": "_FusedConv2D", "input": ["PartitionedCall/transpose_211", "PartitionedCall/split_70", "unknown_140"], "device": "/device:CPU:0", "attr": {"num_host_args": {"i": "0"}, "data_format": {"s": "TkhXQw=="}, "filter_format": {"s": "SFdJTw=="}, "strides": {"list": {"i": ["1", "1", "1", "1"]}}, "num_args": {"i": "1"}, "fused_ops": {"list": {"s": ["Qmlhc0FkZA=="]}}, "TArgs": {"list": {"type": ["DT_FLOAT"]}}, "padding": {"s": "VkFMSUQ="}, "use_cudnn_on_gpu": {"b": true}, "leakyrelu_alpha": {"f": 0.2}, "epsilon": {"f": 0.0}, "T": {"type": "DT_FLOAT"}, "explicit_paddings": {"list": {}}, "dilations": {"list": {"i": ["1", "1", "1", "1"]}}}}, {"name": "PartitionedCall/transpose_212", "op": "Transpose", "input": ["PartitionedCall/Add_70", "PartitionedCall/transpose_212/perm"], "attr": {"Tperm": {"type": "DT_INT32"}, "T": {"type": "DT_FLOAT"}}}, {"name": "PartitionedCall/onnx_tf_prefix_/blocks/blocks.13/Add", "op": "AddV2", "input": ["PartitionedCall/transpose_212", "PartitionedCall/onnx_tf_prefix_/blocks/blocks.12/Add"], "attr": {"T": {"type": "DT_FLOAT"}}}, {"name": "PartitionedCall/transpose_214", "op": "Transpose", "input": ["PartitionedCall/onnx_tf_prefix_/blocks/blocks.13/Add", "PartitionedCall/transpose_214/perm"], "attr": {"Tperm": {"type": "DT_INT32"}, "T": {"type": "DT_FLOAT"}}}, {"name": "PartitionedCall/Add_71", "op": "_FusedConv2D", "input": ["PartitionedCall/transpose_214", "PartitionedCall/split_71", "unknown_142"], "device": "/device:CPU:0", "attr": {"num_host_args": {"i": "0"}, "data_format": {"s": "TkhXQw=="}, "filter_format": {"s": "SFdJTw=="}, "strides": {"list": {"i": ["1", "1", "1", "1"]}}, "num_args": {"i": "1"}, "fused_ops": {"list": {"s": ["Qmlhc0FkZA=="]}}, "TArgs": {"list": {"type": ["DT_FLOAT"]}}, "padding": {"s": "VkFMSUQ="}, "use_cudnn_on_gpu": {"b": true}, "leakyrelu_alpha": {"f": 0.2}, "epsilon": {"f": 0.0}, "T": {"type": "DT_FLOAT"}, "explicit_paddings": {"list": {}}, "dilations": {"list": {"i": ["1", "1", "1", "1"]}}}}, {"name": "PartitionedCall/transpose_215", "op": "Transpose", "input": ["PartitionedCall/Add_71", "PartitionedCall/transpose_215/perm"], "attr": {"Tperm": {"type": "DT_INT32"}, "T": {"type": "DT_FLOAT"}}}, {"name": "PartitionedCall/onnx_tf_prefix_/blocks/blocks.14/swish/Sigmoid", "op": "Sigmoid", "input": ["PartitionedCall/transpose_215"], "attr": {"T": {"type": "DT_FLOAT"}}}, {"name": "PartitionedCall/onnx_tf_prefix_/blocks/blocks.14/swish/Mul", "op": "Mul", "input": ["PartitionedCall/transpose_215", "PartitionedCall/onnx_tf_prefix_/blocks/blocks.14/swish/Sigmoid"], "attr": {"T": {"type": "DT_FLOAT"}}}, {"name": "PartitionedCall/Pad_15", "op": "Pad", "input": ["PartitionedCall/onnx_tf_prefix_/blocks/blocks.14/swish/Mul", "PartitionedCall/Const_15"], "attr": {"Tpaddings": {"type": "DT_INT32"}, "T": {"type": "DT_FLOAT"}}}, {"name": "PartitionedCall/transpose_217", "op": "Transpose", "input": ["PartitionedCall/Pad_15", "PartitionedCall/transpose_217/perm"], "attr": {"Tperm": {"type": "DT_INT32"}, "T": {"type": "DT_FLOAT"}}}, {"name": "PartitionedCall/depthwise_14", "op": "FusedDepthwiseConv2dNative", "input": ["PartitionedCall/transpose_217", "PartitionedCall/Reshape_14", "unknown_144"], "attr": {"padding": {"s": "VkFMSUQ="}, "data_format": {"s": "TkhXQw=="}, "strides": {"list": {"i": ["1", "1", "1", "1"]}}, "num_args": {"i": "1"}, "fused_ops": {"list": {"s": ["Qmlhc0FkZA=="]}}, "T": {"type": "DT_FLOAT"}, "explicit_paddings": {"list": {}}, "dilations": {"list": {"i": ["1", "1", "1", "1"]}}}}, {"name": "PartitionedCall/transpose_218", "op": "Transpose", "input": ["PartitionedCall/depthwise_14", "PartitionedCall/transpose_218/perm"], "attr": {"Tperm": {"type": "DT_INT32"}, "T": {"type": "DT_FLOAT"}}}, {"name": "PartitionedCall/onnx_tf_prefix_/blocks/blocks.14/swish_1/Sigmoid", "op": "Sigmoid", "input": ["PartitionedCall/transpose_218"], "attr": {"T": {"type": "DT_FLOAT"}}}, {"name": "PartitionedCall/onnx_tf_prefix_/blocks/blocks.14/swish_1/Mul", "op": "Mul", "input": ["PartitionedCall/transpose_218", "PartitionedCall/onnx_tf_prefix_/blocks/blocks.14/swish_1/Sigmoid"], "attr": {"T": {"type": "DT_FLOAT"}}}, {"name": "PartitionedCall/Mean_14", "op": "Mean", "input": ["PartitionedCall/onnx_tf_prefix_/blocks/blocks.14/swish_1/Mul", "ConstantFolding/PartitionedCall/split_72-folded-1"], "attr": {"Tidx": {"type": "DT_INT32"}, "T": {"type": "DT_FLOAT"}, "keep_dims": {"b": true}}}, {"name": "PartitionedCall/transpose_220", "op": "Transpose", "input": ["PartitionedCall/Mean_14", "PartitionedCall/transpose_220/perm"], "attr": {"Tperm": {"type": "DT_INT32"}, "T": {"type": "DT_FLOAT"}}}, {"name": "PartitionedCall/Add_73", "op": "_FusedConv2D", "input": ["PartitionedCall/transpose_220", "PartitionedCall/split_73", "unknown_146"], "device": "/device:CPU:0", "attr": {"num_host_args": {"i": "0"}, "data_format": {"s": "TkhXQw=="}, "filter_format": {"s": "SFdJTw=="}, "strides": {"list": {"i": ["1", "1", "1", "1"]}}, "num_args": {"i": "1"}, "fused_ops": {"list": {"s": ["Qmlhc0FkZA=="]}}, "TArgs": {"list": {"type": ["DT_FLOAT"]}}, "padding": {"s": "VkFMSUQ="}, "use_cudnn_on_gpu": {"b": true}, "leakyrelu_alpha": {"f": 0.2}, "epsilon": {"f": 0.0}, "T": {"type": "DT_FLOAT"}, "explicit_paddings": {"list": {}}, "dilations": {"list": {"i": ["1", "1", "1", "1"]}}}}, {"name": "PartitionedCall/transpose_221", "op": "Transpose", "input": ["PartitionedCall/Add_73", "PartitionedCall/transpose_221/perm"], "attr": {"Tperm": {"type": "DT_INT32"}, "T": {"type": "DT_FLOAT"}}}, {"name": "PartitionedCall/onnx_tf_prefix_/blocks/blocks.14/se/Relu", "op": "Relu", "input": ["PartitionedCall/transpose_221"], "attr": {"T": {"type": "DT_FLOAT"}}}, {"name": "PartitionedCall/transpose_223", "op": "Transpose", "input": ["PartitionedCall/onnx_tf_prefix_/blocks/blocks.14/se/Relu", "PartitionedCall/transpose_223/perm"], "attr": {"Tperm": {"type": "DT_INT32"}, "T": {"type": "DT_FLOAT"}}}, {"name": "PartitionedCall/Add_74", "op": "_FusedConv2D", "input": ["PartitionedCall/transpose_223", "PartitionedCall/split_74", "unknown_148"], "device": "/device:CPU:0", "attr": {"num_host_args": {"i": "0"}, "data_format": {"s": "TkhXQw=="}, "filter_format": {"s": "SFdJTw=="}, "fused_ops": {"list": {"s": ["Qmlhc0FkZA=="]}}, "num_args": {"i": "1"}, "strides": {"list": {"i": ["1", "1", "1", "1"]}}, "TArgs": {"list": {"type": ["DT_FLOAT"]}}, "padding": {"s": "VkFMSUQ="}, "use_cudnn_on_gpu": {"b": true}, "leakyrelu_alpha": {"f": 0.2}, "epsilon": {"f": 0.0}, "T": {"type": "DT_FLOAT"}, "explicit_paddings": {"list": {}}, "dilations": {"list": {"i": ["1", "1", "1", "1"]}}}}, {"name": "PartitionedCall/transpose_224", "op": "Transpose", "input": ["PartitionedCall/Add_74", "PartitionedCall/transpose_224/perm"], "attr": {"Tperm": {"type": "DT_INT32"}, "T": {"type": "DT_FLOAT"}}}, {"name": "PartitionedCall/onnx_tf_prefix_/blocks/blocks.14/se/Sigmoid", "op": "Sigmoid", "input": ["PartitionedCall/transpose_224"], "attr": {"T": {"type": "DT_FLOAT"}}}, {"name": "PartitionedCall/onnx_tf_prefix_/blocks/blocks.14/se/Mul", "op": "Mul", "input": ["PartitionedCall/onnx_tf_prefix_/blocks/blocks.14/swish_1/Mul", "PartitionedCall/onnx_tf_prefix_/blocks/blocks.14/se/Sigmoid"], "attr": {"T": {"type": "DT_FLOAT"}}}, {"name": "PartitionedCall/transpose_226", "op": "Transpose", "input": ["PartitionedCall/onnx_tf_prefix_/blocks/blocks.14/se/Mul", "PartitionedCall/transpose_226/perm"], "attr": {"Tperm": {"type": "DT_INT32"}, "T": {"type": "DT_FLOAT"}}}, {"name": "PartitionedCall/Add_75", "op": "_FusedConv2D", "input": ["PartitionedCall/transpose_226", "PartitionedCall/split_75", "unknown_150"], "device": "/device:CPU:0", "attr": {"num_host_args": {"i": "0"}, "data_format": {"s": "TkhXQw=="}, "filter_format": {"s": "SFdJTw=="}, "strides": {"list": {"i": ["1", "1", "1", "1"]}}, "num_args": {"i": "1"}, "fused_ops": {"list": {"s": ["Qmlhc0FkZA=="]}}, "TArgs": {"list": {"type": ["DT_FLOAT"]}}, "padding": {"s": "VkFMSUQ="}, "use_cudnn_on_gpu": {"b": true}, "leakyrelu_alpha": {"f": 0.2}, "epsilon": {"f": 0.0}, "T": {"type": "DT_FLOAT"}, "explicit_paddings": {"list": {}}, "dilations": {"list": {"i": ["1", "1", "1", "1"]}}}}, {"name": "PartitionedCall/transpose_227", "op": "Transpose", "input": ["PartitionedCall/Add_75", "PartitionedCall/transpose_227/perm"], "attr": {"Tperm": {"type": "DT_INT32"}, "T": {"type": "DT_FLOAT"}}}, {"name": "PartitionedCall/onnx_tf_prefix_/blocks/blocks.14/Add", "op": "AddV2", "input": ["PartitionedCall/transpose_227", "PartitionedCall/onnx_tf_prefix_/blocks/blocks.13/Add"], "attr": {"T": {"type": "DT_FLOAT"}}}, {"name": "PartitionedCall/transpose_229", "op": "Transpose", "input": ["PartitionedCall/onnx_tf_prefix_/blocks/blocks.14/Add", "PartitionedCall/transpose_229/perm"], "attr": {"Tperm": {"type": "DT_INT32"}, "T": {"type": "DT_FLOAT"}}}, {"name": "PartitionedCall/Add_76", "op": "_FusedConv2D", "input": ["PartitionedCall/transpose_229", "PartitionedCall/split_76", "unknown_152"], "device": "/device:CPU:0", "attr": {"num_host_args": {"i": "0"}, "data_format": {"s": "TkhXQw=="}, "filter_format": {"s": "SFdJTw=="}, "strides": {"list": {"i": ["1", "1", "1", "1"]}}, "num_args": {"i": "1"}, "fused_ops": {"list": {"s": ["Qmlhc0FkZA=="]}}, "TArgs": {"list": {"type": ["DT_FLOAT"]}}, "padding": {"s": "VkFMSUQ="}, "use_cudnn_on_gpu": {"b": true}, "leakyrelu_alpha": {"f": 0.2}, "epsilon": {"f": 0.0}, "T": {"type": "DT_FLOAT"}, "explicit_paddings": {"list": {}}, "dilations": {"list": {"i": ["1", "1", "1", "1"]}}}}, {"name": "PartitionedCall/transpose_230", "op": "Transpose", "input": ["PartitionedCall/Add_76", "PartitionedCall/transpose_230/perm"], "attr": {"Tperm": {"type": "DT_INT32"}, "T": {"type": "DT_FLOAT"}}}, {"name": "PartitionedCall/onnx_tf_prefix_/blocks/blocks.15/swish/Sigmoid", "op": "Sigmoid", "input": ["PartitionedCall/transpose_230"], "attr": {"T": {"type": "DT_FLOAT"}}}, {"name": "PartitionedCall/onnx_tf_prefix_/blocks/blocks.15/swish/Mul", "op": "Mul", "input": ["PartitionedCall/transpose_230", "PartitionedCall/onnx_tf_prefix_/blocks/blocks.15/swish/Sigmoid"], "attr": {"T": {"type": "DT_FLOAT"}}}, {"name": "PartitionedCall/Pad_16", "op": "Pad", "input": ["PartitionedCall/onnx_tf_prefix_/blocks/blocks.15/swish/Mul", "PartitionedCall/Const_16"], "attr": {"Tpaddings": {"type": "DT_INT32"}, "T": {"type": "DT_FLOAT"}}}, {"name": "PartitionedCall/transpose_232", "op": "Transpose", "input": ["PartitionedCall/Pad_16", "PartitionedCall/transpose_232/perm"], "attr": {"Tperm": {"type": "DT_INT32"}, "T": {"type": "DT_FLOAT"}}}, {"name": "PartitionedCall/depthwise_15", "op": "FusedDepthwiseConv2dNative", "input": ["PartitionedCall/transpose_232", "PartitionedCall/Reshape_15", "unknown_154"], "attr": {"padding": {"s": "VkFMSUQ="}, "data_format": {"s": "TkhXQw=="}, "strides": {"list": {"i": ["1", "1", "1", "1"]}}, "num_args": {"i": "1"}, "fused_ops": {"list": {"s": ["Qmlhc0FkZA=="]}}, "T": {"type": "DT_FLOAT"}, "explicit_paddings": {"list": {}}, "dilations": {"list": {"i": ["1", "1", "1", "1"]}}}}, {"name": "PartitionedCall/transpose_233", "op": "Transpose", "input": ["PartitionedCall/depthwise_15", "PartitionedCall/transpose_233/perm"], "attr": {"Tperm": {"type": "DT_INT32"}, "T": {"type": "DT_FLOAT"}}}, {"name": "PartitionedCall/onnx_tf_prefix_/blocks/blocks.15/swish_1/Sigmoid", "op": "Sigmoid", "input": ["PartitionedCall/transpose_233"], "attr": {"T": {"type": "DT_FLOAT"}}}, {"name": "PartitionedCall/onnx_tf_prefix_/blocks/blocks.15/swish_1/Mul", "op": "Mul", "input": ["PartitionedCall/transpose_233", "PartitionedCall/onnx_tf_prefix_/blocks/blocks.15/swish_1/Sigmoid"], "attr": {"T": {"type": "DT_FLOAT"}}}, {"name": "PartitionedCall/Mean_15", "op": "Mean", "input": ["PartitionedCall/onnx_tf_prefix_/blocks/blocks.15/swish_1/Mul", "ConstantFolding/PartitionedCall/split_77-folded-1"], "attr": {"Tidx": {"type": "DT_INT32"}, "T": {"type": "DT_FLOAT"}, "keep_dims": {"b": true}}}, {"name": "PartitionedCall/transpose_235", "op": "Transpose", "input": ["PartitionedCall/Mean_15", "PartitionedCall/transpose_235/perm"], "attr": {"Tperm": {"type": "DT_INT32"}, "T": {"type": "DT_FLOAT"}}}, {"name": "PartitionedCall/Add_78", "op": "_FusedConv2D", "input": ["PartitionedCall/transpose_235", "PartitionedCall/split_78", "unknown_156"], "device": "/device:CPU:0", "attr": {"num_host_args": {"i": "0"}, "data_format": {"s": "TkhXQw=="}, "filter_format": {"s": "SFdJTw=="}, "strides": {"list": {"i": ["1", "1", "1", "1"]}}, "num_args": {"i": "1"}, "fused_ops": {"list": {"s": ["Qmlhc0FkZA=="]}}, "TArgs": {"list": {"type": ["DT_FLOAT"]}}, "padding": {"s": "VkFMSUQ="}, "use_cudnn_on_gpu": {"b": true}, "leakyrelu_alpha": {"f": 0.2}, "epsilon": {"f": 0.0}, "T": {"type": "DT_FLOAT"}, "explicit_paddings": {"list": {}}, "dilations": {"list": {"i": ["1", "1", "1", "1"]}}}}, {"name": "PartitionedCall/transpose_236", "op": "Transpose", "input": ["PartitionedCall/Add_78", "PartitionedCall/transpose_236/perm"], "attr": {"Tperm": {"type": "DT_INT32"}, "T": {"type": "DT_FLOAT"}}}, {"name": "PartitionedCall/onnx_tf_prefix_/blocks/blocks.15/se/Relu", "op": "Relu", "input": ["PartitionedCall/transpose_236"], "attr": {"T": {"type": "DT_FLOAT"}}}, {"name": "PartitionedCall/transpose_238", "op": "Transpose", "input": ["PartitionedCall/onnx_tf_prefix_/blocks/blocks.15/se/Relu", "PartitionedCall/transpose_238/perm"], "attr": {"Tperm": {"type": "DT_INT32"}, "T": {"type": "DT_FLOAT"}}}, {"name": "PartitionedCall/Add_79", "op": "_FusedConv2D", "input": ["PartitionedCall/transpose_238", "PartitionedCall/split_79", "unknown_158"], "device": "/device:CPU:0", "attr": {"num_host_args": {"i": "0"}, "data_format": {"s": "TkhXQw=="}, "filter_format": {"s": "SFdJTw=="}, "strides": {"list": {"i": ["1", "1", "1", "1"]}}, "num_args": {"i": "1"}, "fused_ops": {"list": {"s": ["Qmlhc0FkZA=="]}}, "TArgs": {"list": {"type": ["DT_FLOAT"]}}, "padding": {"s": "VkFMSUQ="}, "use_cudnn_on_gpu": {"b": true}, "leakyrelu_alpha": {"f": 0.2}, "epsilon": {"f": 0.0}, "T": {"type": "DT_FLOAT"}, "explicit_paddings": {"list": {}}, "dilations": {"list": {"i": ["1", "1", "1", "1"]}}}}, {"name": "PartitionedCall/transpose_239", "op": "Transpose", "input": ["PartitionedCall/Add_79", "PartitionedCall/transpose_239/perm"], "attr": {"Tperm": {"type": "DT_INT32"}, "T": {"type": "DT_FLOAT"}}}, {"name": "PartitionedCall/onnx_tf_prefix_/blocks/blocks.15/se/Sigmoid", "op": "Sigmoid", "input": ["PartitionedCall/transpose_239"], "attr": {"T": {"type": "DT_FLOAT"}}}, {"name": "PartitionedCall/onnx_tf_prefix_/blocks/blocks.15/se/Mul", "op": "Mul", "input": ["PartitionedCall/onnx_tf_prefix_/blocks/blocks.15/swish_1/Mul", "PartitionedCall/onnx_tf_prefix_/blocks/blocks.15/se/Sigmoid"], "attr": {"T": {"type": "DT_FLOAT"}}}, {"name": "PartitionedCall/transpose_241", "op": "Transpose", "input": ["PartitionedCall/onnx_tf_prefix_/blocks/blocks.15/se/Mul", "PartitionedCall/transpose_241/perm"], "attr": {"Tperm": {"type": "DT_INT32"}, "T": {"type": "DT_FLOAT"}}}, {"name": "PartitionedCall/Add_80", "op": "_FusedConv2D", "input": ["PartitionedCall/transpose_241", "PartitionedCall/split_80", "unknown_160"], "device": "/device:CPU:0", "attr": {"num_host_args": {"i": "0"}, "data_format": {"s": "TkhXQw=="}, "filter_format": {"s": "SFdJTw=="}, "fused_ops": {"list": {"s": ["Qmlhc0FkZA=="]}}, "num_args": {"i": "1"}, "strides": {"list": {"i": ["1", "1", "1", "1"]}}, "TArgs": {"list": {"type": ["DT_FLOAT"]}}, "padding": {"s": "VkFMSUQ="}, "use_cudnn_on_gpu": {"b": true}, "leakyrelu_alpha": {"f": 0.2}, "epsilon": {"f": 0.0}, "T": {"type": "DT_FLOAT"}, "explicit_paddings": {"list": {}}, "dilations": {"list": {"i": ["1", "1", "1", "1"]}}}}, {"name": "PartitionedCall/Add_81", "op": "_FusedConv2D", "input": ["PartitionedCall/Add_80", "PartitionedCall/split_81", "unknown_162"], "device": "/device:CPU:0", "attr": {"num_host_args": {"i": "0"}, "data_format": {"s": "TkhXQw=="}, "filter_format": {"s": "SFdJTw=="}, "strides": {"list": {"i": ["1", "1", "1", "1"]}}, "num_args": {"i": "1"}, "fused_ops": {"list": {"s": ["Qmlhc0FkZA=="]}}, "TArgs": {"list": {"type": ["DT_FLOAT"]}}, "padding": {"s": "VkFMSUQ="}, "use_cudnn_on_gpu": {"b": true}, "leakyrelu_alpha": {"f": 0.2}, "epsilon": {"f": 0.0}, "T": {"type": "DT_FLOAT"}, "explicit_paddings": {"list": {}}, "dilations": {"list": {"i": ["1", "1", "1", "1"]}}}}, {"name": "PartitionedCall/transpose_245", "op": "Transpose", "input": ["PartitionedCall/Add_81", "PartitionedCall/transpose_245/perm"], "attr": {"Tperm": {"type": "DT_INT32"}, "T": {"type": "DT_FLOAT"}}}, {"name": "PartitionedCall/onnx_tf_prefix_/head/swish/Sigmoid", "op": "Sigmoid", "input": ["PartitionedCall/transpose_245"], "attr": {"T": {"type": "DT_FLOAT"}}}, {"name": "PartitionedCall/onnx_tf_prefix_/head/swish/Mul", "op": "Mul", "input": ["PartitionedCall/transpose_245", "PartitionedCall/onnx_tf_prefix_/head/swish/Sigmoid"], "attr": {"T": {"type": "DT_FLOAT"}}}, {"name": "PartitionedCall/Mean_16", "op": "Mean", "input": ["PartitionedCall/onnx_tf_prefix_/head/swish/Mul", "ConstantFolding/PartitionedCall/split_82-folded-1"], "attr": {"T": {"type": "DT_FLOAT"}, "Tidx": {"type": "DT_INT32"}, "keep_dims": {"b": true}}}, {"name": "PartitionedCall/Shape_82", "op": "Shape", "input": ["PartitionedCall/Mean_16"], "attr": {"T": {"type": "DT_FLOAT"}, "out_type": {"type": "DT_INT32"}}, "experimentalType": {"typeId": "TFT_PRODUCT", "args": [{"typeId": "TFT_SHAPE_TENSOR", "args": [{"typeId": "TFT_INT32"}]}]}}, {"name": "PartitionedCall/strided_slice", "op": "StridedSlice", "input": ["PartitionedCall/Shape_82", "PartitionedCall/strided_slice/stack", "PartitionedCall/strided_slice/stack_1", "PartitionedCall/strided_slice/stack_2"], "attr": {"shrink_axis_mask": {"i": "0"}, "new_axis_mask": {"i": "0"}, "Index": {"type": "DT_INT32"}, "begin_mask": {"i": "0"}, "T": {"type": "DT_INT32"}, "end_mask": {"i": "0"}, "ellipsis_mask": {"i": "0"}}}, {"name": "PartitionedCall/strided_slice_1", "op": "StridedSlice", "input": ["PartitionedCall/Shape_82", "PartitionedCall/strided_slice_1/stack", "PartitionedCall/strided_slice_1/stack_1", "PartitionedCall/strided_slice_1/stack_2"], "attr": {"shrink_axis_mask": {"i": "0"}, "Index": {"type": "DT_INT32"}, "new_axis_mask": {"i": "0"}, "begin_mask": {"i": "0"}, "T": {"type": "DT_INT32"}, "end_mask": {"i": "0"}, "ellipsis_mask": {"i": "0"}}}, {"name": "PartitionedCall/Prod", "op": "Prod", "input": ["PartitionedCall/strided_slice", "PartitionedCall/Const_17"], "attr": {"Tidx": {"type": "DT_INT32"}, "T": {"type": "DT_INT32"}, "keep_dims": {"b": false}}}, {"name": "PartitionedCall/Prod_1", "op": "Prod", "input": ["PartitionedCall/strided_slice_1", "PartitionedCall/Const_19"], "attr": {"T": {"type": "DT_INT32"}, "Tidx": {"type": "DT_INT32"}, "keep_dims": {"b": false}}}, {"name": "PartitionedCall/Reshape_16/shape", "op": "Pack", "input": ["PartitionedCall/Prod", "PartitionedCall/Prod_1"], "attr": {"N": {"i": "2"}, "axis": {"i": "0"}, "T": {"type": "DT_INT32"}}}, {"name": "PartitionedCall/Reshape_16", "op": "Reshape", "input": ["PartitionedCall/Mean_16", "PartitionedCall/Reshape_16/shape"], "attr": {"T": {"type": "DT_FLOAT"}, "Tshape": {"type": "DT_INT32"}}}, {"name": "PartitionedCall/flatten/Shape", "op": "Shape", "input": ["PartitionedCall/Reshape_16"], "attr": {"T": {"type": "DT_FLOAT"}, "out_type": {"type": "DT_INT32"}}, "experimentalType": {"typeId": "TFT_PRODUCT", "args": [{"typeId": "TFT_SHAPE_TENSOR", "args": [{"typeId": "TFT_INT32"}]}]}}, {"name": "PartitionedCall/flatten/strided_slice", "op": "StridedSlice", "input": ["PartitionedCall/flatten/Shape", "PartitionedCall/flatten/strided_slice/stack", "PartitionedCall/flatten/strided_slice/stack_1", "PartitionedCall/flatten/strided_slice/stack_2"], "attr": {"shrink_axis_mask": {"i": "1"}, "Index": {"type": "DT_INT32"}, "new_axis_mask": {"i": "0"}, "begin_mask": {"i": "0"}, "end_mask": {"i": "0"}, "T": {"type": "DT_INT32"}, "ellipsis_mask": {"i": "0"}}}, {"name": "PartitionedCall/flatten/Reshape/shape", "op": "Pack", "input": ["PartitionedCall/flatten/strided_slice", "PartitionedCall/flatten/Reshape/shape/1"], "attr": {"N": {"i": "2"}, "axis": {"i": "0"}, "T": {"type": "DT_INT32"}}}, {"name": "PartitionedCall/flatten/Reshape", "op": "Reshape", "input": ["PartitionedCall/Reshape_16", "PartitionedCall/flatten/Reshape/shape"], "attr": {"T": {"type": "DT_FLOAT"}, "Tshape": {"type": "DT_INT32"}}}, {"name": "PartitionedCall/add_82", "op": "_FusedMatMul", "input": ["PartitionedCall/flatten/Reshape", "PartitionedCall/transpose_246", "PartitionedCall/mul_1"], "device": "/device:CPU:0", "attr": {"transpose_a": {"b": false}, "transpose_b": {"b": false}, "fused_ops": {"list": {"s": ["Qmlhc0FkZA=="]}}, "num_args": {"i": "1"}, "leakyrelu_alpha": {"f": 0.2}, "epsilon": {"f": 0.0}, "T": {"type": "DT_FLOAT"}}}, {"name": "Identity", "op": "Identity", "input": ["PartitionedCall/add_82"], "attr": {"T": {"type": "DT_FLOAT"}}}], "library": {}, "versions": {"producer": 1994}}, "weightsManifest": [{"paths": ["group1-shard1of7.bin", "group1-shard2of7.bin", "group1-shard3of7.bin", "group1-shard4of7.bin", "group1-shard5of7.bin", "group1-shard6of7.bin", "group1-shard7of7.bin"], "weights": [{"name": "PartitionedCall/strided_slice/stack", "shape": [1], "dtype": "int32"}, {"name": "PartitionedCall/strided_slice/stack_1", "shape": [1], "dtype": "int32"}, {"name": "PartitionedCall/strided_slice/stack_2", "shape": [1], "dtype": "int32"}, {"name": "PartitionedCall/Const_17", "shape": [1], "dtype": "int32"}, {"name": "PartitionedCall/transpose_214/perm", "shape": [4], "dtype": "int32"}, {"name": "PartitionedCall/split_71", "shape": [1, 1, 192, 1152], "dtype": "float32"}, {"name": "unknown_142", "shape": [1152], "dtype": "float32"}, {"name": "PartitionedCall/transpose_215/perm", "shape": [4], "dtype": "int32"}, {"name": "PartitionedCall/Const_15", "shape": [4, 2], "dtype": "int32"}, {"name": "PartitionedCall/transpose_217/perm", "shape": [4], "dtype": "int32"}, {"name": "PartitionedCall/Reshape_14", "shape": [5, 5, 1152, 1], "dtype": "float32"}, {"name": "unknown_144", "shape": [1152], "dtype": "float32"}, {"name": "PartitionedCall/transpose_218/perm", "shape": [4], "dtype": "int32"}, {"name": "ConstantFolding/PartitionedCall/split_72-folded-1", "shape": [2], "dtype": "int32"}, {"name": "PartitionedCall/transpose_220/perm", "shape": [4], "dtype": "int32"}, {"name": "PartitionedCall/split_73", "shape": [1, 1, 1152, 288], "dtype": "float32"}, {"name": "unknown_146", "shape": [288], "dtype": "float32"}, {"name": "PartitionedCall/transpose_221/perm", "shape": [4], "dtype": "int32"}, {"name": "PartitionedCall/transpose_223/perm", "shape": [4], "dtype": "int32"}, {"name": "PartitionedCall/split_74", "shape": [1, 1, 288, 1152], "dtype": "float32"}, {"name": "unknown_148", "shape": [1152], "dtype": "float32"}, {"name": "PartitionedCall/transpose_224/perm", "shape": [4], "dtype": "int32"}, {"name": "PartitionedCall/transpose_226/perm", "shape": [4], "dtype": "int32"}, {"name": "PartitionedCall/split_75", "shape": [1, 1, 1152, 192], "dtype": "float32"}, {"name": "unknown_150", "shape": [192], "dtype": "float32"}, {"name": "PartitionedCall/transpose_227/perm", "shape": [4], "dtype": "int32"}, {"name": "PartitionedCall/transpose_199/perm", "shape": [4], "dtype": "int32"}, {"name": "PartitionedCall/split_66", "shape": [1, 1, 192, 1152], "dtype": "float32"}, {"name": "unknown_132", "shape": [1152], "dtype": "float32"}, {"name": "PartitionedCall/transpose_200/perm", "shape": [4], "dtype": "int32"}, {"name": "PartitionedCall/Const_14", "shape": [4, 2], "dtype": "int32"}, {"name": "PartitionedCall/transpose_202/perm", "shape": [4], "dtype": "int32"}, {"name": "PartitionedCall/Reshape_13", "shape": [5, 5, 1152, 1], "dtype": "float32"}, {"name": "unknown_134", "shape": [1152], "dtype": "float32"}, {"name": "PartitionedCall/transpose_203/perm", "shape": [4], "dtype": "int32"}, {"name": "ConstantFolding/PartitionedCall/split_67-folded-1", "shape": [2], "dtype": "int32"}, {"name": "PartitionedCall/transpose_205/perm", "shape": [4], "dtype": "int32"}, {"name": "PartitionedCall/split_68", "shape": [1, 1, 1152, 288], "dtype": "float32"}, {"name": "unknown_136", "shape": [288], "dtype": "float32"}, {"name": "PartitionedCall/transpose_206/perm", "shape": [4], "dtype": "int32"}, {"name": "PartitionedCall/transpose_208/perm", "shape": [4], "dtype": "int32"}, {"name": "PartitionedCall/split_69", "shape": [1, 1, 288, 1152], "dtype": "float32"}, {"name": "unknown_138", "shape": [1152], "dtype": "float32"}, {"name": "PartitionedCall/transpose_209/perm", "shape": [4], "dtype": "int32"}, {"name": "PartitionedCall/transpose_211/perm", "shape": [4], "dtype": "int32"}, {"name": "PartitionedCall/split_70", "shape": [1, 1, 1152, 192], "dtype": "float32"}, {"name": "unknown_140", "shape": [192], "dtype": "float32"}, {"name": "PartitionedCall/transpose_212/perm", "shape": [4], "dtype": "int32"}, {"name": "PartitionedCall/split_61", "shape": [1, 1, 192, 1152], "dtype": "float32"}, {"name": "unknown_122", "shape": [1152], "dtype": "float32"}, {"name": "PartitionedCall/transpose_185/perm", "shape": [4], "dtype": "int32"}, {"name": "PartitionedCall/Const_13", "shape": [4, 2], "dtype": "int32"}, {"name": "PartitionedCall/transpose_187/perm", "shape": [4], "dtype": "int32"}, {"name": "PartitionedCall/Reshape_12", "shape": [5, 5, 1152, 1], "dtype": "float32"}, {"name": "unknown_124", "shape": [1152], "dtype": "float32"}, {"name": "PartitionedCall/transpose_188/perm", "shape": [4], "dtype": "int32"}, {"name": "ConstantFolding/PartitionedCall/split_62-folded-1", "shape": [2], "dtype": "int32"}, {"name": "PartitionedCall/transpose_190/perm", "shape": [4], "dtype": "int32"}, {"name": "PartitionedCall/split_63", "shape": [1, 1, 1152, 288], "dtype": "float32"}, {"name": "unknown_126", "shape": [288], "dtype": "float32"}, {"name": "PartitionedCall/transpose_191/perm", "shape": [4], "dtype": "int32"}, {"name": "PartitionedCall/transpose_193/perm", "shape": [4], "dtype": "int32"}, {"name": "PartitionedCall/split_64", "shape": [1, 1, 288, 1152], "dtype": "float32"}, {"name": "unknown_128", "shape": [1152], "dtype": "float32"}, {"name": "PartitionedCall/transpose_194/perm", "shape": [4], "dtype": "int32"}, {"name": "PartitionedCall/transpose_196/perm", "shape": [4], "dtype": "int32"}, {"name": "PartitionedCall/split_65", "shape": [1, 1, 1152, 192], "dtype": "float32"}, {"name": "unknown_130", "shape": [192], "dtype": "float32"}, {"name": "PartitionedCall/transpose_197/perm", "shape": [4], "dtype": "int32"}, {"name": "PartitionedCall/transpose_154/perm", "shape": [4], "dtype": "int32"}, {"name": "PartitionedCall/split_51", "shape": [1, 1, 112, 672], "dtype": "float32"}, {"name": "unknown_102", "shape": [672], "dtype": "float32"}, {"name": "PartitionedCall/transpose_155/perm", "shape": [4], "dtype": "int32"}, {"name": "PartitionedCall/Const_11", "shape": [4, 2], "dtype": "int32"}, {"name": "PartitionedCall/transpose_157/perm", "shape": [4], "dtype": "int32"}, {"name": "PartitionedCall/Reshape_10", "shape": [5, 5, 672, 1], "dtype": "float32"}, {"name": "unknown_104", "shape": [672], "dtype": "float32"}, {"name": "PartitionedCall/transpose_158/perm", "shape": [4], "dtype": "int32"}, {"name": "ConstantFolding/PartitionedCall/split_52-folded-1", "shape": [2], "dtype": "int32"}, {"name": "PartitionedCall/transpose_160/perm", "shape": [4], "dtype": "int32"}, {"name": "PartitionedCall/split_53", "shape": [1, 1, 672, 168], "dtype": "float32"}, {"name": "unknown_106", "shape": [168], "dtype": "float32"}, {"name": "PartitionedCall/transpose_161/perm", "shape": [4], "dtype": "int32"}, {"name": "PartitionedCall/transpose_163/perm", "shape": [4], "dtype": "int32"}, {"name": "PartitionedCall/split_54", "shape": [1, 1, 168, 672], "dtype": "float32"}, {"name": "unknown_108", "shape": [672], "dtype": "float32"}, {"name": "PartitionedCall/transpose_164/perm", "shape": [4], "dtype": "int32"}, {"name": "PartitionedCall/transpose_166/perm", "shape": [4], "dtype": "int32"}, {"name": "PartitionedCall/split_55", "shape": [1, 1, 672, 112], "dtype": "float32"}, {"name": "unknown_110", "shape": [112], "dtype": "float32"}, {"name": "PartitionedCall/transpose_167/perm", "shape": [4], "dtype": "int32"}, {"name": "PartitionedCall/split_46", "shape": [1, 1, 112, 672], "dtype": "float32"}, {"name": "unknown_92", "shape": [672], "dtype": "float32"}, {"name": "PartitionedCall/transpose_140/perm", "shape": [4], "dtype": "int32"}, {"name": "PartitionedCall/Const_10", "shape": [4, 2], "dtype": "int32"}, {"name": "PartitionedCall/transpose_142/perm", "shape": [4], "dtype": "int32"}, {"name": "PartitionedCall/Reshape_9", "shape": [5, 5, 672, 1], "dtype": "float32"}, {"name": "unknown_94", "shape": [672], "dtype": "float32"}, {"name": "PartitionedCall/transpose_143/perm", "shape": [4], "dtype": "int32"}, {"name": "ConstantFolding/PartitionedCall/split_47-folded-1", "shape": [2], "dtype": "int32"}, {"name": "PartitionedCall/transpose_145/perm", "shape": [4], "dtype": "int32"}, {"name": "PartitionedCall/split_48", "shape": [1, 1, 672, 168], "dtype": "float32"}, {"name": "unknown_96", "shape": [168], "dtype": "float32"}, {"name": "PartitionedCall/transpose_146/perm", "shape": [4], "dtype": "int32"}, {"name": "PartitionedCall/transpose_148/perm", "shape": [4], "dtype": "int32"}, {"name": "PartitionedCall/split_49", "shape": [1, 1, 168, 672], "dtype": "float32"}, {"name": "unknown_98", "shape": [672], "dtype": "float32"}, {"name": "PartitionedCall/transpose_149/perm", "shape": [4], "dtype": "int32"}, {"name": "PartitionedCall/transpose_151/perm", "shape": [4], "dtype": "int32"}, {"name": "PartitionedCall/split_50", "shape": [1, 1, 672, 112], "dtype": "float32"}, {"name": "unknown_100", "shape": [112], "dtype": "float32"}, {"name": "PartitionedCall/transpose_152/perm", "shape": [4], "dtype": "int32"}, {"name": "PartitionedCall/transpose_109/perm", "shape": [4], "dtype": "int32"}, {"name": "PartitionedCall/split_36", "shape": [1, 1, 80, 480], "dtype": "float32"}, {"name": "unknown_72", "shape": [480], "dtype": "float32"}, {"name": "PartitionedCall/transpose_110/perm", "shape": [4], "dtype": "int32"}, {"name": "PartitionedCall/Const_8", "shape": [4, 2], "dtype": "int32"}, {"name": "PartitionedCall/transpose_112/perm", "shape": [4], "dtype": "int32"}, {"name": "PartitionedCall/Reshape_7", "shape": [3, 3, 480, 1], "dtype": "float32"}, {"name": "unknown_74", "shape": [480], "dtype": "float32"}, {"name": "PartitionedCall/transpose_113/perm", "shape": [4], "dtype": "int32"}, {"name": "ConstantFolding/PartitionedCall/split_37-folded-1", "shape": [2], "dtype": "int32"}, {"name": "PartitionedCall/transpose_115/perm", "shape": [4], "dtype": "int32"}, {"name": "PartitionedCall/split_38", "shape": [1, 1, 480, 120], "dtype": "float32"}, {"name": "unknown_76", "shape": [120], "dtype": "float32"}, {"name": "PartitionedCall/transpose_116/perm", "shape": [4], "dtype": "int32"}, {"name": "PartitionedCall/transpose_118/perm", "shape": [4], "dtype": "int32"}, {"name": "PartitionedCall/split_39", "shape": [1, 1, 120, 480], "dtype": "float32"}, {"name": "unknown_78", "shape": [480], "dtype": "float32"}, {"name": "PartitionedCall/transpose_119/perm", "shape": [4], "dtype": "int32"}, {"name": "PartitionedCall/transpose_121/perm", "shape": [4], "dtype": "int32"}, {"name": "PartitionedCall/split_40", "shape": [1, 1, 480, 80], "dtype": "float32"}, {"name": "unknown_80", "shape": [80], "dtype": "float32"}, {"name": "PartitionedCall/transpose_122/perm", "shape": [4], "dtype": "int32"}, {"name": "PartitionedCall/split_31", "shape": [1, 1, 80, 480], "dtype": "float32"}, {"name": "unknown_62", "shape": [480], "dtype": "float32"}, {"name": "PartitionedCall/transpose_95/perm", "shape": [4], "dtype": "int32"}, {"name": "PartitionedCall/Const_7", "shape": [4, 2], "dtype": "int32"}, {"name": "PartitionedCall/transpose_97/perm", "shape": [4], "dtype": "int32"}, {"name": "PartitionedCall/Reshape_6", "shape": [3, 3, 480, 1], "dtype": "float32"}, {"name": "unknown_64", "shape": [480], "dtype": "float32"}, {"name": "PartitionedCall/transpose_98/perm", "shape": [4], "dtype": "int32"}, {"name": "ConstantFolding/PartitionedCall/split_32-folded-1", "shape": [2], "dtype": "int32"}, {"name": "PartitionedCall/transpose_100/perm", "shape": [4], "dtype": "int32"}, {"name": "PartitionedCall/split_33", "shape": [1, 1, 480, 120], "dtype": "float32"}, {"name": "unknown_66", "shape": [120], "dtype": "float32"}, {"name": "PartitionedCall/transpose_101/perm", "shape": [4], "dtype": "int32"}, {"name": "PartitionedCall/transpose_103/perm", "shape": [4], "dtype": "int32"}, {"name": "PartitionedCall/split_34", "shape": [1, 1, 120, 480], "dtype": "float32"}, {"name": "unknown_68", "shape": [480], "dtype": "float32"}, {"name": "PartitionedCall/transpose_104/perm", "shape": [4], "dtype": "int32"}, {"name": "PartitionedCall/transpose_106/perm", "shape": [4], "dtype": "int32"}, {"name": "PartitionedCall/split_35", "shape": [1, 1, 480, 80], "dtype": "float32"}, {"name": "unknown_70", "shape": [80], "dtype": "float32"}, {"name": "PartitionedCall/transpose_107/perm", "shape": [4], "dtype": "int32"}, {"name": "PartitionedCall/split_21", "shape": [1, 1, 40, 240], "dtype": "float32"}, {"name": "unknown_42", "shape": [240], "dtype": "float32"}, {"name": "PartitionedCall/transpose_65/perm", "shape": [4], "dtype": "int32"}, {"name": "PartitionedCall/Const_5", "shape": [4, 2], "dtype": "int32"}, {"name": "PartitionedCall/transpose_67/perm", "shape": [4], "dtype": "int32"}, {"name": "PartitionedCall/Reshape_4", "shape": [5, 5, 240, 1], "dtype": "float32"}, {"name": "unknown_44", "shape": [240], "dtype": "float32"}, {"name": "PartitionedCall/transpose_68/perm", "shape": [4], "dtype": "int32"}, {"name": "ConstantFolding/PartitionedCall/split_22-folded-1", "shape": [2], "dtype": "int32"}, {"name": "PartitionedCall/transpose_70/perm", "shape": [4], "dtype": "int32"}, {"name": "PartitionedCall/split_23", "shape": [1, 1, 240, 60], "dtype": "float32"}, {"name": "unknown_46", "shape": [60], "dtype": "float32"}, {"name": "PartitionedCall/transpose_71/perm", "shape": [4], "dtype": "int32"}, {"name": "PartitionedCall/transpose_73/perm", "shape": [4], "dtype": "int32"}, {"name": "PartitionedCall/split_24", "shape": [1, 1, 60, 240], "dtype": "float32"}, {"name": "unknown_48", "shape": [240], "dtype": "float32"}, {"name": "PartitionedCall/transpose_74/perm", "shape": [4], "dtype": "int32"}, {"name": "PartitionedCall/transpose_76/perm", "shape": [4], "dtype": "int32"}, {"name": "PartitionedCall/split_25", "shape": [1, 1, 240, 40], "dtype": "float32"}, {"name": "unknown_50", "shape": [40], "dtype": "float32"}, {"name": "PartitionedCall/transpose_77/perm", "shape": [4], "dtype": "int32"}, {"name": "PartitionedCall/split_11", "shape": [1, 1, 24, 144], "dtype": "float32"}, {"name": "unknown_22", "shape": [144], "dtype": "float32"}, {"name": "PartitionedCall/transpose_35/perm", "shape": [4], "dtype": "int32"}, {"name": "PartitionedCall/Const_3", "shape": [4, 2], "dtype": "int32"}, {"name": "PartitionedCall/transpose_37/perm", "shape": [4], "dtype": "int32"}, {"name": "PartitionedCall/Reshape_2", "shape": [3, 3, 144, 1], "dtype": "float32"}, {"name": "unknown_24", "shape": [144], "dtype": "float32"}, {"name": "PartitionedCall/transpose_38/perm", "shape": [4], "dtype": "int32"}, {"name": "ConstantFolding/PartitionedCall/split_12-folded-1", "shape": [2], "dtype": "int32"}, {"name": "PartitionedCall/transpose_40/perm", "shape": [4], "dtype": "int32"}, {"name": "PartitionedCall/split_13", "shape": [1, 1, 144, 36], "dtype": "float32"}, {"name": "unknown_26", "shape": [36], "dtype": "float32"}, {"name": "PartitionedCall/transpose_41/perm", "shape": [4], "dtype": "int32"}, {"name": "PartitionedCall/transpose_43/perm", "shape": [4], "dtype": "int32"}, {"name": "PartitionedCall/split_14", "shape": [1, 1, 36, 144], "dtype": "float32"}, {"name": "unknown_28", "shape": [144], "dtype": "float32"}, {"name": "PartitionedCall/transpose_44/perm", "shape": [4], "dtype": "int32"}, {"name": "PartitionedCall/transpose_46/perm", "shape": [4], "dtype": "int32"}, {"name": "PartitionedCall/split_15", "shape": [1, 1, 144, 24], "dtype": "float32"}, {"name": "unknown_30", "shape": [24], "dtype": "float32"}, {"name": "PartitionedCall/transpose_47/perm", "shape": [4], "dtype": "int32"}, {"name": "PartitionedCall/Const", "shape": [4, 2], "dtype": "int32"}, {"name": "PartitionedCall/transpose_1/perm", "shape": [4], "dtype": "int32"}, {"name": "PartitionedCall/split", "shape": [3, 3, 3, 32], "dtype": "float32"}, {"name": "unknown_0", "shape": [32], "dtype": "float32"}, {"name": "PartitionedCall/transpose_2/perm", "shape": [4], "dtype": "int32"}, {"name": "PartitionedCall/transpose_4/perm", "shape": [4], "dtype": "int32"}, {"name": "PartitionedCall/split_1", "shape": [1, 1, 32, 32], "dtype": "float32"}, {"name": "unknown_2", "shape": [32], "dtype": "float32"}, {"name": "PartitionedCall/transpose_5/perm", "shape": [4], "dtype": "int32"}, {"name": "PartitionedCall/Const_1", "shape": [4, 2], "dtype": "int32"}, {"name": "PartitionedCall/transpose_7/perm", "shape": [4], "dtype": "int32"}, {"name": "PartitionedCall/Reshape", "shape": [3, 3, 32, 1], "dtype": "float32"}, {"name": "unknown_4", "shape": [32], "dtype": "float32"}, {"name": "PartitionedCall/transpose_8/perm", "shape": [4], "dtype": "int32"}, {"name": "ConstantFolding/PartitionedCall/split_2-folded-1", "shape": [2], "dtype": "int32"}, {"name": "PartitionedCall/transpose_10/perm", "shape": [4], "dtype": "int32"}, {"name": "PartitionedCall/split_3", "shape": [1, 1, 32, 8], "dtype": "float32"}, {"name": "unknown_6", "shape": [8], "dtype": "float32"}, {"name": "PartitionedCall/transpose_11/perm", "shape": [4], "dtype": "int32"}, {"name": "PartitionedCall/transpose_13/perm", "shape": [4], "dtype": "int32"}, {"name": "PartitionedCall/split_4", "shape": [1, 1, 8, 32], "dtype": "float32"}, {"name": "unknown_8", "shape": [32], "dtype": "float32"}, {"name": "PartitionedCall/transpose_14/perm", "shape": [4], "dtype": "int32"}, {"name": "PartitionedCall/transpose_16/perm", "shape": [4], "dtype": "int32"}, {"name": "PartitionedCall/split_5", "shape": [1, 1, 32, 16], "dtype": "float32"}, {"name": "unknown_10", "shape": [16], "dtype": "float32"}, {"name": "PartitionedCall/split_6", "shape": [1, 1, 16, 96], "dtype": "float32"}, {"name": "unknown_12", "shape": [96], "dtype": "float32"}, {"name": "PartitionedCall/transpose_20/perm", "shape": [4], "dtype": "int32"}, {"name": "PartitionedCall/Const_2", "shape": [4, 2], "dtype": "int32"}, {"name": "PartitionedCall/transpose_22/perm", "shape": [4], "dtype": "int32"}, {"name": "PartitionedCall/Reshape_1", "shape": [3, 3, 96, 1], "dtype": "float32"}, {"name": "unknown_14", "shape": [96], "dtype": "float32"}, {"name": "PartitionedCall/transpose_23/perm", "shape": [4], "dtype": "int32"}, {"name": "ConstantFolding/PartitionedCall/split_7-folded-1", "shape": [2], "dtype": "int32"}, {"name": "PartitionedCall/transpose_25/perm", "shape": [4], "dtype": "int32"}, {"name": "PartitionedCall/split_8", "shape": [1, 1, 96, 24], "dtype": "float32"}, {"name": "unknown_16", "shape": [24], "dtype": "float32"}, {"name": "PartitionedCall/transpose_26/perm", "shape": [4], "dtype": "int32"}, {"name": "PartitionedCall/transpose_28/perm", "shape": [4], "dtype": "int32"}, {"name": "PartitionedCall/split_9", "shape": [1, 1, 24, 96], "dtype": "float32"}, {"name": "unknown_18", "shape": [96], "dtype": "float32"}, {"name": "PartitionedCall/transpose_29/perm", "shape": [4], "dtype": "int32"}, {"name": "PartitionedCall/transpose_31/perm", "shape": [4], "dtype": "int32"}, {"name": "PartitionedCall/split_10", "shape": [1, 1, 96, 24], "dtype": "float32"}, {"name": "unknown_20", "shape": [24], "dtype": "float32"}, {"name": "PartitionedCall/transpose_32/perm", "shape": [4], "dtype": "int32"}, {"name": "PartitionedCall/transpose_49/perm", "shape": [4], "dtype": "int32"}, {"name": "PartitionedCall/split_16", "shape": [1, 1, 24, 144], "dtype": "float32"}, {"name": "unknown_32", "shape": [144], "dtype": "float32"}, {"name": "PartitionedCall/transpose_50/perm", "shape": [4], "dtype": "int32"}, {"name": "PartitionedCall/Const_4", "shape": [4, 2], "dtype": "int32"}, {"name": "PartitionedCall/transpose_52/perm", "shape": [4], "dtype": "int32"}, {"name": "PartitionedCall/Reshape_3", "shape": [5, 5, 144, 1], "dtype": "float32"}, {"name": "unknown_34", "shape": [144], "dtype": "float32"}, {"name": "PartitionedCall/transpose_53/perm", "shape": [4], "dtype": "int32"}, {"name": "ConstantFolding/PartitionedCall/split_17-folded-1", "shape": [2], "dtype": "int32"}, {"name": "PartitionedCall/transpose_55/perm", "shape": [4], "dtype": "int32"}, {"name": "PartitionedCall/split_18", "shape": [1, 1, 144, 36], "dtype": "float32"}, {"name": "unknown_36", "shape": [36], "dtype": "float32"}, {"name": "PartitionedCall/transpose_56/perm", "shape": [4], "dtype": "int32"}, {"name": "PartitionedCall/transpose_58/perm", "shape": [4], "dtype": "int32"}, {"name": "PartitionedCall/split_19", "shape": [1, 1, 36, 144], "dtype": "float32"}, {"name": "unknown_38", "shape": [144], "dtype": "float32"}, {"name": "PartitionedCall/transpose_59/perm", "shape": [4], "dtype": "int32"}, {"name": "PartitionedCall/transpose_61/perm", "shape": [4], "dtype": "int32"}, {"name": "PartitionedCall/split_20", "shape": [1, 1, 144, 40], "dtype": "float32"}, {"name": "unknown_40", "shape": [40], "dtype": "float32"}, {"name": "PartitionedCall/transpose_62/perm", "shape": [4], "dtype": "int32"}, {"name": "PartitionedCall/transpose_79/perm", "shape": [4], "dtype": "int32"}, {"name": "PartitionedCall/split_26", "shape": [1, 1, 40, 240], "dtype": "float32"}, {"name": "unknown_52", "shape": [240], "dtype": "float32"}, {"name": "PartitionedCall/transpose_80/perm", "shape": [4], "dtype": "int32"}, {"name": "PartitionedCall/Const_6", "shape": [4, 2], "dtype": "int32"}, {"name": "PartitionedCall/transpose_82/perm", "shape": [4], "dtype": "int32"}, {"name": "PartitionedCall/Reshape_5", "shape": [3, 3, 240, 1], "dtype": "float32"}, {"name": "unknown_54", "shape": [240], "dtype": "float32"}, {"name": "PartitionedCall/transpose_83/perm", "shape": [4], "dtype": "int32"}, {"name": "ConstantFolding/PartitionedCall/split_27-folded-1", "shape": [2], "dtype": "int32"}, {"name": "PartitionedCall/transpose_85/perm", "shape": [4], "dtype": "int32"}, {"name": "PartitionedCall/split_28", "shape": [1, 1, 240, 60], "dtype": "float32"}, {"name": "unknown_56", "shape": [60], "dtype": "float32"}, {"name": "PartitionedCall/transpose_86/perm", "shape": [4], "dtype": "int32"}, {"name": "PartitionedCall/transpose_88/perm", "shape": [4], "dtype": "int32"}, {"name": "PartitionedCall/split_29", "shape": [1, 1, 60, 240], "dtype": "float32"}, {"name": "unknown_58", "shape": [240], "dtype": "float32"}, {"name": "PartitionedCall/transpose_89/perm", "shape": [4], "dtype": "int32"}, {"name": "PartitionedCall/transpose_91/perm", "shape": [4], "dtype": "int32"}, {"name": "PartitionedCall/split_30", "shape": [1, 1, 240, 80], "dtype": "float32"}, {"name": "unknown_60", "shape": [80], "dtype": "float32"}, {"name": "PartitionedCall/transpose_92/perm", "shape": [4], "dtype": "int32"}, {"name": "PartitionedCall/transpose_124/perm", "shape": [4], "dtype": "int32"}, {"name": "PartitionedCall/split_41", "shape": [1, 1, 80, 480], "dtype": "float32"}, {"name": "unknown_82", "shape": [480], "dtype": "float32"}, {"name": "PartitionedCall/transpose_125/perm", "shape": [4], "dtype": "int32"}, {"name": "PartitionedCall/Const_9", "shape": [4, 2], "dtype": "int32"}, {"name": "PartitionedCall/transpose_127/perm", "shape": [4], "dtype": "int32"}, {"name": "PartitionedCall/Reshape_8", "shape": [5, 5, 480, 1], "dtype": "float32"}, {"name": "unknown_84", "shape": [480], "dtype": "float32"}, {"name": "PartitionedCall/transpose_128/perm", "shape": [4], "dtype": "int32"}, {"name": "ConstantFolding/PartitionedCall/split_42-folded-1", "shape": [2], "dtype": "int32"}, {"name": "PartitionedCall/transpose_130/perm", "shape": [4], "dtype": "int32"}, {"name": "PartitionedCall/split_43", "shape": [1, 1, 480, 120], "dtype": "float32"}, {"name": "unknown_86", "shape": [120], "dtype": "float32"}, {"name": "PartitionedCall/transpose_131/perm", "shape": [4], "dtype": "int32"}, {"name": "PartitionedCall/transpose_133/perm", "shape": [4], "dtype": "int32"}, {"name": "PartitionedCall/split_44", "shape": [1, 1, 120, 480], "dtype": "float32"}, {"name": "unknown_88", "shape": [480], "dtype": "float32"}, {"name": "PartitionedCall/transpose_134/perm", "shape": [4], "dtype": "int32"}, {"name": "PartitionedCall/transpose_136/perm", "shape": [4], "dtype": "int32"}, {"name": "PartitionedCall/split_45", "shape": [1, 1, 480, 112], "dtype": "float32"}, {"name": "unknown_90", "shape": [112], "dtype": "float32"}, {"name": "PartitionedCall/transpose_137/perm", "shape": [4], "dtype": "int32"}, {"name": "PartitionedCall/transpose_169/perm", "shape": [4], "dtype": "int32"}, {"name": "PartitionedCall/split_56", "shape": [1, 1, 112, 672], "dtype": "float32"}, {"name": "unknown_112", "shape": [672], "dtype": "float32"}, {"name": "PartitionedCall/transpose_170/perm", "shape": [4], "dtype": "int32"}, {"name": "PartitionedCall/Const_12", "shape": [4, 2], "dtype": "int32"}, {"name": "PartitionedCall/transpose_172/perm", "shape": [4], "dtype": "int32"}, {"name": "PartitionedCall/Reshape_11", "shape": [5, 5, 672, 1], "dtype": "float32"}, {"name": "unknown_114", "shape": [672], "dtype": "float32"}, {"name": "PartitionedCall/transpose_173/perm", "shape": [4], "dtype": "int32"}, {"name": "ConstantFolding/PartitionedCall/split_57-folded-1", "shape": [2], "dtype": "int32"}, {"name": "PartitionedCall/transpose_175/perm", "shape": [4], "dtype": "int32"}, {"name": "PartitionedCall/split_58", "shape": [1, 1, 672, 168], "dtype": "float32"}, {"name": "unknown_116", "shape": [168], "dtype": "float32"}, {"name": "PartitionedCall/transpose_176/perm", "shape": [4], "dtype": "int32"}, {"name": "PartitionedCall/transpose_178/perm", "shape": [4], "dtype": "int32"}, {"name": "PartitionedCall/split_59", "shape": [1, 1, 168, 672], "dtype": "float32"}, {"name": "unknown_118", "shape": [672], "dtype": "float32"}, {"name": "PartitionedCall/transpose_179/perm", "shape": [4], "dtype": "int32"}, {"name": "PartitionedCall/transpose_181/perm", "shape": [4], "dtype": "int32"}, {"name": "PartitionedCall/split_60", "shape": [1, 1, 672, 192], "dtype": "float32"}, {"name": "unknown_120", "shape": [192], "dtype": "float32"}, {"name": "PartitionedCall/transpose_182/perm", "shape": [4], "dtype": "int32"}, {"name": "PartitionedCall/transpose_229/perm", "shape": [4], "dtype": "int32"}, {"name": "PartitionedCall/split_76", "shape": [1, 1, 192, 1152], "dtype": "float32"}, {"name": "unknown_152", "shape": [1152], "dtype": "float32"}, {"name": "PartitionedCall/transpose_230/perm", "shape": [4], "dtype": "int32"}, {"name": "PartitionedCall/Const_16", "shape": [4, 2], "dtype": "int32"}, {"name": "PartitionedCall/transpose_232/perm", "shape": [4], "dtype": "int32"}, {"name": "PartitionedCall/Reshape_15", "shape": [3, 3, 1152, 1], "dtype": "float32"}, {"name": "unknown_154", "shape": [1152], "dtype": "float32"}, {"name": "PartitionedCall/transpose_233/perm", "shape": [4], "dtype": "int32"}, {"name": "ConstantFolding/PartitionedCall/split_77-folded-1", "shape": [2], "dtype": "int32"}, {"name": "PartitionedCall/transpose_235/perm", "shape": [4], "dtype": "int32"}, {"name": "PartitionedCall/split_78", "shape": [1, 1, 1152, 288], "dtype": "float32"}, {"name": "unknown_156", "shape": [288], "dtype": "float32"}, {"name": "PartitionedCall/transpose_236/perm", "shape": [4], "dtype": "int32"}, {"name": "PartitionedCall/transpose_238/perm", "shape": [4], "dtype": "int32"}, {"name": "PartitionedCall/split_79", "shape": [1, 1, 288, 1152], "dtype": "float32"}, {"name": "unknown_158", "shape": [1152], "dtype": "float32"}, {"name": "PartitionedCall/transpose_239/perm", "shape": [4], "dtype": "int32"}, {"name": "PartitionedCall/transpose_241/perm", "shape": [4], "dtype": "int32"}, {"name": "PartitionedCall/split_80", "shape": [1, 1, 1152, 320], "dtype": "float32"}, {"name": "unknown_160", "shape": [320], "dtype": "float32"}, {"name": "PartitionedCall/split_81", "shape": [1, 1, 320, 1280], "dtype": "float32"}, {"name": "unknown_162", "shape": [1280], "dtype": "float32"}, {"name": "PartitionedCall/transpose_245/perm", "shape": [4], "dtype": "int32"}, {"name": "ConstantFolding/PartitionedCall/split_82-folded-1", "shape": [2], "dtype": "int32"}, {"name": "PartitionedCall/strided_slice_1/stack", "shape": [1], "dtype": "int32"}, {"name": "PartitionedCall/strided_slice_1/stack_1", "shape": [1], "dtype": "int32"}, {"name": "PartitionedCall/strided_slice_1/stack_2", "shape": [1], "dtype": "int32"}, {"name": "PartitionedCall/Const_19", "shape": [1], "dtype": "int32"}, {"name": "PartitionedCall/flatten/strided_slice/stack", "shape": [1], "dtype": "int32"}, {"name": "PartitionedCall/flatten/strided_slice/stack_1", "shape": [1], "dtype": "int32"}, {"name": "PartitionedCall/flatten/strided_slice/stack_2", "shape": [1], "dtype": "int32"}, {"name": "PartitionedCall/flatten/Reshape/shape/1", "shape": [], "dtype": "int32"}, {"name": "PartitionedCall/transpose_246", "shape": [1280, 7], "dtype": "float32"}, {"name": "PartitionedCall/mul_1", "shape": [7], "dtype": "float32"}]}]}